data/en/ts_cpu.pt (torch, 375687 bytes, 10 tensors)

weight f4 [129, 25]
0	0x3e28a000	0.16467285
1	0xbfe90000	-1.8203125
2	0x3f172000	0.59033203
3	0xc0058000	-2.0859375
4	0xbf66a000	-0.9008789
5	0x3e8ce000	0.27514648
6	0x3f956000	1.1669922
7	0xbb360000	-0.0027770996
8	0x3f48e000	0.78466797
9	0xbea6e000	-0.32592773
10	0xbe014000	-0.1262207
11	0xbeeb4000	-0.45947266
12	0x3f186000	0.59521484
13	0x3f47c000	0.78027344
14	0xbd4ae000	-0.04953003
15	0x3ea08000	0.31347656
16	0xbeb5e000	-0.3552246
17	0x3f358000	0.7089844
18	0xbf2be000	-0.6713867
19	0xbe910000	-0.28320312
20	0x3fcd8000	1.6054688
21	0xbf624000	-0.88378906
22	0x3ef0e000	0.47045898
23	0xbf6fe000	-0.9370117
24	0x401ec000	2.4804688
25	0x3ecc6000	0.39916992
26	0x3f5b0000	0.85546875
27	0x3dadc000	0.08483887
28	0xbdf78000	-0.12084961
29	0xbea7c000	-0.32763672
30	0x3e74c000	0.23901367
31	0xbef16000	-0.47143555
32	0xbf62e000	-0.88623047
33	0x3ee28000	0.4423828
34	0x3cebc000	0.028778076
35	0xbec48000	-0.38378906
36	0x3f87e000	1.0615234
37	0x3d300000	0.04296875
38	0x3ee3c000	0.44482422
39	0x3faa4000	1.3300781
40	0x3e8fe000	0.28100586
41	0xbf83c000	-1.0292969
42	0xbedae000	-0.42749023
43	0xbebf2000	-0.37329102
44	0xbed86000	-0.42260742
45	0x3d2f6000	0.042816162
46	0x3fb64000	1.4238281
47	0x3f4ea000	0.8071289
48	0xbed04000	-0.40673828
49	0x3fe82000	1.8134766
50	0x33800000	5.9604645e-08
51	0x33800000	5.9604645e-08
52	0xb4400000	-1.7881393e-07
53	0x00000000	0.0
54	0x33800000	5.9604645e-08
55	0x33800000	5.9604645e-08
56	0xb3800000	-5.9604645e-08
57	0xb3800000	-5.9604645e-08
58	0xb4000000	-1.1920929e-07
59	0x33800000	5.9604645e-08
60	0x80000000	-0.0
61	0xb3800000	-5.9604645e-08
62	0x34800000	2.3841858e-07
63	0x33800000	5.9604645e-08
64	0xb3800000	-5.9604645e-08
65	0xb3800000	-5.9604645e-08
66	0x33800000	5.9604645e-08
67	0xb3800000	-5.9604645e-08
68	0x33800000	5.9604645e-08
69	0x33800000	5.9604645e-08
70	0x34400000	1.7881393e-07
71	0x33800000	5.9604645e-08
72	0xb3800000	-5.9604645e-08
73	0x34000000	1.1920929e-07
74	0x33800000	5.9604645e-08
75	0x33800000	5.9604645e-08
76	0xb4400000	-1.7881393e-07
77	0x00000000	0.0
78	0x00000000	0.0
79	0x34400000	1.7881393e-07
80	0xb4400000	-1.7881393e-07
81	0xb4000000	-1.1920929e-07
82	0xb3800000	-5.9604645e-08
83	0xb4400000	-1.7881393e-07
84	0x33800000	5.9604645e-08
85	0x80000000	-0.0
86	0x34000000	1.1920929e-07
87	0xb4000000	-1.1920929e-07
88	0x33800000	5.9604645e-08
89	0xb4400000	-1.7881393e-07
90	0xb4000000	-1.1920929e-07
91	0xb3800000	-5.9604645e-08
92	0x34000000	1.1920929e-07
93	0x80000000	-0.0
94	0x80000000	-0.0
95	0xb3800000	-5.9604645e-08
96	0xb3800000	-5.9604645e-08
97	0xb4800000	-2.3841858e-07
98	0x00000000	0.0
99	0xb4000000	-1.1920929e-07
100	0x80000000	-0.0
101	0x00000000	0.0
102	0x00000000	0.0
103	0x00000000	0.0
104	0x33800000	5.9604645e-08
105	0xb3800000	-5.9604645e-08
106	0x00000000	0.0
107	0x33800000	5.9604645e-08
108	0x80000000	-0.0
109	0x34000000	1.1920929e-07
110	0xb3800000	-5.9604645e-08
111	0xb4000000	-1.1920929e-07
112	0xb4000000	-1.1920929e-07
113	0x33800000	5.9604645e-08
114	0x00000000	0.0
115	0x33800000	5.9604645e-08
116	0xb4000000	-1.1920929e-07
117	0xb4000000	-1.1920929e-07
118	0x33800000	5.9604645e-08
119	0x80000000	-0.0
120	0x33800000	5.9604645e-08
121	0xb4000000	-1.1920929e-07
122	0xb3800000	-5.9604645e-08
123	0x33800000	5.9604645e-08
124	0xb3800000	-5.9604645e-08
125	0x80000000	-0.0
126	0x33800000	5.9604645e-08
127	0xb4000000	-1.1920929e-07
128	0x33800000	5.9604645e-08
129	0x80000000	-0.0
130	0x34000000	1.1920929e-07
131	0xb4000000	-1.1920929e-07
132	0x34000000	1.1920929e-07
133	0xb3800000	-5.9604645e-08
134	0x33800000	5.9604645e-08
135	0xb4000000	-1.1920929e-07
136	0x34800000	2.3841858e-07
137	0x00000000	0.0
138	0x34000000	1.1920929e-07
139	0xb3800000	-5.9604645e-08
140	0xb3800000	-5.9604645e-08
141	0x34400000	1.7881393e-07
142	0x80000000	-0.0
143	0x33800000	5.9604645e-08
144	0xb4000000	-1.1920929e-07
145	0x80000000	-0.0
146	0x00000000	0.0
147	0x80000000	-0.0
148	0x00000000	0.0
149	0x80000000	-0.0
150	0x33800000	5.9604645e-08
151	0x34000000	1.1920929e-07
152	0xb3800000	-5.9604645e-08
153	0x34800000	2.3841858e-07
154	0x34400000	1.7881393e-07
155	0x33800000	5.9604645e-08
156	0x34400000	1.7881393e-07
157	0xb4000000	-1.1920929e-07
158	0x00000000	0.0
159	0xb4000000	-1.1920929e-07
160	0xb3800000	-5.9604645e-08
161	0x34400000	1.7881393e-07
162	0x00000000	0.0
163	0xb4000000	-1.1920929e-07
164	0x33800000	5.9604645e-08
165	0x34800000	2.3841858e-07
166	0x34000000	1.1920929e-07
167	0x34000000	1.1920929e-07
168	0x00000000	0.0
169	0x00000000	0.0
170	0x00000000	0.0
171	0xb3800000	-5.9604645e-08
172	0xb4800000	-2.3841858e-07
173	0xb4000000	-1.1920929e-07
174	0xb4000000	-1.1920929e-07
175	0xb3800000	-5.9604645e-08
176	0xb3800000	-5.9604645e-08
177	0x34000000	1.1920929e-07
178	0xb3800000	-5.9604645e-08
179	0x33800000	5.9604645e-08
180	0x34400000	1.7881393e-07
181	0x34000000	1.1920929e-07
182	0xb4400000	-1.7881393e-07
183	0x34400000	1.7881393e-07
184	0x34000000	1.1920929e-07
185	0x34400000	1.7881393e-07
186	0xb4400000	-1.7881393e-07
187	0x34000000	1.1920929e-07
188	0xb4000000	-1.1920929e-07
189	0x34400000	1.7881393e-07
190	0x80000000	-0.0
191	0xb3800000	-5.9604645e-08
192	0x34000000	1.1920929e-07
193	0xb4000000	-1.1920929e-07
194	0xb4000000	-1.1920929e-07
195	0x34000000	1.1920929e-07
196	0xb4000000	-1.1920929e-07
197	0x34000000	1.1920929e-07
198	0x33800000	5.9604645e-08
199	0x00000000	0.0
200	0x00000000	0.0
201	0xb3800000	-5.9604645e-08
202	0x33800000	5.9604645e-08
203	0xb4000000	-1.1920929e-07
204	0x33800000	5.9604645e-08
205	0x80000000	-0.0
206	0x34000000	1.1920929e-07
207	0x34400000	1.7881393e-07
208	0x80000000	-0.0
209	0x34400000	1.7881393e-07
210	0xb3800000	-5.9604645e-08
211	0x34000000	1.1920929e-07
212	0xb4400000	-1.7881393e-07
213	0x33800000	5.9604645e-08
214	0xb4800000	-2.3841858e-07
215	0x33800000	5.9604645e-08
216	0x34000000	1.1920929e-07
217	0x34000000	1.1920929e-07
218	0x34000000	1.1920929e-07
219	0xb4400000	-1.7881393e-07
220	0x00000000	0.0
221	0x34400000	1.7881393e-07
222	0x33800000	5.9604645e-08
223	0xb4000000	-1.1920929e-07
224	0xb3800000	-5.9604645e-08
225	0xb3800000	-5.9604645e-08
226	0x34000000	1.1920929e-07
227	0x33800000	5.9604645e-08
228	0xb3800000	-5.9604645e-08
229	0x34400000	1.7881393e-07
230	0x34000000	1.1920929e-07
231	0xb3800000	-5.9604645e-08
232	0x33800000	5.9604645e-08
233	0x80000000	-0.0
234	0x33800000	5.9604645e-08
235	0x34a00000	2.9802322e-07
236	0xb4000000	-1.1920929e-07
237	0xb4000000	-1.1920929e-07
238	0xb4000000	-1.1920929e-07
239	0x34400000	1.7881393e-07
240	0x34000000	1.1920929e-07
241	0xb4000000	-1.1920929e-07
242	0x00000000	0.0
243	0xb3800000	-5.9604645e-08
244	0xb4000000	-1.1920929e-07
245	0xb3800000	-5.9604645e-08
246	0xb4400000	-1.7881393e-07
247	0x33800000	5.9604645e-08
248	0x80000000	-0.0
249	0xb3800000	-5.9604645e-08
250	0xb4000000	-1.1920929e-07
251	0x34400000	1.7881393e-07
252	0xb4400000	-1.7881393e-07
253	0x34400000	1.7881393e-07
254	0xb3800000	-5.9604645e-08
255	0xb4400000	-1.7881393e-07

cpu f4 [512]
0	0x3d364000	0.04449463
1	0xbf3b8000	-0.7324219
2	0xbe9d4000	-0.3071289
3	0x3f048000	0.5175781
4	0x3dbe2000	0.09283447
5	0x3e8dc000	0.27685547
6	0xbec6a000	-0.38793945
7	0x3ddd4000	0.10803223
8	0x3da46000	0.08026123
9	0x3dd1e000	0.10247803
10	0x3c78e000	0.0151901245
11	0x3dd46000	0.10369873
12	0x3d2e6000	0.04257202
13	0x3d7fa000	0.062408447
14	0xbd008000	-0.03137207
15	0xbe0a2000	-0.1348877
16	0x3e5fe000	0.21862793
17	0x3c042000	0.00806427
18	0x3e428000	0.1899414
19	0xbe80e000	-0.25170898
20	0xbcfc0000	-0.030761719
21	0xbcc4c000	-0.024017334
22	0x3e4d0000	0.20019531
23	0x3da7c000	0.08190918
24	0xbde20000	-0.11035156
25	0x3c93e000	0.018051147
26	0x3dd00000	0.1015625
27	0x3dc74000	0.09729004
28	0x3e84a000	0.2590332
29	0xbd152000	-0.03640747
30	0xbdf70000	-0.12060547
31	0x3e1ea000	0.15490723
32	0xbd930000	-0.071777344
33	0x3e546000	0.20739746
34	0x3e028000	0.1274414
35	0x3e8b6000	0.2722168
36	0x3e5a4000	0.21313477
37	0x3eb6c000	0.3569336
38	0xbef10000	-0.47070312
39	0xbf3cc000	-0.7373047
40	0x3d932000	0.07183838
41	0x3ce76000	0.028244019
42	0x3f07c000	0.53027344
43	0x3e14a000	0.1451416
44	0xbdb70000	-0.08935547
45	0x3e1b2000	0.15148926
46	0xbcce2000	-0.025161743
47	0x3bb64000	0.0055618286
48	0x3e7f4000	0.24926758
49	0xbe352000	-0.17687988
50	0x3da42000	0.08013916
51	0x3e460000	0.19335938
52	0x3ec90000	0.39257812
53	0x3eaec000	0.3413086
54	0xbe4e8000	-0.20166016
55	0x3db9c000	0.09069824
56	0xbed8e000	-0.42358398
57	0x3ce6a000	0.028152466
58	0x3ddc6000	0.10760498
59	0xbed4a000	-0.4152832
60	0x3d328000	0.0435791
61	0x3e7e6000	0.24841309
62	0xbdd5c000	-0.10437012
63	0x3df2e000	0.11859131
64	0x3e242000	0.16027832
65	0xbcb36000	-0.021896362
66	0x3d776000	0.060394287
67	0x3dc0c000	0.09411621
68	0xbd930000	-0.071777344
69	0xbc640000	-0.013916016
70	0x3e39a000	0.18127441
71	0x3e3b0000	0.18261719
72	0xbc806000	-0.015670776
73	0x3c508000	0.01272583
74	0x3d7f8000	0.06237793
75	0x3dfc2000	0.12310791
76	0x3e3da000	0.18518066
77	0x3d98e000	0.074645996
78	0xbd83c000	-0.064331055
79	0x3e5e8000	0.21728516
80	0x3e624000	0.22094727
81	0xbcf58000	-0.029968262
82	0x3e4d6000	0.20056152
83	0x3d9be000	0.07611084
84	0xbc950000	-0.018188477
85	0x3d16c000	0.0368042
86	0xbf0c4000	-0.54785156
87	0x3e14e000	0.14538574
88	0x3d39c000	0.04534912
89	0xbb170000	-0.0023040771
90	0xbf21c000	-0.63183594
91	0x3e4d8000	0.2006836
92	0x3c51e000	0.012809753
93	0x3ea6a000	0.32543945
94	0x3d416000	0.047210693
95	0x3cbc4000	0.022979736
96	0x3e20a000	0.15686035
97	0x3ebbc000	0.36669922
98	0x3e478000	0.19482422
99	0x3d138000	0.036010742
100	0x3d4e0000	0.05029297
101	0x3e2b8000	0.16748047
102	0x3e216000	0.15759277
103	0xbd164000	-0.03668213
104	0x3e100000	0.140625
105	0x3e314000	0.1730957
106	0x3ea82000	0.32836914
107	0x3e96c000	0.2944336
108	0x3d0c4000	0.034240723
109	0x3e70e000	0.23522949
110	0x3e4f4000	0.20239258
111	0x3da94000	0.0826416
112	0xbc24c000	-0.010055542
113	0x3e86e000	0.26342773
114	0xbf052000	-0.52001953
115	0x3e27a000	0.16369629
116	0xbe0b4000	-0.13598633
117	0xbf3fa000	-0.74853516
118	0xbbe46000	-0.006969452
119	0x3dd04000	0.10168457
120	0x3e36a000	0.17834473
121	0x3edcc000	0.43115234
122	0x3e39a000	0.18127441
123	0xbc87c000	-0.016571045
124	0x3e18e000	0.14929199
125	0x3dcaa000	0.09893799
126	0x3e18e000	0.14929199
127	0xbe69a000	-0.22814941
128	0xbe098000	-0.13427734
129	0x3f546000	0.82958984
130	0x3ede2000	0.4338379
131	0xbea36000	-0.3190918
132	0xbdcea000	-0.10089111
133	0xbd4b8000	-0.049682617
134	0x3e782000	0.24230957
135	0xbdeea000	-0.11651611
136	0xbdc74000	-0.09729004
137	0xbdfba000	-0.12286377
138	0xbe8ee000	-0.27905273
139	0xbe3e4000	-0.18579102
140	0xbd828000	-0.0637207
141	0xbe082000	-0.13293457
142	0xbe772000	-0.24133301
143	0xbd4ae000	-0.04953003
144	0xbd8c2000	-0.06842041
145	0xbdb62000	-0.08892822
146	0xbe836000	-0.2565918
147	0x3ec60000	0.38671875
148	0xbde74000	-0.11291504
149	0xbd614000	-0.054992676
150	0xbe870000	-0.26367188
151	0xbde46000	-0.11151123
152	0xbe530000	-0.20605469
153	0xbeb48000	-0.35253906
154	0xbe456000	-0.19274902
155	0xbdf8e000	-0.121520996
156	0xbe1d2000	-0.15344238
157	0xbda76000	-0.081726074
158	0x3d260000	0.040527344
159	0xbb13c000	-0.002254486
160	0xbd43c000	-0.047790527
161	0xbdf38000	-0.118896484
162	0xbd80a000	-0.062805176
163	0x3daac000	0.08337402
164	0xbc808000	-0.015686035
165	0xbd538000	-0.051635742
166	0x3e0a8000	0.1352539
167	0x3f6d8000	0.9277344
168	0xbdd16000	-0.10223389
169	0x3cfac000	0.03060913
170	0x3e13e000	0.14440918
171	0xbe00e000	-0.12585449
172	0x3cdc0000	0.026855469
173	0xbe2c4000	-0.16821289
174	0xbdd94000	-0.1060791
175	0xbd0ee000	-0.03488159
176	0xbd86e000	-0.06585693
177	0x3e6a4000	0.22875977
178	0xbe472000	-0.19445801
179	0xbddb4000	-0.107055664
180	0xbe6ae000	-0.22937012
181	0xbdaa8000	-0.08325195
182	0xbd4ee000	-0.05050659
183	0xbde20000	-0.11035156
184	0x3ec20000	0.37890625
185	0xbd568000	-0.052368164
186	0xbe88a000	-0.2668457
187	0x3f34c000	0.7060547
188	0xbda22000	-0.0791626
189	0xbdca6000	-0.09881592
190	0xbe35a000	-0.17736816
191	0xbda3c000	-0.079956055
192	0xbe9be000	-0.30444336
193	0x3cb7a000	0.022415161
194	0x3c9b8000	0.018981934
195	0x3c9be000	0.01902771
196	0xbdd76000	-0.105163574
197	0xbc166000	-0.009178162
198	0xbe5c2000	-0.21496582
199	0xbd012000	-0.03152466
200	0x3ce66000	0.028121948
201	0xbdc9c000	-0.09851074
202	0xbe734000	-0.23754883
203	0x3e240000	0.16015625
204	0xbdb74000	-0.08947754
205	0xbe80a000	-0.2512207
206	0xbe064000	-0.13110352
207	0xbe00a000	-0.12561035
208	0xbe4e2000	-0.20129395
209	0xbe172000	-0.14758301
210	0xbe298000	-0.16552734
211	0xbe4f4000	-0.20239258
212	0xbdab4000	-0.083618164
213	0xbd730000	-0.059326172
214	0x3ed80000	0.421875
215	0xbe88c000	-0.26708984
216	0xbe110000	-0.14160156
217	0x3dd78000	0.10522461
218	0x3f2ca000	0.6743164
219	0xbdbe8000	-0.09301758
220	0xbe1a4000	-0.15063477
221	0xbeb08000	-0.34472656
222	0xbd8a4000	-0.06750488
223	0xbdeb8000	-0.114990234
224	0xbd0ba000	-0.034088135
225	0xbccba000	-0.024856567
226	0xbe29a000	-0.16564941
227	0xbd39a000	-0.045318604
228	0xbd010000	-0.03149414
229	0xbe742000	-0.23840332
230	0xbe2ac000	-0.16674805
231	0xbd8d8000	-0.0690918
232	0x3ba5e000	0.0050621033
233	0x3d5c0000	0.053710938
234	0xbe7be000	-0.24597168
235	0xbe1fa000	-0.15588379
236	0xbd9d2000	-0.07672119
237	0x3b3fe000	0.0029277802
238	0xbe25a000	-0.16174316
239	0xbd92e000	-0.07171631
240	0x3d776000	0.060394287
241	0xbe3e4000	-0.18579102
242	0x3f1f8000	0.6230469
243	0xbdce4000	-0.10070801
244	0xbd96c000	-0.0736084
245	0x3f5dc000	0.86621094
246	0xbb91c000	-0.004447937
247	0xbdc92000	-0.09820557
248	0xbe1a2000	-0.1505127
249	0xbe9ce000	-0.30639648
250	0xbe2f4000	-0.17114258
251	0x3c57a000	0.013160706
252	0xbd5c2000	-0.053741455
253	0xbdb3c000	-0.087768555
254	0xbdf46000	-0.11932373
255	0xbe4b4000	-0.19848633

cpu f4 [512]
0	0x3d364000	0.04449463
1	0xbf3b8000	-0.7324219
2	0xbe9d4000	-0.3071289
3	0x3f048000	0.5175781
4	0x3dbe2000	0.09283447
5	0x3e8dc000	0.27685547
6	0xbec6a000	-0.38793945
7	0x3ddd4000	0.10803223
8	0x3da46000	0.08026123
9	0x3dd1e000	0.10247803
10	0x3c78e000	0.0151901245
11	0x3dd46000	0.10369873
12	0x3d2e6000	0.04257202
13	0x3d7fa000	0.062408447
14	0xbd008000	-0.03137207
15	0xbe0a2000	-0.1348877
16	0x3e5fe000	0.21862793
17	0x3c042000	0.00806427
18	0x3e428000	0.1899414
19	0xbe80e000	-0.25170898
20	0xbcfc0000	-0.030761719
21	0xbcc4c000	-0.024017334
22	0x3e4d0000	0.20019531
23	0x3da7c000	0.08190918
24	0xbde20000	-0.11035156
25	0x3c93e000	0.018051147
26	0x3dd00000	0.1015625
27	0x3dc74000	0.09729004
28	0x3e84a000	0.2590332
29	0xbd152000	-0.03640747
30	0xbdf70000	-0.12060547
31	0x3e1ea000	0.15490723
32	0xbd930000	-0.071777344
33	0x3e546000	0.20739746
34	0x3e028000	0.1274414
35	0x3e8b6000	0.2722168
36	0x3e5a4000	0.21313477
37	0x3eb6c000	0.3569336
38	0xbef10000	-0.47070312
39	0xbf3cc000	-0.7373047
40	0x3d932000	0.07183838
41	0x3ce76000	0.028244019
42	0x3f07c000	0.53027344
43	0x3e14a000	0.1451416
44	0xbdb70000	-0.08935547
45	0x3e1b2000	0.15148926
46	0xbcce2000	-0.025161743
47	0x3bb64000	0.0055618286
48	0x3e7f4000	0.24926758
49	0xbe352000	-0.17687988
50	0x3da42000	0.08013916
51	0x3e460000	0.19335938
52	0x3ec90000	0.39257812
53	0x3eaec000	0.3413086
54	0xbe4e8000	-0.20166016
55	0x3db9c000	0.09069824
56	0xbed8e000	-0.42358398
57	0x3ce6a000	0.028152466
58	0x3ddc6000	0.10760498
59	0xbed4a000	-0.4152832
60	0x3d328000	0.0435791
61	0x3e7e6000	0.24841309
62	0xbdd5c000	-0.10437012
63	0x3df2e000	0.11859131
64	0x3e242000	0.16027832
65	0xbcb36000	-0.021896362
66	0x3d776000	0.060394287
67	0x3dc0c000	0.09411621
68	0xbd930000	-0.071777344
69	0xbc640000	-0.013916016
70	0x3e39a000	0.18127441
71	0x3e3b0000	0.18261719
72	0xbc806000	-0.015670776
73	0x3c508000	0.01272583
74	0x3d7f8000	0.06237793
75	0x3dfc2000	0.12310791
76	0x3e3da000	0.18518066
77	0x3d98e000	0.074645996
78	0xbd83c000	-0.064331055
79	0x3e5e8000	0.21728516
80	0x3e624000	0.22094727
81	0xbcf58000	-0.029968262
82	0x3e4d6000	0.20056152
83	0x3d9be000	0.07611084
84	0xbc950000	-0.018188477
85	0x3d16c000	0.0368042
86	0xbf0c4000	-0.54785156
87	0x3e14e000	0.14538574
88	0x3d39c000	0.04534912
89	0xbb170000	-0.0023040771
90	0xbf21c000	-0.63183594
91	0x3e4d8000	0.2006836
92	0x3c51e000	0.012809753
93	0x3ea6a000	0.32543945
94	0x3d416000	0.047210693
95	0x3cbc4000	0.022979736
96	0x3e20a000	0.15686035
97	0x3ebbc000	0.36669922
98	0x3e478000	0.19482422
99	0x3d138000	0.036010742
100	0x3d4e0000	0.05029297
101	0x3e2b8000	0.16748047
102	0x3e216000	0.15759277
103	0xbd164000	-0.03668213
104	0x3e100000	0.140625
105	0x3e314000	0.1730957
106	0x3ea82000	0.32836914
107	0x3e96c000	0.2944336
108	0x3d0c4000	0.034240723
109	0x3e70e000	0.23522949
110	0x3e4f4000	0.20239258
111	0x3da94000	0.0826416
112	0xbc24c000	-0.010055542
113	0x3e86e000	0.26342773
114	0xbf052000	-0.52001953
115	0x3e27a000	0.16369629
116	0xbe0b4000	-0.13598633
117	0xbf3fa000	-0.74853516
118	0xbbe46000	-0.006969452
119	0x3dd04000	0.10168457
120	0x3e36a000	0.17834473
121	0x3edcc000	0.43115234
122	0x3e39a000	0.18127441
123	0xbc87c000	-0.016571045
124	0x3e18e000	0.14929199
125	0x3dcaa000	0.09893799
126	0x3e18e000	0.14929199
127	0xbe69a000	-0.22814941
128	0xbe098000	-0.13427734
129	0x3f546000	0.82958984
130	0x3ede2000	0.4338379
131	0xbea36000	-0.3190918
132	0xbdcea000	-0.10089111
133	0xbd4b8000	-0.049682617
134	0x3e782000	0.24230957
135	0xbdeea000	-0.11651611
136	0xbdc74000	-0.09729004
137	0xbdfba000	-0.12286377
138	0xbe8ee000	-0.27905273
139	0xbe3e4000	-0.18579102
140	0xbd828000	-0.0637207
141	0xbe082000	-0.13293457
142	0xbe772000	-0.24133301
143	0xbd4ae000	-0.04953003
144	0xbd8c2000	-0.06842041
145	0xbdb62000	-0.08892822
146	0xbe836000	-0.2565918
147	0x3ec60000	0.38671875
148	0xbde74000	-0.11291504
149	0xbd614000	-0.054992676
150	0xbe870000	-0.26367188
151	0xbde46000	-0.11151123
152	0xbe530000	-0.20605469
153	0xbeb48000	-0.35253906
154	0xbe456000	-0.19274902
155	0xbdf8e000	-0.121520996
156	0xbe1d2000	-0.15344238
157	0xbda76000	-0.081726074
158	0x3d260000	0.040527344
159	0xbb13c000	-0.002254486
160	0xbd43c000	-0.047790527
161	0xbdf38000	-0.118896484
162	0xbd80a000	-0.062805176
163	0x3daac000	0.08337402
164	0xbc808000	-0.015686035
165	0xbd538000	-0.051635742
166	0x3e0a8000	0.1352539
167	0x3f6d8000	0.9277344
168	0xbdd16000	-0.10223389
169	0x3cfac000	0.03060913
170	0x3e13e000	0.14440918
171	0xbe00e000	-0.12585449
172	0x3cdc0000	0.026855469
173	0xbe2c4000	-0.16821289
174	0xbdd94000	-0.1060791
175	0xbd0ee000	-0.03488159
176	0xbd86e000	-0.06585693
177	0x3e6a4000	0.22875977
178	0xbe472000	-0.19445801
179	0xbddb4000	-0.107055664
180	0xbe6ae000	-0.22937012
181	0xbdaa8000	-0.08325195
182	0xbd4ee000	-0.05050659
183	0xbde20000	-0.11035156
184	0x3ec20000	0.37890625
185	0xbd568000	-0.052368164
186	0xbe88a000	-0.2668457
187	0x3f34c000	0.7060547
188	0xbda22000	-0.0791626
189	0xbdca6000	-0.09881592
190	0xbe35a000	-0.17736816
191	0xbda3c000	-0.079956055
192	0xbe9be000	-0.30444336
193	0x3cb7a000	0.022415161
194	0x3c9b8000	0.018981934
195	0x3c9be000	0.01902771
196	0xbdd76000	-0.105163574
197	0xbc166000	-0.009178162
198	0xbe5c2000	-0.21496582
199	0xbd012000	-0.03152466
200	0x3ce66000	0.028121948
201	0xbdc9c000	-0.09851074
202	0xbe734000	-0.23754883
203	0x3e240000	0.16015625
204	0xbdb74000	-0.08947754
205	0xbe80a000	-0.2512207
206	0xbe064000	-0.13110352
207	0xbe00a000	-0.12561035
208	0xbe4e2000	-0.20129395
209	0xbe172000	-0.14758301
210	0xbe298000	-0.16552734
211	0xbe4f4000	-0.20239258
212	0xbdab4000	-0.083618164
213	0xbd730000	-0.059326172
214	0x3ed80000	0.421875
215	0xbe88c000	-0.26708984
216	0xbe110000	-0.14160156
217	0x3dd78000	0.10522461
218	0x3f2ca000	0.6743164
219	0xbdbe8000	-0.09301758
220	0xbe1a4000	-0.15063477
221	0xbeb08000	-0.34472656
222	0xbd8a4000	-0.06750488
223	0xbdeb8000	-0.114990234
224	0xbd0ba000	-0.034088135
225	0xbccba000	-0.024856567
226	0xbe29a000	-0.16564941
227	0xbd39a000	-0.045318604
228	0xbd010000	-0.03149414
229	0xbe742000	-0.23840332
230	0xbe2ac000	-0.16674805
231	0xbd8d8000	-0.0690918
232	0x3ba5e000	0.0050621033
233	0x3d5c0000	0.053710938
234	0xbe7be000	-0.24597168
235	0xbe1fa000	-0.15588379
236	0xbd9d2000	-0.07672119
237	0x3b3fe000	0.0029277802
238	0xbe25a000	-0.16174316
239	0xbd92e000	-0.07171631
240	0x3d776000	0.060394287
241	0xbe3e4000	-0.18579102
242	0x3f1f8000	0.6230469
243	0xbdce4000	-0.10070801
244	0xbd96c000	-0.0736084
245	0x3f5dc000	0.86621094
246	0xbb91c000	-0.004447937
247	0xbdc92000	-0.09820557
248	0xbe1a2000	-0.1505127
249	0xbe9ce000	-0.30639648
250	0xbe2f4000	-0.17114258
251	0x3c57a000	0.013160706
252	0xbd5c2000	-0.053741455
253	0xbdb3c000	-0.087768555
254	0xbdf46000	-0.11932373
255	0xbe4b4000	-0.19848633

cpu f4 [512]
0	0x3db98000	0.09057617
1	0x3cd70000	0.026245117
2	0xbd666000	-0.056243896
3	0x3e558000	0.2084961
4	0x3df44000	0.119262695
5	0xbd18c000	-0.03729248
6	0x3e314000	0.1730957
7	0x3e376000	0.17907715
8	0xbd912000	-0.07086182
9	0x3e69a000	0.22814941
10	0xbe5b6000	-0.2142334
11	0x3cdca000	0.026931763
12	0x3d2e0000	0.04248047
13	0x3ec5a000	0.38598633
14	0x3ee1a000	0.44067383
15	0x3e544000	0.20727539
16	0x3e300000	0.171875
17	0xbd092000	-0.033477783
18	0x3e74c000	0.23901367
19	0x3df02000	0.117248535
20	0xbda74000	-0.08166504
21	0xbe956000	-0.29174805
22	0xbb714000	-0.0036811829
23	0x3e062000	0.13098145
24	0xbd70e000	-0.058807373
25	0x3eb7a000	0.35864258
26	0x3e80e000	0.25170898
27	0x3e564000	0.20922852
28	0x3b330000	0.0027313232
29	0xbdc20000	-0.09472656
30	0xb98f8000	-0.00027370453
31	0x3e00e000	0.12585449
32	0x3e3f8000	0.18701172
33	0x3e8ec000	0.2788086
34	0x3e1fc000	0.15600586
35	0x3e500000	0.203125
36	0x3f35c000	0.70996094
37	0x3e020000	0.12695312
38	0x3e40e000	0.18835449
39	0x3e6ee000	0.23327637
40	0x3e850000	0.25976562
41	0x3c9ee000	0.01939392
42	0xbf048000	-0.5175781
43	0x3eb3e000	0.35131836
44	0xbeb14000	-0.3461914
45	0xbe8be000	-0.27319336
46	0x3e08c000	0.13354492
47	0x3e174000	0.14770508
48	0x3e356000	0.17712402
49	0xbd03e000	-0.032196045
50	0x3e84e000	0.25952148
51	0xbe226000	-0.15856934
52	0xbe04a000	-0.1295166
53	0xbc866000	-0.016403198
54	0xbcc0e000	-0.023544312
55	0xbf272000	-0.65283203
56	0xbd09e000	-0.03366089
57	0x3d408000	0.04699707
58	0x3de8a000	0.113586426
59	0x3e5ce000	0.21569824
60	0x3e6ca000	0.2310791
61	0x3b95e000	0.004573822
62	0xbd4f8000	-0.05065918
63	0xbe11a000	-0.14221191
64	0x3e492000	0.19641113
65	0x3e222000	0.1583252
66	0x3ee2c000	0.4428711
67	0xbd610000	-0.05493164
68	0xbe6ae000	-0.22937012
69	0xbeec4000	-0.46142578
70	0x3e5ec000	0.2175293
71	0x3eb20000	0.34765625
72	0xbe044000	-0.12915039
73	0x3dd22000	0.1026001
74	0x3d330000	0.043701172
75	0x3ec3a000	0.38208008
76	0x3dc9a000	0.09844971
77	0x3e28c000	0.16479492
78	0x3e60e000	0.21960449
79	0x3bb40000	0.005493164
80	0xbe038000	-0.12841797
81	0x3e802000	0.25024414
82	0x3d562000	0.05227661
83	0x3e70a000	0.23498535
84	0x3e37c000	0.17944336
85	0x3c0ea000	0.008705139
86	0x3e19a000	0.15002441
87	0xbe664000	-0.22485352
88	0x3da40000	0.080078125
89	0x3ea14000	0.3149414
90	0xbd62c000	-0.055358887
91	0x3cc84000	0.02444458
92	0xbf32a000	-0.6977539
93	0x3e940000	0.2890625
94	0xbd594000	-0.05303955
95	0xbdda0000	-0.10644531
96	0x3dc64000	0.09680176
97	0x3dcc4000	0.099731445
98	0xbd982000	-0.074279785
99	0x3e004000	0.12524414
100	0xbee84000	-0.45361328
101	0x3e390000	0.18066406
102	0x3c3e2000	0.011604309
103	0x3df34000	0.118774414
104	0x3e486000	0.19567871
105	0x3e1b2000	0.15148926
106	0xbef98000	-0.4873047
107	0xbec54000	-0.3852539
108	0x3e754000	0.23950195
109	0xbdcce000	-0.10003662
110	0xbd56e000	-0.052459717
111	0x3e260000	0.16210938
112	0x3e154000	0.14575195
113	0xbf3fa000	-0.74853516
114	0x3e5fc000	0.21850586
115	0x3e23c000	0.15991211
116	0x3e2b2000	0.16711426
117	0x3e8ae000	0.27124023
118	0x3ede8000	0.4345703
119	0x3d63e000	0.055633545
120	0xbe296000	-0.16540527
121	0xbe3c4000	-0.18383789
122	0x3e932000	0.28735352
123	0x3dd34000	0.103149414
124	0x3ee14000	0.4399414
125	0xbd294000	-0.0413208
126	0x3e8d6000	0.27612305
127	0x3b8e2000	0.004337311
128	0xbd2b0000	-0.041748047
129	0xbe5cc000	-0.21557617
130	0x3d218000	0.03942871
131	0xbe80c000	-0.25146484
132	0xbd9e2000	-0.07720947
133	0xbe072000	-0.13195801
134	0x3c020000	0.00793457
135	0xbd6b4000	-0.057434082
136	0xbd118000	-0.03552246
137	0xbe4fc000	-0.20288086
138	0xbcdc0000	-0.026855469
139	0xbd5ae000	-0.05343628
140	0xbdfb6000	-0.1227417
141	0xbd900000	-0.0703125
142	0xbdc92000	-0.09820557
143	0xbecae000	-0.39624023
144	0xbcd0e000	-0.025497437
145	0xbd7b8000	-0.061401367
146	0xbda76000	-0.081726074
147	0xbe440000	-0.19140625
148	0xbe38a000	-0.18029785
149	0x3e8d6000	0.27612305
150	0xbd4c4000	-0.049865723
151	0xbdcc2000	-0.09967041
152	0xbd968000	-0.07348633
153	0xbcb6e000	-0.022323608
154	0x3ec62000	0.3869629
155	0xbd914000	-0.07092285
156	0xbe2ac000	-0.16674805
157	0xbd4d6000	-0.05014038
158	0xbdae0000	-0.08496094
159	0xbe668000	-0.22509766
160	0x3d506000	0.050872803
161	0xbe10c000	-0.14135742
162	0xbe076000	-0.13220215
163	0xbe062000	-0.13098145
164	0xbe6ba000	-0.23010254
165	0xbe5f0000	-0.21777344
166	0xbe376000	-0.17907715
167	0x3d2d0000	0.042236328
168	0x3ec0e000	0.37670898
169	0xbe2da000	-0.16955566
170	0x3f032000	0.51220703
171	0xbcf46000	-0.029830933
172	0x3ea00000	0.3125
173	0x3e8e2000	0.2775879
174	0xbe0f6000	-0.14001465
175	0xbe35c000	-0.17749023
176	0xbde02000	-0.109436035
177	0xbd378000	-0.044799805
178	0xbef12000	-0.47094727
179	0x3e15e000	0.1463623
180	0x3d0c0000	0.034179688
181	0x3e61e000	0.22058105
182	0xbd830000	-0.063964844
183	0x3f2aa000	0.6665039
184	0x3d906000	0.070495605
185	0xbe580000	-0.2109375
186	0xbd8a8000	-0.06762695
187	0xbed3a000	-0.41333008
188	0xbe82a000	-0.25512695
189	0xbcd82000	-0.026382446
190	0xbdfd0000	-0.123535156
191	0x3d020000	0.03173828
192	0xbec7a000	-0.38989258
193	0xbe2e8000	-0.17041016
194	0xbea90000	-0.33007812
195	0xbdf1a000	-0.11798096
196	0x3d36c000	0.0446167
197	0x3f27a000	0.65478516
198	0xbec8a000	-0.3918457
199	0xbe908000	-0.28222656
200	0x3e21e000	0.15808105
201	0xbdb3e000	-0.08782959
202	0xbd794000	-0.06085205
203	0xbe5cc000	-0.21557617
204	0xbe1e2000	-0.15441895
205	0xbd51c000	-0.051208496
206	0xbe2b0000	-0.16699219
207	0xbe32c000	-0.17456055
208	0xbd6cc000	-0.057800293
209	0xbec34000	-0.38134766
210	0x3e490000	0.19628906
211	0xbe620000	-0.22070312
212	0xbc0ec000	-0.008712769
213	0x3dfde000	0.1239624
214	0xbe9ce000	-0.30639648
215	0x3e310000	0.17285156
216	0xbe2e0000	-0.16992188
217	0xbe032000	-0.12805176
218	0xbdd1a000	-0.10235596
219	0xbdb3a000	-0.08770752
220	0x3f47c000	0.78027344
221	0xbe926000	-0.28588867
222	0xbe8aa000	-0.27075195
223	0x3d532000	0.05154419
224	0xbd7de000	-0.0619812
225	0xbe36c000	-0.1784668
226	0xbcecc000	-0.028900146
227	0xbd9e8000	-0.07739258
228	0x3ec56000	0.38549805
229	0x3d0ce000	0.03439331
230	0xbea9a000	-0.33129883
231	0xbdaf0000	-0.08544922
232	0xbe1d4000	-0.15356445
233	0xbe948000	-0.29003906
234	0x3ed72000	0.42016602
235	0x3f022000	0.5083008
236	0x3d452000	0.04812622
237	0x3cb92000	0.022598267
238	0xbe7a6000	-0.24450684
239	0xbe264000	-0.16235352
240	0xbe466000	-0.19372559
241	0x3f1ee000	0.62060547
242	0xbda12000	-0.07867432
243	0xbe9c2000	-0.30493164
244	0xbdb74000	-0.08947754
245	0xbe778000	-0.24169922
246	0xbee32000	-0.44360352
247	0xbe594000	-0.2121582
248	0x3cbac000	0.02279663
249	0x3cd54000	0.026031494
250	0xbe300000	-0.171875
251	0xbe116000	-0.14196777
252	0xbe1d8000	-0.1538086
253	0x3d168000	0.036743164
254	0xbd07c000	-0.03314209
255	0x3a24c000	0.0006284714

cpu f4 [512]
0	0x3db98000	0.09057617
1	0x3cd70000	0.026245117
2	0xbd666000	-0.056243896
3	0x3e558000	0.2084961
4	0x3df44000	0.119262695
5	0xbd18c000	-0.03729248
6	0x3e314000	0.1730957
7	0x3e376000	0.17907715
8	0xbd912000	-0.07086182
9	0x3e69a000	0.22814941
10	0xbe5b6000	-0.2142334
11	0x3cdca000	0.026931763
12	0x3d2e0000	0.04248047
13	0x3ec5a000	0.38598633
14	0x3ee1a000	0.44067383
15	0x3e544000	0.20727539
16	0x3e300000	0.171875
17	0xbd092000	-0.033477783
18	0x3e74c000	0.23901367
19	0x3df02000	0.117248535
20	0xbda74000	-0.08166504
21	0xbe956000	-0.29174805
22	0xbb714000	-0.0036811829
23	0x3e062000	0.13098145
24	0xbd70e000	-0.058807373
25	0x3eb7a000	0.35864258
26	0x3e80e000	0.25170898
27	0x3e564000	0.20922852
28	0x3b330000	0.0027313232
29	0xbdc20000	-0.09472656
30	0xb98f8000	-0.00027370453
31	0x3e00e000	0.12585449
32	0x3e3f8000	0.18701172
33	0x3e8ec000	0.2788086
34	0x3e1fc000	0.15600586
35	0x3e500000	0.203125
36	0x3f35c000	0.70996094
37	0x3e020000	0.12695312
38	0x3e40e000	0.18835449
39	0x3e6ee000	0.23327637
40	0x3e850000	0.25976562
41	0x3c9ee000	0.01939392
42	0xbf048000	-0.5175781
43	0x3eb3e000	0.35131836
44	0xbeb14000	-0.3461914
45	0xbe8be000	-0.27319336
46	0x3e08c000	0.13354492
47	0x3e174000	0.14770508
48	0x3e356000	0.17712402
49	0xbd03e000	-0.032196045
50	0x3e84e000	0.25952148
51	0xbe226000	-0.15856934
52	0xbe04a000	-0.1295166
53	0xbc866000	-0.016403198
54	0xbcc0e000	-0.023544312
55	0xbf272000	-0.65283203
56	0xbd09e000	-0.03366089
57	0x3d408000	0.04699707
58	0x3de8a000	0.113586426
59	0x3e5ce000	0.21569824
60	0x3e6ca000	0.2310791
61	0x3b95e000	0.004573822
62	0xbd4f8000	-0.05065918
63	0xbe11a000	-0.14221191
64	0x3e492000	0.19641113
65	0x3e222000	0.1583252
66	0x3ee2c000	0.4428711
67	0xbd610000	-0.05493164
68	0xbe6ae000	-0.22937012
69	0xbeec4000	-0.46142578
70	0x3e5ec000	0.2175293
71	0x3eb20000	0.34765625
72	0xbe044000	-0.12915039
73	0x3dd22000	0.1026001
74	0x3d330000	0.043701172
75	0x3ec3a000	0.38208008
76	0x3dc9a000	0.09844971
77	0x3e28c000	0.16479492
78	0x3e60e000	0.21960449
79	0x3bb40000	0.005493164
80	0xbe038000	-0.12841797
81	0x3e802000	0.25024414
82	0x3d562000	0.05227661
83	0x3e70a000	0.23498535
84	0x3e37c000	0.17944336
85	0x3c0ea000	0.008705139
86	0x3e19a000	0.15002441
87	0xbe664000	-0.22485352
88	0x3da40000	0.080078125
89	0x3ea14000	0.3149414
90	0xbd62c000	-0.055358887
91	0x3cc84000	0.02444458
92	0xbf32a000	-0.6977539
93	0x3e940000	0.2890625
94	0xbd594000	-0.05303955
95	0xbdda0000	-0.10644531
96	0x3dc64000	0.09680176
97	0x3dcc4000	0.099731445
98	0xbd982000	-0.074279785
99	0x3e004000	0.12524414
100	0xbee84000	-0.45361328
101	0x3e390000	0.18066406
102	0x3c3e2000	0.011604309
103	0x3df34000	0.118774414
104	0x3e486000	0.19567871
105	0x3e1b2000	0.15148926
106	0xbef98000	-0.4873047
107	0xbec54000	-0.3852539
108	0x3e754000	0.23950195
109	0xbdcce000	-0.10003662
110	0xbd56e000	-0.052459717
111	0x3e260000	0.16210938
112	0x3e154000	0.14575195
113	0xbf3fa000	-0.74853516
114	0x3e5fc000	0.21850586
115	0x3e23c000	0.15991211
116	0x3e2b2000	0.16711426
117	0x3e8ae000	0.27124023
118	0x3ede8000	0.4345703
119	0x3d63e000	0.055633545
120	0xbe296000	-0.16540527
121	0xbe3c4000	-0.18383789
122	0x3e932000	0.28735352
123	0x3dd34000	0.103149414
124	0x3ee14000	0.4399414
125	0xbd294000	-0.0413208
126	0x3e8d6000	0.27612305
127	0x3b8e2000	0.004337311
128	0xbd2b0000	-0.041748047
129	0xbe5cc000	-0.21557617
130	0x3d218000	0.03942871
131	0xbe80c000	-0.25146484
132	0xbd9e2000	-0.07720947
133	0xbe072000	-0.13195801
134	0x3c020000	0.00793457
135	0xbd6b4000	-0.057434082
136	0xbd118000	-0.03552246
137	0xbe4fc000	-0.20288086
138	0xbcdc0000	-0.026855469
139	0xbd5ae000	-0.05343628
140	0xbdfb6000	-0.1227417
141	0xbd900000	-0.0703125
142	0xbdc92000	-0.09820557
143	0xbecae000	-0.39624023
144	0xbcd0e000	-0.025497437
145	0xbd7b8000	-0.061401367
146	0xbda76000	-0.081726074
147	0xbe440000	-0.19140625
148	0xbe38a000	-0.18029785
149	0x3e8d6000	0.27612305
150	0xbd4c4000	-0.049865723
151	0xbdcc2000	-0.09967041
152	0xbd968000	-0.07348633
153	0xbcb6e000	-0.022323608
154	0x3ec62000	0.3869629
155	0xbd914000	-0.07092285
156	0xbe2ac000	-0.16674805
157	0xbd4d6000	-0.05014038
158	0xbdae0000	-0.08496094
159	0xbe668000	-0.22509766
160	0x3d506000	0.050872803
161	0xbe10c000	-0.14135742
162	0xbe076000	-0.13220215
163	0xbe062000	-0.13098145
164	0xbe6ba000	-0.23010254
165	0xbe5f0000	-0.21777344
166	0xbe376000	-0.17907715
167	0x3d2d0000	0.042236328
168	0x3ec0e000	0.37670898
169	0xbe2da000	-0.16955566
170	0x3f032000	0.51220703
171	0xbcf46000	-0.029830933
172	0x3ea00000	0.3125
173	0x3e8e2000	0.2775879
174	0xbe0f6000	-0.14001465
175	0xbe35c000	-0.17749023
176	0xbde02000	-0.109436035
177	0xbd378000	-0.044799805
178	0xbef12000	-0.47094727
179	0x3e15e000	0.1463623
180	0x3d0c0000	0.034179688
181	0x3e61e000	0.22058105
182	0xbd830000	-0.063964844
183	0x3f2aa000	0.6665039
184	0x3d906000	0.070495605
185	0xbe580000	-0.2109375
186	0xbd8a8000	-0.06762695
187	0xbed3a000	-0.41333008
188	0xbe82a000	-0.25512695
189	0xbcd82000	-0.026382446
190	0xbdfd0000	-0.123535156
191	0x3d020000	0.03173828
192	0xbec7a000	-0.38989258
193	0xbe2e8000	-0.17041016
194	0xbea90000	-0.33007812
195	0xbdf1a000	-0.11798096
196	0x3d36c000	0.0446167
197	0x3f27a000	0.65478516
198	0xbec8a000	-0.3918457
199	0xbe908000	-0.28222656
200	0x3e21e000	0.15808105
201	0xbdb3e000	-0.08782959
202	0xbd794000	-0.06085205
203	0xbe5cc000	-0.21557617
204	0xbe1e2000	-0.15441895
205	0xbd51c000	-0.051208496
206	0xbe2b0000	-0.16699219
207	0xbe32c000	-0.17456055
208	0xbd6cc000	-0.057800293
209	0xbec34000	-0.38134766
210	0x3e490000	0.19628906
211	0xbe620000	-0.22070312
212	0xbc0ec000	-0.008712769
213	0x3dfde000	0.1239624
214	0xbe9ce000	-0.30639648
215	0x3e310000	0.17285156
216	0xbe2e0000	-0.16992188
217	0xbe032000	-0.12805176
218	0xbdd1a000	-0.10235596
219	0xbdb3a000	-0.08770752
220	0x3f47c000	0.78027344
221	0xbe926000	-0.28588867
222	0xbe8aa000	-0.27075195
223	0x3d532000	0.05154419
224	0xbd7de000	-0.0619812
225	0xbe36c000	-0.1784668
226	0xbcecc000	-0.028900146
227	0xbd9e8000	-0.07739258
228	0x3ec56000	0.38549805
229	0x3d0ce000	0.03439331
230	0xbea9a000	-0.33129883
231	0xbdaf0000	-0.08544922
232	0xbe1d4000	-0.15356445
233	0xbe948000	-0.29003906
234	0x3ed72000	0.42016602
235	0x3f022000	0.5083008
236	0x3d452000	0.04812622
237	0x3cb92000	0.022598267
238	0xbe7a6000	-0.24450684
239	0xbe264000	-0.16235352
240	0xbe466000	-0.19372559
241	0x3f1ee000	0.62060547
242	0xbda12000	-0.07867432
243	0xbe9c2000	-0.30493164
244	0xbdb74000	-0.08947754
245	0xbe778000	-0.24169922
246	0xbee32000	-0.44360352
247	0xbe594000	-0.2121582
248	0x3cbac000	0.02279663
249	0x3cd54000	0.026031494
250	0xbe300000	-0.171875
251	0xbe116000	-0.14196777
252	0xbe1d8000	-0.1538086
253	0x3d168000	0.036743164
254	0xbd07c000	-0.03314209
255	0x3a24c000	0.0006284714

cpu f4 [256]
0	0x3dc04000	0.09387207
1	0xbe0f4000	-0.13989258
2	0xbe2c2000	-0.16809082
3	0xbe550000	-0.20800781
4	0x3da6e000	0.08148193
5	0xbf034000	-0.5126953
6	0xbb8f4000	-0.004371643
7	0xbe99c000	-0.30029297
8	0xbd204000	-0.039123535
9	0x3d390000	0.045166016
10	0xbd85e000	-0.06536865
11	0x3d024000	0.031799316
12	0x3dd18000	0.10229492
13	0x3b4a0000	0.0030822754
14	0xbee3e000	-0.44506836
15	0x3e408000	0.18798828
16	0xbe124000	-0.14282227
17	0xbd44a000	-0.04800415
18	0xbe952000	-0.29125977
19	0xbe16c000	-0.1472168
20	0x3cdc8000	0.026916504
21	0xbe3a8000	-0.1821289
22	0xbe3a4000	-0.18188477
23	0xbd7c2000	-0.061553955
24	0x3dba0000	0.09082031
25	0x3e0e2000	0.13879395
26	0xbe5be000	-0.21472168
27	0xbe834000	-0.25634766
28	0xbeaea000	-0.34106445
29	0xbdbcc000	-0.092163086
30	0xbebe4000	-0.37158203
31	0xbe4a0000	-0.19726562
32	0xbd4fe000	-0.050750732
33	0xbe15c000	-0.14624023
34	0xbec22000	-0.3791504
35	0xbed4e000	-0.41577148
36	0xbe8ce000	-0.27514648
37	0x3d328000	0.0435791
38	0x3dc42000	0.09576416
39	0xbe18c000	-0.14916992
40	0xbe9d8000	-0.3076172
41	0xbe8ba000	-0.27270508
42	0x3dbfe000	0.093688965
43	0xbe944000	-0.28955078
44	0xbdb0c000	-0.08630371
45	0xbdc90000	-0.09814453
46	0xbe944000	-0.28955078
47	0xbe33e000	-0.17565918
48	0xbd1ee000	-0.03878784
49	0xbe190000	-0.14941406
50	0xbe890000	-0.26757812
51	0xbdd70000	-0.10498047
52	0xbe5d6000	-0.21618652
53	0xbca36000	-0.019943237
54	0xbe862000	-0.2619629
55	0xbdac8000	-0.084228516
56	0xbe796000	-0.24353027
57	0x3df22000	0.1182251
58	0xbe21c000	-0.15795898
59	0xbe1ee000	-0.15515137
60	0xbbeaa000	-0.007160187
61	0xbe28a000	-0.16467285
62	0xbeb08000	-0.34472656
63	0xbdce2000	-0.10064697
64	0x3dec8000	0.115478516
65	0xbe270000	-0.16308594
66	0x3bbbc000	0.0057296753
67	0x3d82a000	0.06378174
68	0xbdf76000	-0.120788574
69	0x3e8a2000	0.2697754
70	0x3dc8a000	0.097961426
71	0xbd908000	-0.07055664
72	0x3dbfc000	0.09362793
73	0x3e47e000	0.19519043
74	0xbe5e2000	-0.21691895
75	0xbd8cc000	-0.068725586
76	0xbc986000	-0.018600464
77	0x3dcf4000	0.10119629
78	0x3ddec000	0.10876465
79	0x3df38000	0.118896484
80	0x3d2c8000	0.042114258
81	0xbd06a000	-0.03286743
82	0x3e328000	0.1743164
83	0xbe186000	-0.14880371
84	0xbdb9c000	-0.09069824
85	0xbe58c000	-0.21166992
86	0xbde22000	-0.1104126
87	0xbc9f4000	-0.019439697
88	0x3dc9a000	0.09844971
89	0x3e21c000	0.15795898
90	0x3dff8000	0.12475586
91	0x3de72000	0.112854004
92	0xbd66e000	-0.056365967
93	0x3decc000	0.115600586
94	0x3e50a000	0.20373535
95	0xbde74000	-0.11291504
96	0x3c866000	0.016403198
97	0xbdb40000	-0.087890625
98	0x3e2da000	0.16955566
99	0x3da92000	0.08258057
100	0x3e080000	0.1328125
101	0xbdd26000	-0.10272217
102	0x3c3f4000	0.011672974
103	0x3e0e0000	0.13867188
104	0x3e9e2000	0.3088379
105	0x3e62a000	0.22131348
106	0xbbc2a000	-0.0059394836
107	0x3e6fc000	0.23413086
108	0x3c218000	0.009857178
109	0x3d786000	0.060638428
110	0x3e0ca000	0.1373291
111	0xbde3e000	-0.11126709
112	0x3e26a000	0.16271973
113	0x3c706000	0.014671326
114	0x3e368000	0.17822266
115	0xbcf04000	-0.029327393
116	0x3e2ca000	0.1685791
117	0x3c91a000	0.01777649
118	0xbbe5c000	-0.0070114136
119	0xbca30000	-0.019897461
120	0x3de2e000	0.11077881
121	0xbc1c4000	-0.009536743
122	0x3e2bc000	0.16772461
123	0x3dd8a000	0.105773926
124	0xbdb04000	-0.08605957
125	0x3cab4000	0.020904541
126	0x3e6b6000	0.2298584
127	0xbe4b2000	-0.19836426
128	0x3e11c000	0.14233398
129	0x3e40a000	0.18811035
130	0xbecf6000	-0.4050293
131	0x3dcb4000	0.099243164
132	0xbe78e000	-0.24304199
133	0xbdb8c000	-0.09020996
134	0x3daf2000	0.085510254
135	0xbd756000	-0.059906006
136	0x3eaf8000	0.34277344
137	0xbe2d6000	-0.16931152
138	0x3d598000	0.053100586
139	0xbe872000	-0.26391602
140	0xbe12c000	-0.14331055
141	0xbd88e000	-0.066833496
142	0xbd1c6000	-0.03817749
143	0xbdbf6000	-0.093444824
144	0x3de54000	0.11193848
145	0x3e3a2000	0.1817627
146	0xbdfd8000	-0.1237793
147	0xbe396000	-0.18103027
148	0xbe4a6000	-0.19763184
149	0xbe346000	-0.17614746
150	0xbc3bc000	-0.011459351
151	0x3d846000	0.06463623
152	0x3dcdc000	0.10046387
153	0x3e876000	0.2644043
154	0xbdb5e000	-0.08880615
155	0xbdc1e000	-0.09466553
156	0x3dd5e000	0.10443115
157	0x3e08e000	0.13366699
158	0xbb0f6000	-0.0021877289
159	0x3e6d4000	0.23168945
160	0x3dd9c000	0.10632324
161	0xbe2ca000	-0.1685791
162	0xbcbc0000	-0.022949219
163	0xbc19a000	-0.009376526
164	0xbddb4000	-0.107055664
165	0xbe2c6000	-0.16833496
166	0xbca4e000	-0.020126343
167	0xbdab2000	-0.08355713
168	0xbdde2000	-0.10845947
169	0xbe4a4000	-0.19750977
170	0x3d984000	0.07434082
171	0xbab9e000	-0.0014181137
172	0xbec58000	-0.3857422
173	0xbdb42000	-0.08795166
174	0xbdec4000	-0.115356445
175	0x3de2c000	0.11071777
176	0x3d270000	0.040771484
177	0xbbc0c000	-0.005882263
178	0xbc0d6000	-0.008628845
179	0xbd08c000	-0.03338623
180	0x3d850000	0.064941406
181	0x3b8f4000	0.004371643
182	0xbb008000	-0.0019607544
183	0x3da2a000	0.07940674
184	0x3e0a0000	0.13476562
185	0xbe6ec000	-0.2331543
186	0xbdd90000	-0.10595703
187	0x3d0f2000	0.034942627
188	0xbc4c2000	-0.012458801
189	0xbd8e8000	-0.06958008
190	0xbc480000	-0.012207031
191	0x3ddf2000	0.108947754
192	0x3e3b4000	0.18286133
193	0xbdd5c000	-0.10437012
194	0xbf256000	-0.6459961
195	0xbe36e000	-0.17858887
196	0x3bd9c000	0.0066452026
197	0xbeaea000	-0.34106445
198	0x3e4a2000	0.1973877
199	0xbcbec000	-0.023284912
200	0x3d128000	0.0357666
201	0xbd9f2000	-0.077697754
202	0xbe240000	-0.16015625
203	0x3d728000	0.0592041
204	0xbdbb6000	-0.0914917
205	0x3c408000	0.011749268
206	0xbd6ca000	-0.057769775
207	0x3e4e8000	0.20166016
208	0xbe10a000	-0.14123535
209	0xbc396000	-0.011314392
210	0x3ddae000	0.10687256
211	0xbe37a000	-0.17932129
212	0xbd08c000	-0.03338623
213	0xbd450000	-0.048095703
214	0xbd4e0000	-0.05029297
215	0xbe4c0000	-0.19921875
216	0x3de26000	0.11053467
217	0x3e6b8000	0.22998047
218	0xbb9d8000	-0.0048065186
219	0xbea32000	-0.31860352
220	0xbe888000	-0.26660156
221	0x3dad8000	0.0847168
222	0xbc99a000	-0.018753052
223	0xbe00e000	-0.12585449
224	0xbbd66000	-0.006542206
225	0xbd606000	-0.054779053
226	0x3d63c000	0.055603027
227	0x3ce48000	0.027893066
228	0xbdc7a000	-0.097473145
229	0x3c056000	0.008140564
230	0xbd27c000	-0.04095459
231	0xbd43e000	-0.047821045
232	0xbdc56000	-0.09637451
233	0xbd978000	-0.07397461
234	0xbe3c2000	-0.18371582
235	0xbd10e000	-0.035369873
236	0xbe4b8000	-0.19873047
237	0xbd1d8000	-0.03845215
238	0xbe02a000	-0.12756348
239	0xbe282000	-0.16418457
240	0x3daf0000	0.08544922
241	0xbdebe000	-0.11517334
242	0x3cc1a000	0.023635864
243	0xbc6c8000	-0.014434814
244	0x3d8d2000	0.06890869
245	0xbd730000	-0.059326172
246	0xbd5c0000	-0.053710938
247	0x3b53a000	0.0032291412
248	0xbdb5e000	-0.08880615
249	0x3d60a000	0.054840088
250	0xbea5c000	-0.32373047
251	0xbe026000	-0.12731934
252	0x3de4a000	0.1116333
253	0x3d572000	0.052520752
254	0x3abe0000	0.001449585
255	0xbe242000	-0.16027832

cpu f4 [256]
0	0x3dc04000	0.09387207
1	0xbe0f4000	-0.13989258
2	0xbe2c2000	-0.16809082
3	0xbe550000	-0.20800781
4	0x3da6e000	0.08148193
5	0xbf034000	-0.5126953
6	0xbb8f4000	-0.004371643
7	0xbe99c000	-0.30029297
8	0xbd204000	-0.039123535
9	0x3d390000	0.045166016
10	0xbd85e000	-0.06536865
11	0x3d024000	0.031799316
12	0x3dd18000	0.10229492
13	0x3b4a0000	0.0030822754
14	0xbee3e000	-0.44506836
15	0x3e408000	0.18798828
16	0xbe124000	-0.14282227
17	0xbd44a000	-0.04800415
18	0xbe952000	-0.29125977
19	0xbe16c000	-0.1472168
20	0x3cdc8000	0.026916504
21	0xbe3a8000	-0.1821289
22	0xbe3a4000	-0.18188477
23	0xbd7c2000	-0.061553955
24	0x3dba0000	0.09082031
25	0x3e0e2000	0.13879395
26	0xbe5be000	-0.21472168
27	0xbe834000	-0.25634766
28	0xbeaea000	-0.34106445
29	0xbdbcc000	-0.092163086
30	0xbebe4000	-0.37158203
31	0xbe4a0000	-0.19726562
32	0xbd4fe000	-0.050750732
33	0xbe15c000	-0.14624023
34	0xbec22000	-0.3791504
35	0xbed4e000	-0.41577148
36	0xbe8ce000	-0.27514648
37	0x3d328000	0.0435791
38	0x3dc42000	0.09576416
39	0xbe18c000	-0.14916992
40	0xbe9d8000	-0.3076172
41	0xbe8ba000	-0.27270508
42	0x3dbfe000	0.093688965
43	0xbe944000	-0.28955078
44	0xbdb0c000	-0.08630371
45	0xbdc90000	-0.09814453
46	0xbe944000	-0.28955078
47	0xbe33e000	-0.17565918
48	0xbd1ee000	-0.03878784
49	0xbe190000	-0.14941406
50	0xbe890000	-0.26757812
51	0xbdd70000	-0.10498047
52	0xbe5d6000	-0.21618652
53	0xbca36000	-0.019943237
54	0xbe862000	-0.2619629
55	0xbdac8000	-0.084228516
56	0xbe796000	-0.24353027
57	0x3df22000	0.1182251
58	0xbe21c000	-0.15795898
59	0xbe1ee000	-0.15515137
60	0xbbeaa000	-0.007160187
61	0xbe28a000	-0.16467285
62	0xbeb08000	-0.34472656
63	0xbdce2000	-0.10064697
64	0x3dec8000	0.115478516
65	0xbe270000	-0.16308594
66	0x3bbbc000	0.0057296753
67	0x3d82a000	0.06378174
68	0xbdf76000	-0.120788574
69	0x3e8a2000	0.2697754
70	0x3dc8a000	0.097961426
71	0xbd908000	-0.07055664
72	0x3dbfc000	0.09362793
73	0x3e47e000	0.19519043
74	0xbe5e2000	-0.21691895
75	0xbd8cc000	-0.068725586
76	0xbc986000	-0.018600464
77	0x3dcf4000	0.10119629
78	0x3ddec000	0.10876465
79	0x3df38000	0.118896484
80	0x3d2c8000	0.042114258
81	0xbd06a000	-0.03286743
82	0x3e328000	0.1743164
83	0xbe186000	-0.14880371
84	0xbdb9c000	-0.09069824
85	0xbe58c000	-0.21166992
86	0xbde22000	-0.1104126
87	0xbc9f4000	-0.019439697
88	0x3dc9a000	0.09844971
89	0x3e21c000	0.15795898
90	0x3dff8000	0.12475586
91	0x3de72000	0.112854004
92	0xbd66e000	-0.056365967
93	0x3decc000	0.115600586
94	0x3e50a000	0.20373535
95	0xbde74000	-0.11291504
96	0x3c866000	0.016403198
97	0xbdb40000	-0.087890625
98	0x3e2da000	0.16955566
99	0x3da92000	0.08258057
100	0x3e080000	0.1328125
101	0xbdd26000	-0.10272217
102	0x3c3f4000	0.011672974
103	0x3e0e0000	0.13867188
104	0x3e9e2000	0.3088379
105	0x3e62a000	0.22131348
106	0xbbc2a000	-0.0059394836
107	0x3e6fc000	0.23413086
108	0x3c218000	0.009857178
109	0x3d786000	0.060638428
110	0x3e0ca000	0.1373291
111	0xbde3e000	-0.11126709
112	0x3e26a000	0.16271973
113	0x3c706000	0.014671326
114	0x3e368000	0.17822266
115	0xbcf04000	-0.029327393
116	0x3e2ca000	0.1685791
117	0x3c91a000	0.01777649
118	0xbbe5c000	-0.0070114136
119	0xbca30000	-0.019897461
120	0x3de2e000	0.11077881
121	0xbc1c4000	-0.009536743
122	0x3e2bc000	0.16772461
123	0x3dd8a000	0.105773926
124	0xbdb04000	-0.08605957
125	0x3cab4000	0.020904541
126	0x3e6b6000	0.2298584
127	0xbe4b2000	-0.19836426
128	0x3e11c000	0.14233398
129	0x3e40a000	0.18811035
130	0xbecf6000	-0.4050293
131	0x3dcb4000	0.099243164
132	0xbe78e000	-0.24304199
133	0xbdb8c000	-0.09020996
134	0x3daf2000	0.085510254
135	0xbd756000	-0.059906006
136	0x3eaf8000	0.34277344
137	0xbe2d6000	-0.16931152
138	0x3d598000	0.053100586
139	0xbe872000	-0.26391602
140	0xbe12c000	-0.14331055
141	0xbd88e000	-0.066833496
142	0xbd1c6000	-0.03817749
143	0xbdbf6000	-0.093444824
144	0x3de54000	0.11193848
145	0x3e3a2000	0.1817627
146	0xbdfd8000	-0.1237793
147	0xbe396000	-0.18103027
148	0xbe4a6000	-0.19763184
149	0xbe346000	-0.17614746
150	0xbc3bc000	-0.011459351
151	0x3d846000	0.06463623
152	0x3dcdc000	0.10046387
153	0x3e876000	0.2644043
154	0xbdb5e000	-0.08880615
155	0xbdc1e000	-0.09466553
156	0x3dd5e000	0.10443115
157	0x3e08e000	0.13366699
158	0xbb0f6000	-0.0021877289
159	0x3e6d4000	0.23168945
160	0x3dd9c000	0.10632324
161	0xbe2ca000	-0.1685791
162	0xbcbc0000	-0.022949219
163	0xbc19a000	-0.009376526
164	0xbddb4000	-0.107055664
165	0xbe2c6000	-0.16833496
166	0xbca4e000	-0.020126343
167	0xbdab2000	-0.08355713
168	0xbdde2000	-0.10845947
169	0xbe4a4000	-0.19750977
170	0x3d984000	0.07434082
171	0xbab9e000	-0.0014181137
172	0xbec58000	-0.3857422
173	0xbdb42000	-0.08795166
174	0xbdec4000	-0.115356445
175	0x3de2c000	0.11071777
176	0x3d270000	0.040771484
177	0xbbc0c000	-0.005882263
178	0xbc0d6000	-0.008628845
179	0xbd08c000	-0.03338623
180	0x3d850000	0.064941406
181	0x3b8f4000	0.004371643
182	0xbb008000	-0.0019607544
183	0x3da2a000	0.07940674
184	0x3e0a0000	0.13476562
185	0xbe6ec000	-0.2331543
186	0xbdd90000	-0.10595703
187	0x3d0f2000	0.034942627
188	0xbc4c2000	-0.012458801
189	0xbd8e8000	-0.06958008
190	0xbc480000	-0.012207031
191	0x3ddf2000	0.108947754
192	0x3e3b4000	0.18286133
193	0xbdd5c000	-0.10437012
194	0xbf256000	-0.6459961
195	0xbe36e000	-0.17858887
196	0x3bd9c000	0.0066452026
197	0xbeaea000	-0.34106445
198	0x3e4a2000	0.1973877
199	0xbcbec000	-0.023284912
200	0x3d128000	0.0357666
201	0xbd9f2000	-0.077697754
202	0xbe240000	-0.16015625
203	0x3d728000	0.0592041
204	0xbdbb6000	-0.0914917
205	0x3c408000	0.011749268
206	0xbd6ca000	-0.057769775
207	0x3e4e8000	0.20166016
208	0xbe10a000	-0.14123535
209	0xbc396000	-0.011314392
210	0x3ddae000	0.10687256
211	0xbe37a000	-0.17932129
212	0xbd08c000	-0.03338623
213	0xbd450000	-0.048095703
214	0xbd4e0000	-0.05029297
215	0xbe4c0000	-0.19921875
216	0x3de26000	0.11053467
217	0x3e6b8000	0.22998047
218	0xbb9d8000	-0.0048065186
219	0xbea32000	-0.31860352
220	0xbe888000	-0.26660156
221	0x3dad8000	0.0847168
222	0xbc99a000	-0.018753052
223	0xbe00e000	-0.12585449
224	0xbbd66000	-0.006542206
225	0xbd606000	-0.054779053
226	0x3d63c000	0.055603027
227	0x3ce48000	0.027893066
228	0xbdc7a000	-0.097473145
229	0x3c056000	0.008140564
230	0xbd27c000	-0.04095459
231	0xbd43e000	-0.047821045
232	0xbdc56000	-0.09637451
233	0xbd978000	-0.07397461
234	0xbe3c2000	-0.18371582
235	0xbd10e000	-0.035369873
236	0xbe4b8000	-0.19873047
237	0xbd1d8000	-0.03845215
238	0xbe02a000	-0.12756348
239	0xbe282000	-0.16418457
240	0x3daf0000	0.08544922
241	0xbdebe000	-0.11517334
242	0x3cc1a000	0.023635864
243	0xbc6c8000	-0.014434814
244	0x3d8d2000	0.06890869
245	0xbd730000	-0.059326172
246	0xbd5c0000	-0.053710938
247	0x3b53a000	0.0032291412
248	0xbdb5e000	-0.08880615
249	0x3d60a000	0.054840088
250	0xbea5c000	-0.32373047
251	0xbe026000	-0.12731934
252	0x3de4a000	0.1116333
253	0x3d572000	0.052520752
254	0x3abe0000	0.001449585
255	0xbe242000	-0.16027832
