data/de/ts_cpu.pt (torch, 650322 bytes, 7 tensors)

weight f4 [129, 25]
00000000: 00c0 3a3e 0020 e13e 0000 b43e 0000 76be
00000010: 0040 723f 0000 07c0 00e0 4c3f 0080 87be
00000020: 0060 853f 00a0 2fbe 00e0 22be 0000 cebe
00000030: 0060 173e 0080 6a3e 0000 a1bf 0060 413f
00000040: 0000 da3e 00a0 463f 0040 25be 0040 b5bf
00000050: 00a0 48bf 0020 60bf 0000 393e 00e0 e23e
00000060: 0000 0340 00a0 613f 0000 9cbf 00e0 c83d
00000070: 00c0 353e 00c0 c9bf 0000 a63d 00c0 303c
00000080: 00a0 afbe 00c0 ad3e 0040 273f 0060 2abf
00000090: 0060 7c3e 0080 da3e 0060 da3e 0020 ac3f
000000a0: 0060 83be 0000 243e 0020 edbd 0040 c2bf
000000b0: 0000 7a3e 0060 0f3f 0040 2abe 00c0 853e
000000c0: 0040 eebe 0020 a63e 0020 9e3b 0040 4f3b
000000d0: 00a0 fabb 0080 dcba 0080 f637 0080 7d38
000000e0: 0000 86b9 00e0 cfba 00c0 28bb 00c0 f538
000000f0: 0060 dd3a 0040 2e3b 0080 e73a 0040 1cbb
00000100: 0000 eb3b 00e0 f43b 0080 f73b 00e0 153c
00000110: 00e0 be3a 0080 a9ba 00e0 4839 0020 163c
00000120: 0000 83bb 0060 af3b 0020 303c 0040 863b
00000130: 0060 c4ba 0020 1a3b 00c0 193b 0080 26bb
00000140: 0020 b43b 00c0 c4bb 0060 6fba 00e0 5ab9
00000150: 00c0 983a 0060 ba3a 0040 f639 00c0 053a
00000160: 00c0 adbb 00a0 7c3b 00c0 0d3b 0060 ed3a
00000170: 00a0 a6b9 0080 1abc 0080 ee37 0040 45bb
00000180: 0080 db3b 0060 4d3b 0020 f5bb 0000 653a
00000190: 00c0 b9ba 0060 d83b 0060 efbb 0020 3fbb
000001a0: 0080 f7ba 00c0 5e3b 0020 013c 0020 b139
000001b0: 0020 8e3b 00e0 ac3b 0040 0f3b 00a0 2c3c
000001c0: 00e0 1bbb 00c0 f5bb 0080 67bb 00e0 84bb
000001d0: 00e0 cd3a 0060 183b 00e0 83bb 00a0 afbb
000001e0: 0020 933a 0080 78bb 0000 8b3a 0080 be3a
000001f0: 0040 173c 0020 073b 0060 abba 00c0 263b
00000200: 00a0 f7b9 0040 2db8 0080 af3b 00c0 60ba
00000210: 0040 e5ba 00c0 b93b 0000 413b 0080 8fb8
00000220: 00e0 25bb 0000 c3ba 00c0 febb 0040 313c
00000230: 0060 be3b 0000 f2ba 00e0 8f3b 00a0 66ba
00000240: 00e0 a538 0000 0b3c 0020 ba3a 0080 f33a
00000250: 00c0 3a3b 00e0 4e3b 0000 a5bb 00c0 1cbb
00000260: 0080 943b 00c0 943a 0020 153b 00c0 a7bb
00000270: 0060 2f3b 00c0 2abb 0000 ebba 00a0 053b
00000280: 0020 05bc 00e0 373b 0000 e6bb 0000 41bb
00000290: 0080 9bbb 00a0 11bb 00a0 f9bb 0000 8fbb
000002a0: 00e0 533a 0020 2ebb 00a0 21bc 0060 1ebc
000002b0: 0000 003c 00e0 bbba 0040 963b 0040 a3ba
000002c0: 0080 23b9 0040 b8ba 0060 9e3a 00e0 d13a
000002d0: 0040 c73b 0060 c43a 0060 7c3a 0080 06ba
000002e0: 0080 adbb 0020 c43a 00e0 d83b 0020 2f3b
000002f0: 0060 6abb 0040 40bb 0080 303b 00c0 cabb
00000300: 0020 34bb 0020 0dbc 00c0 a8bb 0080 4e3a
00000310: 0040 9e3b 00a0 2c3c 0000 dabb 0000 4db9
00000320: 0060 953b 0000 fdba 0060 be3b 0060 0fbc
00000330: 00a0 233b 00a0 32bb 0020 e3bb 0060 b5ba
00000340: 00e0 ca3b 00a0 74bb 00c0 99ba 00c0 c5bb
00000350: 00c0 553a 0060 bf39 00a0 ef3b 00a0 a63b
00000360: 0060 9e3a 0020 abba 00c0 79ba 00a0 adbb
00000370: 0000 50bc 0080 bc3b 0060 543a 00a0 d23a
00000380: 00e0 74bb 0020 e3bb 0020 7b3b 0060 1eba
00000390: 0000 4d3b 00e0 dbba 0000 fd3a 0000 6b3b
000003a0: 00a0 2e3b 0020 acbb 00a0 6e3b 0020 803b
000003b0: 0020 dabb 0020 7fba 0040 8939 0000 02bb
000003c0: 0020 b2ba 00a0 c5bb 0000 96bb 0080 663c
000003d0: 0020 aab8 00c0 25bb 00e0 acbb 0020 713b
000003e0: 0080 de3b 0000 76b9 00c0 133c 0080 9f3b
000003f0: 0000 12bc 00a0 e8ba 0020 173c 0000 09bb
0.18237305 0.43969727 0.3515625 -0.24023438 0.94628906 -2.109375 0.80029297 -0.26464844
1.0419922 -0.17150879 -0.15905762 -0.40234375 0.14782715 0.2290039 -1.2578125 0.7553711
0.42578125 0.7758789 -0.16137695 -1.4160156 -0.7836914 -0.8754883 0.18066406 0.44311523
2.046875 0.88134766 -1.21875 0.098083496 0.17749023 -1.5761719 0.08105469 0.010787964
-0.34301758 0.33935547 0.6533203 -0.66552734 0.24645996 0.4267578 0.42651367 1.3447266
-0.2565918 0.16015625 -0.11578369 -1.5175781 0.24414062 0.5600586 -0.16625977 0.26123047
-0.46533203 0.3244629 0.004825592 0.003162384 -0.007648468 -0.0016822815 2.938509e-05 6.043911e-05
-0.00025558472 -0.0015859604 -0.0025749207 0.00011718273 0.0016889572 0.002658844 0.0017662048 -0.0023841858
0.007171631 0.007472992 0.0075531006 0.009147644 0.0014562607 -0.0012931824 0.00019156933 0.009162903
-0.0039978027 0.0053520203 0.010749817 0.004096985 -0.0014982224 0.0023517609 0.0023460388 -0.0025405884
0.0054969788 -0.0060043335 -0.00091314316 -0.00020873547 0.00116539 0.0014219284 0.0004696846 0.00051021576
-0.005302429 0.0038547516 0.0021629333 0.0018110275 -0.00031781197 -0.009429932 2.8431416e-05 -0.0030097961
0.0066986084 0.0031337738 -0.0074806213 0.0008735657 -0.00141716 0.006603241 -0.0073051453 -0.002916336
-0.0018882751 0.0033988953 0.007881165 0.00033783913 0.004337311 0.0052757263 0.0021858215 0.010536194
-0.0023784637 -0.007499695 -0.0035324097 -0.004055023 0.0015707016 0.002325058 -0.0040245056 -0.0053596497
0.0011224747 -0.003791809 0.0010604858 0.0014533997 0.009231567 0.0020618439 -0.0013074875 0.002544403
-0.0004723072 -4.130602e-05 0.005355835 -0.0008573532 -0.0017490387 0.00566864 0.0029449463 -6.842613e-05
-0.0025310516 -0.0014877319 -0.007774353 0.010818481 0.005809784 -0.0018463135 0.0043907166 -0.00087976456
7.909536e-05 0.008483887 0.001420021 0.0018577576 0.0028495789 0.003156662 -0.0050354004 -0.0023918152
0.0045318604 0.0011348724 0.002275467 -0.0051193237 0.0026760101 -0.0026054382 -0.0017929077 0.0020389557
-0.008125305 0.0028057098 -0.007019043 -0.0029449463 -0.0047454834 -0.0022220612 -0.0076179504 -0.0043640137
0.000808239 -0.0026569366 -0.009864807 -0.009666443 0.0078125 -0.0014333725 0.004585266 -0.0012454987
-0.00015592575 -0.001405716 0.0012083054 0.0016012192 0.0060806274 0.0014982224 0.0009627342 -0.0005130768
-0.0052948 0.001496315 0.0066184998 0.0026721954 -0.0035762787 -0.0029335022 0.0026931763 -0.006187439
-0.0027484894 -0.008613586 -0.0051498413 0.000787735 0.0048294067 0.010536194 -0.006652832 -0.00019550323
0.004558563 -0.0019302368 0.005809784 -0.0087509155 0.0024967194 -0.0027256012 -0.006931305 -0.0013837814
0.0061912537 -0.0037326813 -0.0011730194 -0.006034851 0.00081539154 0.00036501884 0.0073127747 0.0050849915
0.0012083054 -0.0013055801 -0.00095272064 -0.0052986145 -0.0126953125 0.0057525635 0.00081014633 0.0016069412
-0.003736496 -0.006931305 0.0038318634 -0.0006041527 0.0031280518 -0.0016775131 0.0019302368 0.0035858154
0.002664566 -0.005252838 0.0036411285 0.0039100647 -0.0066566467 -0.00097322464 0.0002617836 -0.0019836426
-0.0013589859 -0.0060310364 -0.0045776367 0.0140686035 -8.112192e-05 -0.0025291443 -0.0052757263 0.0036792755
0.006790161 -0.00023460388 0.009017944 0.0048675537 -0.008911133 -0.0017747879 0.009223938 -0.002090454

weight_hh_l0_reverse f4 [512, 128]
00000000: 0060 8c3e 00a0 e63e 0080 cfbc 0000 0ebd
00000010: 00e0 973c 00e0 b2bd 0000 fa3e 00a0 bfbd
00000020: 00a0 093e 00c0 bb3d 00c0 cd3c 00a0 6cbe
00000030: 00a0 093d 00e0 bfbe 0080 e0be 00c0 c5bd
00000040: 0000 b03d 00e0 073e 00e0 b4bc 00e0 f1be
00000050: 0060 333e 00e0 b23e 0080 173f 0080 9b3e
00000060: 00a0 66bc 00e0 01bf 0020 1e3e 0020 7dbe
00000070: 00e0 bfbe 00a0 f23e 0000 543e 00e0 20be
00000080: 00a0 023e 0040 863e 0040 52bf 0020 8fbe
00000090: 0020 d6bd 00c0 003e 0060 85be 0060 bdbe
000000a0: 0080 e43e 00a0 6c3e 00e0 b53c 00e0 1c3e
000000b0: 0040 873d 00e0 4b3d 00c0 ec3e 00e0 31be
000000c0: 00a0 fcbe 0000 c7be 0080 b23e 00a0 b03d
000000d0: 00e0 e4bd 0060 2abe 0040 70bd 0000 58be
000000e0: 0060 933e 00c0 233f 00c0 9f3e 0000 1b3f
000000f0: 0040 ed3d 0040 0b3e 0080 0b3f 00c0 593e
00000100: 00c0 00be 0060 67be 0020 da3e 00a0 dd3e
00000110: 00e0 aebc 00a0 a1bd 0060 bc3e 0020 163e
00000120: 0060 013e 00a0 483e 0040 91bf 0080 e4bd
00000130: 0040 e7bd 00a0 81bd 0060 98be 0060 f73d
00000140: 0020 183e 00c0 2cbd 00c0 a23e 00a0 c73c
00000150: 0080 ed3c 00c0 bdbd 0000 62bd 0020 8e3b
00000160: 0000 033e 0040 0bbf 0040 093e 0040 1e3e
00000170: 00c0 6cbe 0000 66bd 0040 dfbe 0080 41be
00000180: 00e0 d43e 0060 813e 00a0 813e 0000 923e
00000190: 00c0 ea3e 00c0 50be 0000 91be 0020 d8be
000001a0: 0060 7ebe 0020 debe 0060 cebc 0060 ab3e
000001b0: 00e0 d1be 0060 0e3e 00c0 863e 0080 11bd
000001c0: 0020 cc3e 0000 8d3d 0040 2b3e 00e0 6dbc
000001d0: 00a0 153e 00c0 833e 00e0 d4be 0040 383e
000001e0: 0060 1d3e 0040 c5be 0020 b0be 0080 793e
000001f0: 00c0 d7be 00e0 7bbe 00a0 16bf 0060 3e3f
00000200: 0000 6f3e 0020 55bd 0000 27bf 00e0 ea3e
00000210: 00a0 153f 00c0 123d 0020 3e3d 0040 80be
00000220: 0000 51be 00c0 103f 00a0 d93d 0020 cb3e
00000230: 0000 0c3c 0020 43be 0060 5cbe 0040 05be
00000240: 0040 90be 00c0 823d 0000 25bd 0080 b63e
00000250: 00c0 0e3b 00a0 303c 0080 d13d 00e0 003d
00000260: 00c0 b83e 0020 513b 0020 a03e 0040 923e
00000270: 00c0 b7be 00c0 74be 0060 18bf 0060 adbb
00000280: 0080 853d 0080 d03e 0080 983d 00e0 983e
00000290: 00c0 ae3d 0060 0bbe 0040 bcbd 00c0 bf3d
000002a0: 0000 c53e 00c0 be3c 0000 97be 0060 c3bd
000002b0: 0000 94be 0000 75bd 0060 7d3f 0080 82bd
000002c0: 00a0 123e 0020 b2bd 0000 92be 0020 393f
000002d0: 00a0 10bf 0080 8abe 00c0 56be 0080 6b3e
000002e0: 0020 4d3e 00e0 5abd 00a0 5d3e 0000 aabe
000002f0: 00c0 c93e 00e0 d03e 0080 063f 00c0 8cbd
00000300: 0020 e1bc 0080 cabe 00c0 fabd 0000 7c3e
00000310: 00c0 57bf 00a0 64be 00a0 9f3d 00c0 52bc
00000320: 00a0 a63e 00c0 20bf 00e0 93bc 0020 dd3d
00000330: 0020 fbbe 00a0 713e 0080 573e 0000 26be
00000340: 00a0 0d3f 00a0 533e 0040 a83e 0020 5cbd
00000350: 0060 05be 0040 01bd 0000 10bd 0020 88be
00000360: 00c0 9d3d 0060 2abf 00e0 5cbf 0040 10bf
00000370: 0080 de3e 0000 d3bd 0060 0bbf 00e0 4cbe
00000380: 0020 9ebc 00c0 ad3e 00e0 0a3e 0080 5ebc
00000390: 0060 a23e 0060 54bd 0020 3abe 00e0 f33d
000003a0: 0000 07be 0040 c13e 0020 103f 0000 6fbe
000003b0: 00a0 9abd 00c0 e93c 0080 a83e 00e0 e5be
000003c0: 00a0 6c3e 0020 0c3f 00c0 ee3e 0000 113f
000003d0: 0040 c53c 0080 523d 0020 f7bd 0040 913e
000003e0: 0040 e83e 0080 b83e 0060 f7be 0060 4ebd
000003f0: 0000 dabe 0060 9d3e 0060 013f 0060 13bd
0.27416992 0.45043945 -0.02532959 -0.03466797 0.018539429 -0.08734131 0.48828125 -0.093566895
0.13439941 0.091674805 0.025115967 -0.2310791 0.033599854 -0.37475586 -0.43847656 -0.09655762
0.0859375 0.13269043 -0.022079468 -0.4724121 0.1751709 0.34936523 0.5917969 0.30371094
-0.014076233 -0.5073242 0.15441895 -0.24719238 -0.37475586 0.47387695 0.20703125 -0.15710449
0.12756348 0.26220703 -0.82128906 -0.27954102 -0.10455322 0.12573242 -0.26049805 -0.36987305
0.44628906 0.2310791 0.022201538 0.15319824 0.06604004 0.04977417 0.46240234 -0.17370605
-0.4934082 -0.38867188 0.3486328 0.086242676 -0.11175537 -0.16638184 -0.058654785 -0.2109375
0.2878418 0.63964844 0.31201172 0.60546875 0.11584473 0.13598633 0.5449219 0.21264648
-0.12573242 -0.22595215 0.4260254 0.43286133 -0.021347046 -0.07891846 0.36791992 0.14660645
0.12634277 0.19592285 -1.1347656 -0.111572266 -0.11291504 -0.06329346 -0.29760742 0.120788574
0.14855957 -0.042175293 0.3178711 0.024368286 0.0289917 -0.09265137 -0.05517578 0.004337311
0.12792969 -0.5439453 0.1340332 0.15454102 -0.23120117 -0.056152344 -0.43603516 -0.18896484
0.41577148 0.25268555 0.25317383 0.28515625 0.4584961 -0.20385742 -0.28320312 -0.42211914
-0.24841309 -0.4338379 -0.02519226 0.3347168 -0.4099121 0.13903809 0.2631836 -0.03552246
0.39868164 0.068847656 0.16723633 -0.014518738 0.14611816 0.25732422 -0.41577148 0.17993164
0.15368652 -0.3852539 -0.34399414 0.24365234 -0.42138672 -0.24597168 -0.5883789 0.74365234
0.23339844 -0.05203247 -0.65234375 0.45874023 0.58447266 0.035827637 0.046417236 -0.25048828
-0.20410156 0.5654297 0.10626221 0.39672852 0.008544922 -0.19055176 -0.21520996 -0.13012695
-0.28173828 0.06384277 -0.040283203 0.3564453 0.0021781921 0.0107803345 0.10229492 0.031463623
0.36083984 0.0031909943 0.31274414 0.28564453 -0.35888672 -0.23901367 -0.59521484 -0.005290985
0.06518555 0.40722656 0.07446289 0.29858398 0.08532715 -0.1361084 -0.091918945 0.09362793
0.38476562 0.023284912 -0.29492188 -0.09539795 -0.2890625 -0.059814453 0.9897461 -0.0637207
0.14318848 -0.0869751 -0.28515625 0.72314453 -0.5649414 -0.2705078 -0.2097168 0.22998047
0.20031738 -0.05343628 0.21643066 -0.33203125 0.39404297 0.40795898 0.5253906 -0.068725586
-0.02748108 -0.3955078 -0.12243652 0.24609375 -0.84277344 -0.2232666 0.077941895 -0.012863159
0.32543945 -0.6279297 -0.018051147 0.10797119 -0.49047852 0.23596191 0.21044922 -0.16210938
0.55322266 0.20666504 0.32861328 -0.053741455 -0.13024902 -0.031555176 -0.03515625 -0.26586914
0.07702637 -0.66552734 -0.86279297 -0.56347656 0.4345703 -0.103027344 -0.5444336 -0.20007324
-0.019302368 0.33935547 0.13562012 -0.013580322 0.31713867 -0.051849365 -0.1817627 0.11907959
-0.13183594 0.3774414 0.5629883 -0.23339844 -0.07550049 0.028533936 0.32910156 -0.4489746
0.2310791 0.5473633 0.4663086 0.56640625 0.02407837 0.0513916 -0.120666504 0.2836914
0.45361328 0.36035156 -0.4831543 -0.05038452 -0.42578125 0.30737305 0.5053711 -0.035980225

weight_ih_l0_reverse f4 [512, 25]
00000000: 0080 b9be 00c0 343f 0040 fd3d 00c0 863e
00000010: 0040 07bf 00e0 a33c 0020 2ebe 0000 abbe
00000020: 0020 bf3e 0080 81be 0040 21be 00c0 d03e
00000030: 00c0 d2be 0080 833e 00c0 f63e 0060 883d
00000040: 0020 25bf 0060 b03e 0020 973e 0080 b43e
00000050: 00c0 713d 0000 b6be 0040 bc3d 0020 8abe
00000060: 0080 26bf 0060 53be 0060 1a3e 00c0 623e
00000070: 00a0 073e 0000 4a3e 0020 633d 00e0 52bd
00000080: 0080 afbe 0020 d6bd 00c0 bebd 0020 12bf
00000090: 0080 383d 00c0 bcbe 00a0 203e 0020 85be
000000a0: 0060 013e 00a0 bf3e 0080 9e3e 0060 b4be
000000b0: 00e0 5c3e 0080 9fbc 0040 183e 0080 90bd
000000c0: 0080 723e 0040 70be 0000 10bf 0000 263f
000000d0: 0080 1fbf 0060 a4bf 0000 c43d 0000 403d
000000e0: 0020 99be 0020 7a3d 0000 483d 0040 483e
000000f0: 0080 973d 0080 70bf 0000 883d 0080 46bf
00000100: 0000 9fbe 0080 82be 0060 173e 0060 383f
00000110: 00c0 9c3e 0000 c0be 00e0 23be 0000 8abe
00000120: 00a0 f03e 0060 673e 00c0 1a3e 00e0 04be
00000130: 00a0 87be 0060 1b3f 0040 2fbd 0040 61be
00000140: 00e0 a23d 00c0 413e 0040 edbe 00a0 e4be
00000150: 0040 42bd 00c0 d13e 00a0 21bd 00c0 a5be
00000160: 0020 9d3b 00c0 6dbe 0060 283f 00c0 f93e
00000170: 00c0 59be 0080 5cbd 0040 a23e 0000 813e
00000180: 0020 8cbe 0060 dd3d 0040 e63d 0060 9ebe
00000190: 0060 9b3d 00c0 18be 00c0 e83d 0060 063f
000001a0: 0060 5e3e 00e0 31be 0040 523e 00c0 f7be
000001b0: 0020 df3d 00c0 7f3e 00e0 a33d 0040 873f
000001c0: 0040 903d 00c0 4ebd 0080 b6be 0000 b0be
000001d0: 0000 023f 0080 943d 0020 29bf 00a0 063e
000001e0: 0060 8b3e 00e0 713d 0080 16be 0080 7d3e
000001f0: 0020 3e3e 0040 303c 00a0 5bbe 0020 c93d
00000200: 0040 d63e 0000 a6bd 0060 123e 0060 1f3f
00000210: 00a0 ccbe 00a0 c53d 00c0 e63e 0040 31be
00000220: 00e0 dc3d 0080 a6bd 00e0 cfbd 0000 bebd
00000230: 00c0 a9be 0020 153f 0000 323e 0000 84be
00000240: 0080 28be 0060 f03e 00e0 07bf 00c0 c8be
00000250: 00c0 c83d 0080 20be 00c0 9abd 00c0 86be
00000260: 0000 98be 0040 b7bc 0000 833e 0040 8b3d
00000270: 0020 4c3e 00c0 34be 0080 c23e 0080 003c
00000280: 0020 60be 00e0 6dbd 0060 b13e 00c0 f6be
00000290: 0040 04be 00e0 bdbe 00a0 31be 00a0 6abe
000002a0: 00a0 0e3d 0080 663e 0020 433f 0000 0fbd
000002b0: 0080 be3e 0060 833e 0040 8d3d 00e0 9fbe
000002c0: 00a0 963e 0080 ec3e 0020 a83e 0060 cfbe
000002d0: 00e0 243e 0020 973c 0000 8cbd 0040 343d
000002e0: 0080 a5be 0020 c13d 0060 d7bd 0000 99bc
000002f0: 00c0 debc 0000 c8be 00a0 3f3e 0080 54be
00000300: 00a0 38be 00e0 6cbd 00c0 9cbd 0040 fabe
00000310: 0060 11be 0060 173e 00c0 e23d 0000 2bbe
00000320: 0040 783e 0060 ef3d 00c0 a13d 0040 903d
00000330: 00c0 933d 0060 cc3d 00a0 b33d 00c0 123e
00000340: 0000 85bd 0040 573d 0000 0cbe 00e0 043e
00000350: 0000 a6be 00e0 cabb 0060 9e3c 0040 eebd
00000360: 00e0 c23e 0020 3dbe 0040 483d 0080 2dbe
00000370: 0060 47be 0000 003d 00a0 60be 00e0 0d3e
00000380: 0040 bcbc 0020 73bd 00a0 15bc 0020 a23d
00000390: 00a0 a33d 0000 1c3e 00a0 e1be 00a0 85be
000003a0: 0040 01be 0040 80be 00a0 b93d 0060 c23e
000003b0: 00c0 8fbe 00a0 f83d 00e0 49bf 00c0 363b
000003c0: 0080 a3be 00e0 98be 0040 253f 0020 813e
000003d0: 0080 8dbe 00e0 9b3e 0020 69be 0020 963c
000003e0: 0080 5a3e 0040 9b3d 00a0 24bf 0020 b8be
000003f0: 0040 643e 00e0 063f 00a0 60be 00c0 163e
-0.3623047 0.7060547 0.12365723 0.2631836 -0.5283203 0.020004272 -0.17004395 -0.33398438
0.37329102 -0.2529297 -0.1574707 0.40771484 -0.4116211 0.25683594 0.4819336 0.066589355
-0.64501953 0.34448242 0.29516602 0.35253906 0.059020996 -0.35546875 0.091918945 -0.2697754
-0.6503906 -0.2064209 0.15075684 0.22143555 0.13244629 0.19726562 0.05545044 -0.051483154
-0.34277344 -0.10455322 -0.09313965 -0.5708008 0.045043945 -0.36865234 0.15686035 -0.26000977
0.12634277 0.37426758 0.3095703 -0.35229492 0.21569824 -0.019470215 0.14868164 -0.07055664
0.2368164 -0.23461914 -0.5625 0.6484375 -0.6230469 -1.2841797 0.095703125 0.046875
-0.29907227 0.061065674 0.048828125 0.19555664 0.07397461 -0.9394531 0.06640625 -0.7753906
-0.31054688 -0.2548828 0.14782715 0.72021484 0.30615234 -0.375 -0.16003418 -0.26953125
0.4699707 0.22595215 0.15112305 -0.12976074 -0.26489258 0.6069336 -0.042785645 -0.2199707
0.07952881 0.18920898 -0.4633789 -0.4465332 -0.047424316 0.40966797 -0.03945923 -0.32373047
0.0047950745 -0.23217773 0.65771484 0.48779297 -0.21264648 -0.053833008 0.31689453 0.25195312
-0.27368164 0.10809326 0.11242676 -0.30932617 0.0758667 -0.14916992 0.11364746 0.52490234
0.21716309 -0.17370605 0.20532227 -0.48388672 0.108947754 0.24975586 0.08001709 1.0566406
0.07043457 -0.050476074 -0.3564453 -0.34375 0.5078125 0.072509766 -0.66064453 0.13146973
0.2722168 0.059051514 -0.14697266 0.2475586 0.18566895 0.010757446 -0.21447754 0.09820557
0.41845703 -0.08105469 0.14294434 0.6225586 -0.3996582 0.09649658 0.4506836 -0.1730957
0.10784912 -0.08129883 -0.101501465 -0.09277344 -0.33154297 0.58251953 0.17382812 -0.2578125
-0.16455078 0.46948242 -0.5307617 -0.39208984 0.09802246 -0.15673828 -0.07556152 -0.2631836
-0.296875 -0.022369385 0.25585938 0.067993164 0.19934082 -0.17651367 0.3798828 0.007843018
-0.21887207 -0.05807495 0.34643555 -0.4819336 -0.12915039 -0.3708496 -0.17346191 -0.22912598
0.034820557 0.22509766 0.76220703 -0.03491211 0.3720703 0.2565918 0.06896973 -0.31225586
0.29418945 0.46191406 0.32836914 -0.4050293 0.16101074 0.018447876 -0.068359375 0.044006348
-0.3232422 0.09429932 -0.105163574 -0.018676758 -0.027191162 -0.390625 0.18713379 -0.20751953
-0.18029785 -0.05783081 -0.076538086 -0.48876953 -0.14196777 0.14782715 0.11071777 -0.16699219
0.24243164 0.116882324 0.07897949 0.07043457 0.072143555 0.09979248 0.08770752 0.14331055
-0.064941406 0.05255127 -0.13671875 0.12976074 -0.32421875 -0.0061912537 0.019332886 -0.11633301
0.38061523 -0.18469238 0.04888916 -0.1694336 -0.19470215 0.03125 -0.21936035 0.1385498
-0.022979736 -0.05935669 -0.009132385 0.0791626 0.07989502 0.15234375 -0.44067383 -0.26098633
-0.1262207 -0.25048828 0.09063721 0.37963867 -0.28076172 0.121398926 -0.7885742 0.0027885437
-0.31933594 -0.29858398 0.6455078 0.25219727 -0.2763672 0.30444336 -0.22766113 0.018325806
0.2133789 0.075805664 -0.6430664 -0.35961914 0.22290039 0.52685547 -0.21936035 0.1472168

weight_ih_l0 f4 [512, 25]
00000000: 00a0 52be 0020 b43d 0000 693e 00c0 433e
00000010: 0040 b63e 0020 2d3d 0080 9a3e 00e0 4cbd
00000020: 00a0 ce3d 00a0 833d 0060 d4bd 00c0 073f
00000030: 00c0 59bd 0000 43be 00a0 fdbe 0080 d53c
00000040: 0040 d43d 00c0 063f 0060 4bbf 0000 5f3f
00000050: 0060 bbbe 00a0 583d 0040 d53c 00e0 a5be
00000060: 00e0 49be 0020 60be 0080 c4bb 00a0 4b3e
00000070: 00e0 173b 0060 b03e 0000 2dbf 0040 cdbc
00000080: 00c0 84be 00c0 d0bd 0040 2f3e 00e0 21bd
00000090: 0080 2bbc 0060 0f3f 0060 fdbe 00c0 afbe
000000a0: 0060 ccbd 0040 973e 0040 9c3d 00a0 903e
000000b0: 00a0 c0be 0020 f2bc 00a0 a2be 00a0 a93e
000000c0: 0020 c1bd 0000 a7be 0020 d1bb 0000 d5bd
000000d0: 00e0 403e 0080 853e 00e0 a53e 0000 c23e
000000e0: 0020 4d3f 00e0 a4be 0000 51bf 0000 8a3c
000000f0: 0020 00be 0000 0cbe 0060 44be 00c0 b1bd
00000100: 00a0 3abe 00a0 43be 0080 583e 0060 c6be
00000110: 0060 b6be 0020 423e 00a0 623e 0040 78bd
00000120: 0000 5cbe 0000 383c 0020 42be 00a0 10bf
00000130: 00e0 16be 00e0 523e 0080 abbe 00a0 15bf
00000140: 00c0 603e 0000 3b3f 0080 9abe 0040 37be
00000150: 00a0 e83c 0040 b5be 0020 a2be 0080 483f
00000160: 00e0 eebe 00e0 493f 00c0 3b3d 00e0 abbe
00000170: 00a0 5b3e 0020 253f 00a0 e9be 0000 133f
00000180: 0020 1ebf 00c0 d1bd 0060 363f 0080 603e
00000190: 00e0 6bbe 0020 77be 00e0 213f 0060 ce3e
000001a0: 0060 98bd 0020 e33e 0020 433e 0040 c8be
000001b0: 0080 b33e 00e0 71bd 0040 52be 0080 06be
000001c0: 0060 7abe 0040 f6bb 00e0 f2be 0080 cebd
000001d0: 0040 51bd 0000 e4be 0040 053f 0040 20bf
000001e0: 0060 303e 00a0 993d 00e0 b73e 00c0 92be
000001f0: 00e0 76bd 0080 7e3e 00a0 3c3f 00a0 a3be
00000200: 0080 82bc 0060 523d 00c0 803d 00a0 1f3f
00000210: 00e0 9a3e 00a0 3f3e 0080 3b3e 0020 fc3d
00000220: 0040 f3bd 0040 63be 00e0 343e 0080 48bf
00000230: 0020 e6bd 0080 dfbe 00c0 eabe 00a0 073c
00000240: 00e0 893e 0000 543c 0040 f3be 0040 b53e
00000250: 0020 943f 00e0 833e 00e0 bfbe 0080 cd3e
00000260: 0000 e4be 0000 b03d 00e0 2bbe 00a0 a1be
00000270: 00a0 083f 00c0 f0bd 0040 b1be 0060 8d3e
00000280: 00c0 85be 0060 103f 00e0 f1be 00a0 153e
00000290: 0040 3bbe 00e0 72bf 00a0 c73e 00c0 ba3e
000002a0: 00c0 febe 0060 17be 0020 183e 0000 983c
000002b0: 00a0 02bf 0080 90bc 0040 8e3e 0060 42be
000002c0: 00e0 433e 0000 833c 0000 e23d 0020 753e
000002d0: 00c0 9d3d 0000 e1bd 0060 1abd 00e0 44bd
000002e0: 00e0 3c3d 00e0 af3d 00c0 a6bd 0080 18bd
000002f0: 0080 ac3d 0060 2bbc 00e0 60bc 0060 793d
00000300: 0040 f13d 0080 213e 00e0 12be 00c0 04bd
00000310: 00e0 cf3c 0060 303b 00a0 bcbd 00a0 febd
00000320: 0000 593e 0080 f3bd 0020 abbd 0000 593d
00000330: 0020 8ebe 0080 ab3e 0040 a83c 0020 803e
00000340: 0060 f33e 0060 4a3e 00a0 1fbe 0020 a6bd
00000350: 0020 00bf 0040 873e 0040 ca3d 0000 40be
00000360: 00a0 8fbd 0060 38be 0020 6a3d 0080 adbe
00000370: 00e0 b3bc 00a0 c53b 00e0 cabd 0040 f53e
00000380: 0000 94be 00c0 243f 0060 95be 0040 b33e
00000390: 00e0 b93e 0020 563d 0060 a93e 0080 c3bd
000003a0: 00e0 ab3d 0000 bdbd 0060 11bf 0040 763e
000003b0: 0060 d7bd 0060 62be 00c0 20be 00a0 bebe
000003c0: 00c0 2e3d 0080 813e 0000 33bd 0000 47be
000003d0: 0080 ff3b 0040 f9bd 00e0 2c3f 0020 a7be
000003e0: 00e0 3ebe 0040 363e 0000 2dbe 00a0 b9bd
000003f0: 0060 babd 0000 5e3e 00c0 d73d 0080 363e
-0.20568848 0.08795166 0.22753906 0.19116211 0.35595703 0.042266846 0.3017578 -0.05001831
0.10089111 0.06427002 -0.10369873 0.53027344 -0.05316162 -0.19042969 -0.49536133 0.026062012
0.103637695 0.5263672 -0.7944336 0.87109375 -0.3659668 0.052886963 0.026031494 -0.3239746
-0.19714355 -0.21887207 -0.005996704 0.19885254 0.0023174286 0.34448242 -0.67578125 -0.025054932
-0.25927734 -0.10192871 0.17114258 -0.039520264 -0.010467529 0.5600586 -0.49487305 -0.34326172
-0.09979248 0.29541016 0.076293945 0.2824707 -0.3762207 -0.029556274 -0.31762695 0.33129883
-0.09429932 -0.32617188 -0.0063819885 -0.104003906 0.18835449 0.2607422 0.3239746 0.37890625
0.80126953 -0.32202148 -0.81640625 0.016845703 -0.12512207 -0.13671875 -0.19177246 -0.08679199
-0.18225098 -0.19104004 0.21142578 -0.38745117 -0.35620117 0.1895752 0.22131348 -0.06060791
-0.21484375 0.011230469 -0.1895752 -0.5649414 -0.14733887 0.20593262 -0.33496094 -0.58447266
0.21948242 0.73046875 -0.3017578 -0.17895508 0.028396606 -0.3540039 -0.3166504 0.7832031
-0.46655273 0.7885742 0.045837402 -0.33569336 0.21447754 0.64501953 -0.45629883 0.57421875
-0.6176758 -0.10241699 0.71240234 0.21923828 -0.23034668 -0.24133301 0.6323242 0.40307617
-0.074401855 0.44360352 0.19055176 -0.39111328 0.35058594 -0.059051514 -0.20532227 -0.13134766
-0.24450684 -0.0075149536 -0.47436523 -0.10083008 -0.051086426 -0.4453125 0.5205078 -0.62597656
0.17224121 0.07501221 0.35913086 -0.2866211 -0.060272217 0.24853516 0.7368164 -0.31958008
-0.015930176 0.051361084 0.06286621 0.62353516 0.30249023 0.18713379 0.18310547 0.12310791
-0.118774414 -0.22192383 0.17663574 -0.7832031 -0.11236572 -0.43652344 -0.4584961 0.008277893
0.2692871 0.012939453 -0.47509766 0.3540039 1.1572266 0.25756836 -0.37475586 0.4013672
-0.4453125 0.0859375 -0.16784668 -0.31567383 0.5336914 -0.11755371 -0.3461914 0.27612305
-0.26123047 0.56396484 -0.4724121 0.14611816 -0.18286133 -0.94873047 0.38989258 0.3647461
-0.4975586 -0.14782715 0.14855957 0.018554688 -0.5102539 -0.01763916 0.27783203 -0.18981934
0.19128418 0.015991211 0.11035156 0.23937988 0.07702637 -0.10986328 -0.03768921 -0.048065186
0.04611206 0.085876465 -0.0814209 -0.037231445 0.084228516 -0.0104599 -0.013725281 0.06088257
0.11779785 0.15771484 -0.14343262 -0.032409668 0.025375366 0.002691269 -0.09210205 -0.12432861
0.21191406 -0.118896484 -0.08355713 0.052978516 -0.2775879 0.33496094 0.02053833 0.25024414
0.4753418 0.19763184 -0.15588379 -0.08111572 -0.5004883 0.26416016 0.09875488 -0.1875
-0.070129395 -0.18005371 0.057159424 -0.3388672 -0.021957397 0.0060310364 -0.09906006 0.4790039
-0.2890625 0.6435547 -0.29174805 0.35009766 0.3630371 0.05227661 0.33081055 -0.095458984
0.08392334 -0.092285156 -0.5678711 0.24047852 -0.105163574 -0.22106934 -0.15698242 -0.37231445
0.042663574 0.2529297 -0.043701172 -0.19433594 0.007797241 -0.1217041 0.67529297 -0.32641602
-0.18640137 0.17797852 -0.16894531 -0.09063721 -0.09100342 0.21679688 0.10534668 0.17822266

weight_hh_l0 f4 [512, 128]
00000000: 00e0 073e 0060 93be 00c0 85be 00a0 f1be
00000010: 00c0 903e 00c0 e1be 0020 4e3e 0080 4ebc
00000020: 00c0 883d 00e0 0bbf 00a0 c9be 0020 44be
00000030: 0080 083d 00c0 1e3e 00c0 763e 0020 523e
00000040: 0040 86bd 00a0 5c3e 0060 04bb 0060 aa3d
00000050: 0060 5dbe 00a0 4abe 00c0 febd 0000 be3e
00000060: 0020 a7bd 0020 a4bb 0080 ab3e 00a0 44bf
00000070: 0000 99bd 0020 e23d 0060 953e 0000 c43d
00000080: 0060 f8be 00c0 a33e 0060 3b3e 0000 0f3e
00000090: 00c0 d3be 00c0 de3d 0000 68be 0020 a3bd
000000a0: 00e0 9bbe 0060 303e 0000 c23e 0080 433e
000000b0: 0020 083f 00e0 20bf 0060 473f 0080 3a3d
000000c0: 00c0 d13e 00c0 e13d 0080 3bbe 00c0 00be
000000d0: 00a0 3c3e 0020 783e 0000 babe 0000 853e
000000e0: 00a0 74bd 00c0 fe3d 0060 99bd 00a0 863d
000000f0: 0080 7c3e 00c0 a93e 0000 c5be 0060 cd3d
00000100: 0060 6dbe 00a0 943e 0040 5c3e 0020 863e
00000110: 0060 453e 0060 953e 00e0 d2be 0000 fabd
00000120: 0000 b7be 0040 d03d 0060 8abe 00a0 34bf
00000130: 0000 53be 0000 58bb 00c0 1dbe 0020 8bbe
00000140: 0080 693e 00c0 bfbe 0060 91bd 0020 d43e
00000150: 00a0 8f3e 0000 9d3e 0000 1cbf 0080 d6be
00000160: 0020 99be 0040 ba3e 00a0 a23e 0000 123e
00000170: 00c0 2bbd 0060 0abf 0060 d1be 0060 bf3d
00000180: 0040 a5be 0040 f53e 0040 5dbe 00e0 7f3e
00000190: 0000 ee3e 0040 41be 0080 a83e 00a0 81be
000001a0: 0000 ed3c 00a0 d2be 0000 783e 0040 253e
000001b0: 00e0 10bf 0000 df3e 0040 77be 0080 46be
000001c0: 00c0 203f 0080 96be 00e0 60be 0020 b1bc
000001d0: 0060 95be 0040 21be 00e0 c43e 0040 a4bd
000001e0: 0020 00bd 00a0 683e 0020 18be 0080 1e3e
000001f0: 0000 353d 00a0 7c3e 0020 ddbe 00e0 f23d
00000200: 0060 53be 0000 23bd 00c0 fcbe 0060 893e
00000210: 00a0 963e 00c0 52bf 0000 bb3d 0080 243d
00000220: 0080 7dbe 00e0 e83d 0040 4cbe 0000 a43d
00000230: 0080 67be 0080 203e 00a0 5c3e 0000 40bf
00000240: 0080 42bd 0060 7f3e 00a0 a6be 00e0 31be
00000250: 00a0 e2be 0080 a5be 0040 06bf 00c0 0abe
00000260: 00a0 ae3d 0000 2c3e 0020 113f 00c0 57be
00000270: 0000 bb3e 0060 c13e 0060 1c3e 0000 4a3d
00000280: 0020 17be 0080 7cbd 0060 35bf 0020 0bbf
00000290: 00c0 ee3d 0000 97be 0040 bf3d 00e0 bebe
000002a0: 00a0 d33e 0060 563e 0000 15be 0080 08bd
000002b0: 00a0 953e 00a0 383d 00a0 933e 0040 a43e
000002c0: 00a0 f13e 00a0 52be 00e0 5b3c 0000 a1bc
000002d0: 0020 433f 0000 1f3e 0040 b1be 0040 893e
000002e0: 00a0 663c 00e0 20be 0040 13be 00a0 df3d
000002f0: 00e0 3f3f 00c0 6b3e 00e0 f83c 00a0 92be
00000300: 00c0 203f 0060 d8be 00e0 823e 0020 29be
00000310: 0040 f6be 0000 733f 00e0 c0be 0040 4bbe
00000320: 0080 f13d 0000 c6bd 00a0 1b3c 00a0 793e
00000330: 0040 9d3e 00c0 883e 0040 69be 0040 923e
00000340: 0080 1fbe 0080 b1be 00e0 22bd 0000 88be
00000350: 0000 acbe 00a0 bb3e 0080 5cbe 0080 a43e
00000360: 00a0 273f 00c0 8cbe 00c0 31be 0040 153f
00000370: 0060 8abd 0000 1a3d 0060 153e 0000 08be
00000380: 00e0 39be 00c0 4dbe 0020 09be 00e0 a6b8
00000390: 0080 0cbe 00a0 c23e 00c0 fa3d 00e0 f73e
000003a0: 0080 25bf 0080 be3e 00c0 403f 0020 51bf
000003b0: 00e0 e53e 00c0 6d3e 0000 54bc 0080 d6bc
000003c0: 0000 943e 0000 49be 00a0 4f3f 0020 0dbe
000003d0: 0000 353f 00a0 043f 0000 84bd 00c0 893e
000003e0: 0040 b73e 0060 cdbe 0000 f2bd 00e0 183e
000003f0: 0060 25bd 00c0 05bf 0000 db3d 0020 2bbe
0.13269043 -0.2878418 -0.26123047 -0.47192383 0.28271484 -0.44091797 0.20129395 -0.01260376
0.06677246 -0.5463867 -0.39379883 -0.19152832 0.033325195 0.1550293 0.2409668 0.2052002
-0.06555176 0.2154541 -0.0020198822 0.08319092 -0.21618652 -0.19787598 -0.12438965 0.37109375
-0.081604004 -0.0050086975 0.33496094 -0.7680664 -0.07470703 0.1104126 0.29174805 0.095703125
-0.48510742 0.31982422 0.1829834 0.13964844 -0.41357422 0.10876465 -0.2265625 -0.07965088
-0.30444336 0.17224121 0.37890625 0.19091797 0.5317383 -0.62841797 0.7788086 0.045532227
0.40966797 0.11022949 -0.18310547 -0.12573242 0.1842041 0.24230957 -0.36328125 0.25976562
-0.0597229 0.12438965 -0.07489014 0.06573486 0.24658203 0.33154297 -0.38476562 0.10028076
-0.23181152 0.2902832 0.21508789 0.2619629 0.19274902 0.29174805 -0.41186523 -0.12207031
-0.35742188 0.10168457 -0.27026367 -0.7055664 -0.20605469 -0.0032958984 -0.15405273 -0.27172852
0.22802734 -0.37451172 -0.07098389 0.41430664 0.28051758 0.30664062 -0.609375 -0.4189453
-0.29907227 0.36376953 0.31762695 0.14257812 -0.041931152 -0.54052734 -0.40893555 0.093444824
-0.3227539 0.4790039 -0.21606445 0.24987793 0.46484375 -0.1887207 0.32910156 -0.25317383
0.028930664 -0.41137695 0.2421875 0.16137695 -0.56591797 0.43554688 -0.24145508 -0.19384766
0.6279297 -0.2939453 -0.21960449 -0.021621704 -0.29174805 -0.1574707 0.38452148 -0.080200195
-0.031280518 0.22717285 -0.14855957 0.15478516 0.044189453 0.2467041 -0.43188477 0.11859131
-0.2064209 -0.039794922 -0.49365234 0.26831055 0.29418945 -0.8232422 0.091308594 0.040161133
-0.2475586 0.113708496 -0.19946289 0.080078125 -0.22607422 0.15673828 0.2154541 -0.75
-0.04748535 0.24938965 -0.32543945 -0.17370605 -0.44262695 -0.3232422 -0.52441406 -0.13549805
0.08526611 0.16796875 0.56689453 -0.21069336 0.36523438 0.37768555 0.15270996 0.049316406
-0.14758301 -0.061645508 -0.7084961 -0.54345703 0.11657715 -0.29492188 0.09338379 -0.37280273
0.41333008 0.20935059 -0.14550781 -0.033325195 0.29223633 0.045074463 0.28833008 0.32080078
0.47192383 -0.20568848 0.013420105 -0.01965332 0.76220703 0.15527344 -0.3461914 0.2680664
0.014076233 -0.15710449 -0.14379883 0.109191895 0.7495117 0.23022461 0.030380249 -0.28637695
0.6279297 -0.42260742 0.25561523 -0.16516113 -0.48095703 0.94921875 -0.37670898 -0.19848633
0.11791992 -0.09667969 0.009498596 0.24377441 0.3071289 0.26708984 -0.2277832 0.28564453
-0.15576172 -0.3466797 -0.039764404 -0.265625 -0.3359375 0.36645508 -0.21533203 0.32128906
0.65478516 -0.27490234 -0.17358398 0.5830078 -0.06756592 0.037597656 0.14587402 -0.1328125
-0.18151855 -0.20092773 -0.13391113 -7.95722e-05 -0.13720703 0.38012695 0.12243652 0.48413086
-0.6464844 0.3720703 0.7529297 -0.81689453 0.4489746 0.23217773 -0.012939453 -0.026184082
0.2890625 -0.19628906 0.81103516 -0.13781738 0.70703125 0.5180664 -0.064453125 0.26904297
0.35791016 -0.40112305 -0.11816406 0.14929199 -0.040374756 -0.52246094 0.106933594 -0.16711426

weight f4 [2, 256]
00000000: 0040 b5bd 0060 ae3e 0060 893f 00c0 98bf
00000010: 0040 32bf 00a0 c93e 0000 a33f 00e0 86bf
00000020: 0060 07be 0080 87be 00c0 d5bd 00a0 e03d
00000030: 0060 77be 00e0 483f 0040 77bf 00e0 503f
00000040: 0020 1f3f 0080 12bf 00a0 933d 00c0 213f
00000050: 0040 b83e 0020 78be 0000 b73f 00e0 71be
00000060: 00e0 87bf 0040 d4be 0040 86bf 0040 913f
00000070: 00e0 62bc 0020 20bf 0060 12bf 0060 8bbe
00000080: 00e0 b1be 0080 fdbf 0020 833f 0040 6f3f
00000090: 0020 9cbe 00e0 c63d 00c0 02be 0060 143d
000000a0: 0080 9ebf 00c0 7fbc 00a0 ad3d 0000 29bf
000000b0: 0080 3e3d 0020 c5bf 0000 2bbe 0080 80be
000000c0: 00a0 89bf 0080 09bf 00e0 ae3d 00e0 013e
000000d0: 0040 553e 0000 403e 0000 ec3e 0020 99bf
000000e0: 00a0 563f 0040 3c3f 00c0 4e3e 0000 28be
000000f0: 00c0 63bf 00a0 8c3f 00c0 733f 00e0 9fbe
00000100: 0060 9d3e 0000 ebbd 00e0 88bf 0080 9dbe
00000110: 0040 5e3e 00a0 3ebf 0040 1e3e 00c0 29bf
00000120: 0060 af3f 00a0 ebbe 0000 e03c 0040 443f
00000130: 0020 81be 00a0 af3e 0080 38bf 0060 b2bc
00000140: 0020 c73e 0000 8abe 0000 4d3e 00c0 003f
00000150: 00a0 1abe 00a0 c43d 00a0 86bf 00a0 4dbf
00000160: 0060 1bbf 0060 38bf 0060 a5bb 0000 783e
00000170: 0040 5a3f 0060 cabe 0020 0fbf 00e0 66bf
00000180: 0080 48bf 0040 e4bc 0020 72bf 00a0 b9be
00000190: 0060 70bf 0000 933f 0060 663e 0080 553e
000001a0: 00e0 463f 0060 83be 00e0 2ebf 00a0 023f
000001b0: 00a0 6abf 00c0 4b3f 0080 b13b 00c0 3fbe
000001c0: 00e0 bebe 00e0 173e 00a0 9bbf 00c0 ac3f
000001d0: 00c0 36be 0080 283f 00a0 3e3f 0000 043f
000001e0: 00a0 50be 00a0 513f 0000 1d3d 0060 333f
000001f0: 0020 633f 0040 823f 0020 a43e 00a0 c7be
00000200: 0080 0b3e 0040 29bf 00c0 9cbf 0000 d43e
00000210: 0080 11bf 0040 7bc0 00e0 1cbf 0080 433f
00000220: 0060 9a3d 0060 80bf 0060 f3bf 0080 07bf
00000230: 00c0 f3bf 0080 c2bf 0020 953f 0040 87be
00000240: 00e0 863f 0080 ecbd 0040 89bf 0080 09be
00000250: 0080 e7bd 0020 a1bf 00e0 bdbe 0040 6a3d
00000260: 0080 cb3f 0020 503f 0060 c4bf 0080 23bc
00000270: 00c0 3abf 00e0 bebd 00c0 c33d 0000 c5be
00000280: 00e0 0e3f 0080 203e 0060 933d 00a0 203f
00000290: 0080 e8be 0080 f93f 0060 8a3e 00a0 cb3c
000002a0: 00c0 30bf 00c0 d63c 0020 303e 00e0 8c3e
000002b0: 0040 713e 0080 80be 00e0 633d 0040 cb3d
000002c0: 00c0 743f 00a0 debe 0020 bb3a 0080 8d3f
000002d0: 0060 5bbf 0080 d8bf 0020 81bf 0000 683e
000002e0: 0020 ca3c 00c0 b9bf 00a0 573e 00e0 68bd
000002f0: 0000 3e3d 0040 e1bf 00c0 c83e 0000 51bf
00000300: 0000 be3e 0020 a0bf 0040 5c3e 00c0 1a3e
00000310: 00c0 d33e 0040 25bf 0000 a03f 00a0 b73f
00000320: 0080 3fbe 0000 ea3e 0020 953f 0080 bf3e
00000330: 0000 45ba 00e0 e3bc 0060 dabc 00a0 e83b
00000340: 00c0 dd3b 00c0 5cbf 0040 21bf 00e0 943d
00000350: 00c0 323f 0080 39bf 0000 9abe 00e0 9a3d
00000360: 00e0 703e 00a0 183f 0040 1d3f 00c0 5ebf
00000370: 0080 193f 00c0 fcbf 0060 e33e 00e0 84bf
00000380: 0020 45be 00a0 94be 0000 37bd 0020 99bf
00000390: 0080 2b3f 0080 be3d 0060 89bf 0020 02be
000003a0: 0020 0d3f 0000 f3bd 00c0 84bf 00a0 da3e
000003b0: 00e0 cb3e 0000 093e 00a0 af3d 0040 003f
000003c0: 0020 563e 00c0 2f3e 0020 d8be 00c0 44be
000003d0: 0020 d33e 0080 523f 0000 303f 0020 8bbf
000003e0: 00e0 86bf 00c0 ef3e 00e0 cb3e 0000 a03f
000003f0: 0040 2b3d 0040 d83d 00e0 8d3f 00e0 d13d
-0.08850098 0.34057617 1.0732422 -1.1933594 -0.69628906 0.39379883 1.2734375 -1.0537109
-0.13220215 -0.26464844 -0.10437012 0.109680176 -0.24157715 0.78466797 -0.9658203 0.81591797
0.62158203 -0.5722656 0.07208252 0.63183594 0.35986328 -0.24230957 1.4296875 -0.23620605
-1.0615234 -0.41455078 -1.0488281 1.1347656 -0.013847351 -0.6254883 -0.57177734 -0.2722168
-0.3474121 -1.9804688 1.0244141 0.9345703 -0.30493164 0.09710693 -0.12768555 0.036224365
-1.2382812 -0.015609741 0.08477783 -0.66015625 0.04650879 -1.5400391 -0.16699219 -0.25097656
-1.0751953 -0.5371094 0.08538818 0.12683105 0.20825195 0.1875 0.4609375 -1.1962891
0.8383789 0.73535156 0.2019043 -0.1640625 -0.88964844 1.0986328 0.95214844 -0.31225586
0.30737305 -0.114746094 -1.0693359 -0.3076172 0.21704102 -0.7446289 0.15454102 -0.66308594
1.3701172 -0.46020508 0.02734375 0.76660156 -0.25219727 0.34301758 -0.7207031 -0.021774292
0.38891602 -0.26953125 0.20019531 0.5029297 -0.15100098 0.0960083 -1.0517578 -0.80322266
-0.6069336 -0.72021484 -0.0050468445 0.2421875 0.85253906 -0.39526367 -0.55908203 -0.90185547
-0.7832031 -0.027862549 -0.9458008 -0.36254883 -0.93896484 1.1484375 0.22497559 0.2084961
0.77685547 -0.2565918 -0.68310547 0.5102539 -0.9165039 0.79589844 0.00541687 -0.18725586
-0.37280273 0.14831543 -1.2158203 1.3496094 -0.1784668 0.6582031 0.7446289 0.515625
-0.20373535 0.81884766 0.038330078 0.7006836 0.88720703 1.0175781 0.32055664 -0.38989258
0.13623047 -0.6611328 -1.2246094 0.4140625 -0.5683594 -3.9257812 -0.61279297 0.7636719
0.07537842 -1.0029297 -1.9013672 -0.5292969 -1.9042969 -1.5195312 1.1650391 -0.26416016
1.0537109 -0.115478516 -1.0722656 -0.13427734 -0.11303711 -1.2587891 -0.3708496 0.05718994
1.5898438 0.8129883 -1.5341797 -0.009979248 -0.7294922 -0.09320068 0.095581055 -0.38476562
0.55810547 0.15673828 0.07196045 0.6274414 -0.45410156 1.9492188 0.27026367 0.024856567
-0.6904297 0.0262146 0.17199707 0.27514648 0.2355957 -0.25097656 0.055633545 0.099243164
0.9560547 -0.43481445 0.0014276505 1.1054688 -0.8569336 -1.6914062 -1.0087891 0.2265625
0.024673462 -1.4511719 0.21057129 -0.056854248 0.04638672 -1.7597656 0.39208984 -0.81640625
0.37109375 -1.2509766 0.21508789 0.15112305 0.41357422 -0.6455078 1.25 1.4345703
-0.18701172 0.45703125 1.1650391 0.37402344 -0.00075149536 -0.027816772 -0.026657104 0.0070991516
0.006767273 -0.8623047 -0.6298828 0.07269287 0.6982422 -0.7246094 -0.30078125 0.07562256
0.23522949 0.5961914 0.6142578 -0.8701172 0.5996094 -1.9746094 0.4440918 -1.0380859
-0.19250488 -0.2902832 -0.044677734 -1.1962891 0.6699219 0.09301758 -1.0732422 -0.1270752
0.55126953 -0.118652344 -1.0371094 0.42700195 0.39819336 0.13378906 0.085754395 0.50097656
0.20910645 0.17163086 -0.42211914 -0.19213867 0.41235352 0.8222656 0.6875 -1.0869141
-1.0537109 0.46826172 0.39819336 1.25 0.041809082 0.10559082 1.1083984 0.10247803

bias f4 [2]
00000000: 0020 8bbe 0000 2bbe
-0.27172852 -0.16699219
