data/de/ts_cpu.pt (torch, 385193 bytes, 11 tensors)

weight f4 [129, 25]
0.14569353 0.6608556 -2.2574444 -2.2276037 0.38519746 -0.5600068 1.9127839 -0.41621166
-1.4783314 -0.7239414 -0.38498616 1.3785529 -1.7341409 0.31641817 -1.021959 -0.39832222
-2.0313249 -0.29292598 -1.8939567 -0.97296077 -0.5574759 -0.22639963 0.07051316 -1.4055026
1.595152 1.4203486 -1.3785105 -0.29438925 -0.018803952 -0.45852965 -0.9286428 -0.7741627
0.74534106 0.3721387 -0.9826844 1.3982602 0.071532786 -0.656949 -1.4829044 0.91793084
2.5444016 0.9457788 0.8398552 0.49089277 -2.0116348 -2.31734 0.3446078 -0.3871352
-0.907374 -0.6684097 -0.44787195 -0.29535192 0.8603784 -0.68595904 0.1849348 0.89746714
0.061375357 -0.64466125 0.33743578 0.061068352 0.22980005 -0.41038647 0.027828278 -0.17961083
-0.18832156 1.0164256 0.34918684 0.008828709 -0.8347442 1.3904368 -1.2961941 -0.48806953
0.8013077 -1.2832336 -0.7108995 -0.5869552 -0.483986 1.0563087 0.5362515 0.21473931
-0.021177204 -0.18677767 -0.02783356 0.65345114 -0.060227096 -0.2634016 -0.5875026 0.23994564
-0.052642826 -0.19723223 -0.5513409 0.3591183 0.7432624 -1.2128695 -0.034269024 -1.3597791
-0.46016163 0.24197714 0.16461608 -0.2700358 1.4955267 -1.0670519 0.33582664 -0.36927634
-1.1352862 0.83259785 0.24906912 0.6582483 0.76357585 1.7880872 -0.15531833 1.2416048
-0.23038003 -2.1305544 -0.1443388 -0.62308943 -1.3386403 0.9979625 0.56583625 -0.030661985
1.0624566 0.3412426 0.47431305 0.41331342 1.1687629 -1.9534425 -1.0792443 -1.0861813
0.40073526 -0.24643591 0.17387903 -0.48929834 -0.96024555 -0.31383187 1.2561265 -0.48449764
1.152703 0.6748421 0.035484087 -0.45401233 -0.81425536 1.1272731 1.3674037 -1.9350543
-1.0657765 0.164212 -0.7096907 -0.45091224 -0.19227889 1.5008749 0.36661083 -0.38883767
-0.21696223 -0.15017805 -0.39641714 -0.13239256 -0.2678575 -1.3013322 0.121453814 0.07297212
-0.40201068 -0.42910138 0.5359606 -0.0267583 0.2093971 -1.1043103 1.4755585 0.37866288
0.55765754 -0.6889958 -0.52677685 -0.31464145 -0.2996565 1.316473 1.6615534 0.63406795
0.17970414 0.026985304 0.69392115 -0.32334867 -1.032696 -0.98788625 0.06427864 0.15500839
-0.5354065 -0.47478962 0.58879054 -0.55519545 0.23579712 0.56574005 -0.05803158 -1.2063751
-0.069588505 -1.1664506 0.992171 1.4367558 0.6266494 0.23656799 0.68139064 -0.31014267
0.1657656 0.7349124 -0.72978646 -0.5472564 1.2016128 -0.26409158 0.8886321 -0.727371
-1.5050608 -1.1385045 0.20616926 -0.39415553 1.2673343 -1.6711069 0.15372768 0.6261156
-0.20734355 -0.14238417 0.6295367 -0.69164616 0.64838934 0.4624733 0.6321635 -0.5192305
0.3794154 0.3350105 -0.060136672 0.62938553 -0.14777811 0.5737315 0.025204869 -0.1708637
-0.50585103 -0.43553698 0.8737584 -0.6417229 -0.40656435 -0.26834542 -0.4319462 -0.49550733
0.8874531 -0.2559688 0.6659898 -0.34050086 0.020968847 -0.19180743 -1.2527521 -0.9112671
0.10710128 -0.088537924 0.75691175 -0.2896613 -0.112642124 -0.6120106 0.45051372 0.28726697
00000000: af30 153e d52d 293f f879 10c0 0f91 0ec0
00000010: 9a38 c53e 9b5c 0fbf 1ad6 f43f b219 d5be
00000020: f739 bdbf 3954 39bf e81c c5be 6c74 b03f
00000030: 54f8 ddbf 9001 a23e 8dcf 82bf e4f0 cbbe
00000040: 3a01 02c0 65fa 95be 2c6d f2bf f513 79bf
00000050: beb6 0ebf 4ed5 67be 3469 903d 82e7 b3bf
00000060: f12d cc3f fccd b53f 0873 b0bf 30ba 96be
00000070: bf0a 9abc 66c4 eabe 89bb 6dbf 872f 46bf
00000080: acce 3e3f f788 be3e 3491 7bbf 31fa b23f
00000090: c87f 923d cf2d 28bf d0cf bdbf 84fd 6a3f
000000a0: 7ad7 2240 8f1e 723f c000 573f 4c56 fb3e
000000b0: a0be 00c0 4c4f 14c0 6f70 b03e 9636 c6be
000000c0: aa49 68bf e61c 2bbf 794f e5be 5e38 97be
000000d0: c241 5c3f 039b 2fbf 8c5f 3d3e 68c0 653f
000000e0: ba64 7b3d 8508 25bf 62c4 ac3e cf22 7a3d
000000f0: b450 6b3e 2d1e d2be 21f8 e33c e7eb 37be
00000100: 5ed7 40be 3c1a 823f 9ec8 b23e 4aa6 103c
00000110: ccb1 55bf d5f9 b13f b0e9 a5bf 40e4 f9be
00000120: 8022 4d3f 0041 a4bf 82fd 35bf b242 16bf
00000130: 03cd f7be 2035 873f c747 093f 9fe4 5b3e
00000140: d17b adbc a542 3fbe 3503 e4bc 9348 273f
00000150: b0b0 76bd 93dc 86be 9266 16bf 4fb4 753e
00000160: 01a0 57bd 3ff7 49be ad24 0dbf 5bde b73e
00000170: 7246 3e3f 4f3f 9bbf ad5d 0cbd 3e0d aebf
00000180: 4e9a ebbe dbc8 773e 1e91 283e 2242 8abe
00000190: 6b6d bf3f 2895 88bf 78f1 ab3e ca11 bdbe
000001a0: 0f51 91bf 2225 553f fa0b 7f3e f682 283f
000001b0: b579 433f 0be0 e43f c50b 1fbe e8ec 9e3f
000001c0: bee8 6bbe 015b 08c0 8dcd 13be ca82 1fbf
000001d0: 9158 abbf 787a 7f3f a5da 103f d82e fbbc
000001e0: 94fe 873f 5ab7 ae3e 29d9 f23e d19d d33e
000001f0: 069a 953f 670a fabf ad24 8abf fd07 8bbf
00000200: 2c2d cd3e b259 7cbe 580d 323e 5085 fabe
00000210: a7d2 75bf 92ae a0be c1c8 a03f 1310 f8be
00000220: c68b 933f 74c2 2c3f c357 113d 4e74 e8be
00000230: 0a73 50bf 7c4a 903f 1607 af3f dcaf f7bf
00000240: 5d6b 88bf 3127 283e 4aae 35bf f8dd e6be
00000250: c2e4 44be ab1c c03f 6ab4 bb3e bb15 c7be
00000260: 592b 5ebe 46c8 19be 30f7 cabe ea91 07be
00000270: 9e24 89be 0e92 a6bf c7bc f83d 6872 953d
00000280: 58d4 cdbe 2db3 dbbe b734 093f 3934 dbbc
00000290: 326c 563e 0a5a 8dbf 1adf bc3f 1ae0 c13e
000002a0: a5c2 0e3f 0762 30bf d9da 06bf af18 a1be
000002b0: 946c 99be 3082 a83f c8ad d43f 4752 223f
000002c0: 5d04 383e 4910 dd3c d1a4 313f f58d a5be
000002d0: 622f 84bf 1de6 7cbf 85a4 833d 85ba 1e3e
000002e0: 6610 09bf a017 f3be faba 163f 4a21 0ebf
000002f0: cd74 713e 57d4 103f 86b2 6dbd 806a 9abf
00000300: 6b84 8ebd 414e 95bf ebfe 7d3f 9de7 b73f
00000310: 186c 203f e13e 723e 9e6f 2e3f 05cb 9ebe
00000320: 75be 293e 3823 3c3f 49d3 3abf ff18 0cbf
00000330: 73ce 993f 0337 87be 657d 633f fc34 3abf
00000340: d5a5 c0bf 84ba 91bf 091e 533e c1ce c9be
00000350: 0338 a23f d5e6 d5bf ca6a 1d3e 1d49 203f
00000360: de51 54be 28cd 11be 5129 213f b90f 31bf
00000370: d8fc 253f 4dc9 ec3e 78d5 213f 4aec 04bf
00000380: bc42 c23e 7f86 ab3e df51 76bd 691f 213f
00000390: 2553 17be 11e0 123f 717a ce3c e5f6 2ebe
000003a0: 747f 01bf b4fe debe a1ae 5f3f f447 24bf
000003b0: 3429 d0be 9264 89be 0d28 ddbe 23b3 fdbe
000003c0: 2030 633f 580e 83be 4f7e 2a3f 2156 aebe
000003d0: dcc6 ab3c 2b69 44be 2e5a a0bf cd48 69bf
000003e0: ea57 db3d 5f53 b5bd f8c4 413f 7c4e 94be
000003f0: eab0 e6bd baac 1cbf bca9 e63e a814 933e

weight_hh_l0_reverse f4 [200, 50]
0.6788998 -0.34947464 -0.20296817 -0.14223275 -0.31868076 0.13005932 0.011492927 0.81014323
-0.41047445 0.14381804 0.14264731 0.2681108 -0.28294703 -0.30562288 0.5910435 0.20587438
0.316298 -0.4832063 -0.36622125 -0.23555365 -0.0070742094 0.3856349 0.4377856 0.11004185
0.13613962 -0.06634053 -0.25309896 -0.17330506 -0.12194946 -0.5370941 -0.12041788 -0.312499
0.32785678 -0.58505327 0.0018169123 0.5463036 0.2539352 -0.0417328 -0.28472966 -0.4303598
0.16545169 -0.06530798 -0.069519706 -0.14748155 0.1991365 0.3236446 -0.22992302 0.2918664
0.052445605 0.6692583 -0.07382669 0.17357166 0.66887426 -0.38137954 0.00041472877 0.7050227
-0.100872934 -0.024070268 0.20222764 0.032732267 -0.28917578 0.0129185505 -0.27032807 -0.020401413
-0.038370125 0.622227 0.102382004 -0.45782688 -0.37144655 -0.21629 0.44758934 -0.014115298
0.2758426 0.21860893 0.31286338 0.0643192 -0.16298346 -0.653271 -0.2991264 -0.112269044
-0.0025076289 -0.019100128 0.031294003 -0.5604846 -0.29467842 0.3773935 0.15134141 0.06739619
-0.0041407184 0.25275758 0.013303986 -0.051049422 -0.34947157 -0.16977772 0.33757827 0.37523597
0.61557156 0.20395903 0.2391072 -0.08716069 0.088069595 0.77792466 -0.1486233 -0.011068467
0.042905837 0.036233593 0.30431113 -0.010271398 0.622344 -0.06698662 -0.15727313 0.015992831
0.236269 0.029140117 -0.031941425 0.47619674 -0.028684057 -0.01830422 0.06475771 -0.046854455
-0.45082965 -0.010597735 0.2909958 0.30168486 0.95332575 -0.525253 0.13101844 -0.35245603
-0.13625434 -0.26935193 -0.06411021 -0.15206225 0.1820317 -0.48684976 -0.44842383 0.2611006
0.28426856 0.11180459 0.3275935 0.522509 0.016013341 0.017368715 -0.45164376 0.028319448
0.15460664 0.14903317 -0.45656472 0.034641422 -0.021679886 -0.2333909 -0.32473266 -0.21142228
-0.43297157 -0.40242687 0.036663428 -0.29692814 -0.1115469 0.7254792 -0.41688707 0.23862115
0.13758688 0.22253968 0.6532917 -0.04414584 0.8926358 0.12926239 0.26181677 -0.5776249
0.4064703 0.09676282 0.5509154 0.07488758 0.29301354 -0.032025844 0.055533927 -0.17599712
0.18545331 0.108414024 -0.116769105 -0.8356499 0.38526428 -0.68183315 0.47841513 -0.11502901
0.49581122 0.57160926 0.01666518 0.8129815 -0.37899455 -0.00813325 0.18120931 -0.08971817
-0.49391982 0.4214297 0.24714935 0.518971 -0.31639037 0.70083284 0.19978845 0.010258859
-0.2581537 0.38323298 0.2929748 -0.7720953 0.75026023 -0.053589962 -0.13288957 0.51152015
0.57777023 0.41617155 0.105899364 0.19315414 -0.07125219 -0.26241282 -0.19560622 0.15823896
-0.26775128 0.34933388 -0.012044286 -0.125163 -0.011456028 0.84548426 0.4092964 -0.007593391
0.63403064 0.0037852465 0.026050728 0.6595181 -1.2454017 0.11754808 0.104837224 0.41859072
0.20707159 0.025932793 -0.16251364 0.39532945 0.11869571 -0.1160435 -0.22570851 0.111933894
0.58035654 -0.8494897 0.019397078 0.57186115 0.13035925 0.4789395 0.09988792 -0.32123074
0.74162394 0.028937489 0.51681703 -0.008773306 0.4406826 -0.29118717 0.19243525 -0.19228022
00000000: 61cc 2d3f 57ee b2be e3d6 4fbe 76a5 11be
00000010: 202a a3be 452e 053e d44c 3c3c 8c65 4f3f
00000020: b529 d2be 0945 133e 2312 123e d245 893e
00000030: 6fde 90be 9a7a 9cbe a04e 173f bcd0 523e
00000040: d0f1 a13e d166 f7be 5a81 bbbe fa34 71be
00000050: c5ce e7bb f071 c53e 6f25 e03e 9f5d e13d
00000060: 2f68 0b3e 8bdd 87bd 3096 81be e276 31be
00000070: a3c0 f9bd 007f 09bf a69d f6bd deff 9fbe
00000080: d8dc a73e 0dc6 15bf 7625 ee3a 8dda 0b3f
00000090: cb03 823e 03f0 2abd 16c8 91be 1f58 dcbe
000000a0: 2b6c 293e 31c0 85bd 5960 8ebd 6705 17be
000000b0: 70ea 4b3e bfb4 a53e f170 6bbe 836f 953e
000000c0: 34d1 563d 8354 2b3f 7332 97bd c5bc 313e
000000d0: 583b 2b3f 2e44 c3be f46f d939 5e7c 343f
000000e0: 7896 cebd 032f c5bc c314 4f3e 4512 063d
000000f0: d90e 94be 54a8 533c 7168 8abe dd20 a7bc
00000100: fe29 1dbd 454a 1f3f a8ad d13d 4968 eabe
00000110: 3e2e bebe 207b 5dbe 6e2a e53e da43 67bc
00000120: 3e3b 8d3e 05db 5f3e a12f a03e c9b9 833d
00000130: 23e5 26be c53c 27bf 1827 99be 50ed e5bd
00000140: 0857 24bb df77 9cbc 242e 003d eb7b 0fbf
00000150: 17e0 96be b939 c13e 3ef9 1a3e 0307 8a3d
00000160: ddae 87bb 7169 813e f6f8 593c 3319 51bd
00000170: f0ed b2be 36da 2dbe 0fd7 ac3e ee1e c03e
00000180: 1996 1d3f a3da 503e 85d8 743e 4e81 b2bd
00000190: d55d b43d 1226 473f b530 18be 8458 35bc
000001a0: 08be 2f3d ad69 143d abce 9b3e 5e49 28bc
000001b0: f051 1f3f 4830 89bd 350c 21be 6603 833c
000001c0: 80f0 713e 41b7 ee3c 03d5 02bd 0fd0 f33e
000001d0: d4fa eabc bbf2 95bc b19f 843d 75ea 3fbd
000001e0: 25d3 e6be 1fa2 2dbc 67fd 943e 7076 9a3e
000001f0: 280d 743f fb76 06bf b329 063e 1e75 b4be
00000200: 4286 0bbe 7fe8 89be 374c 83bd 35b6 1bbe
00000210: 8566 3a3e 5f44 f9be cf97 e5be faae 853e
00000220: a68b 913e cef9 e43d 56ba a73e 26c3 053f
00000230: 692e 833c d648 8e3c da3d e7be 30fe e73c
00000240: 3451 1e3e 279c 183e dac2 e9be 2ae4 0d3d
00000250: 049a b1bc 06fe 6ebe 5c43 a6be 157f 58be
00000260: 73ae ddbe e50a cebe 642c 163d f706 98be
00000270: b372 e4bd 01b9 393f 3972 d5be 1a59 743e
00000280: 93e3 0c3e 71e1 633e 203e 273f 45d2 34bd
00000290: c883 643f 5c5d 043e d90c 863e 3adf 13bf
000002a0: e01c d03e 962b c63d cb08 0d3f a95e 993d
000002b0: df05 963e 882d 03bd 8b77 633d 9738 34be
000002c0: 79e7 3d3e 2c08 de3d a424 efbd 27ed 55bf
000002d0: 5c41 c53e 9e8c 2ebf d4f2 f43e 5494 ebbd
000002e0: f8da fd3e fc54 123f 6a85 883c 8e1f 503f
000002f0: 930b c2be 5341 05bc ef8e 393e 29be b7bd
00000300: 0fe3 fcbe a2c5 d73e b814 7d3e 49db 043f
00000310: ebfd a1be c869 333f 5895 4c3e c614 283c
00000320: b92c 84be 1d37 c43e cb00 963e 0aa8 45bf
00000330: 0e11 403f 2681 5bbd 3414 08be fcf2 023f
00000340: c0e8 133f 7014 d53e c4e1 d83d 33ca 453e
00000350: abec 91bd f95a 86be ff4c 48be 6509 223e
00000360: b216 89be e4db b23e 6655 45bc bb2a 00be
00000370: 10b2 3bbc a871 583f 4c8f d13e fbd1 f8bb
00000380: d54f 223f e611 783b 5668 d53c 2ed6 283f
00000390: 5369 9fbf 0cbd f03d e6b4 d63d 8651 d63e
000003a0: 930a 543e 0271 d43c fa69 26be 9f68 ca3e
000003b0: bd16 f33d 37a8 edbd 2220 67be 993d e53d
000003c0: 3f92 143f 2878 59bf 9fe6 9e3c 7e65 123f
000003d0: e57c 053e 8f37 f53e 0a92 cc3d 5b78 a4be
000003e0: 11db 3d3f 500e ed3c 1f4e 043f eabd 0fbc
000003f0: 26a1 e13e 7c16 95be bf0d 453e 1be5 44be

weight_ih_l0_reverse f4 [200, 25]
-0.0027954446 0.011903831 -0.08835422 -0.5695927 0.37579435 -0.16740532 -0.054506417 -0.2608292
-0.03220206 -0.07112646 0.59136605 0.10386511 0.034808483 0.0063340296 -0.3992768 -0.41599515
0.25435907 0.36304432 0.0027965931 0.17398085 -0.2849376 0.3360471 -0.10230901 0.31676272
0.22982076 0.12730888 -0.101558425 -0.5993504 -0.33463138 0.06932031 -0.049793996 -0.019892469
0.124494895 0.20226374 -0.28854108 -0.15717065 0.059403714 0.038545754 -0.016314482 0.08460849
0.37492558 -0.08463745 -0.07752471 -0.44039047 -0.18409063 -0.40304667 0.53135306 -0.39829022
-0.10721853 -0.55173856 0.06249826 0.15980965 -0.5367861 -0.21843284 -0.30303493 0.1694884
-0.26960135 0.12088152 -0.23727241 -0.17691556 0.20580743 0.036219265 -0.030198492 -0.30313537
-0.034066297 0.060663186 0.055164993 -0.018541386 -0.061294705 0.35044077 -0.17419823 -0.41116446
-0.08803879 0.3673549 -0.09784788 0.017083555 0.51470584 -0.4827435 0.4287395 0.08414039
0.007155542 -0.052321367 -0.39492556 0.07598459 0.14155911 0.19274102 -0.10103648 -0.2740417
-0.32517627 -0.21256514 -0.009535711 -0.26505038 0.043356296 -0.018190073 -0.10738614 -0.18294396
0.19142929 -0.22025926 -0.2255318 0.38005236 -0.0068833814 0.08596917 0.036361437 0.30691886
0.7579921 -0.12080927 -0.22735684 0.2882591 -0.8741679 0.060255866 0.31337947 0.3829807
-0.19726044 -0.101984285 0.25598672 -0.004348063 -0.14884894 -0.23650856 0.24791647 0.16148119
-0.2654964 0.104264066 0.20209202 0.09953109 0.19422151 0.08255024 0.24341615 -0.17322195
0.09996732 -0.4674179 0.076252475 0.65298516 -0.07755705 0.072587214 -0.34620515 0.29421777
0.22727028 -0.3576917 -0.018118666 -0.17034213 -0.13122196 -0.27261457 0.09200636 -0.09104066
0.05713423 -0.04538683 0.042499665 -0.26107863 0.05915173 -0.056371007 0.48885122 0.112968616
-0.28987855 0.18268287 -0.25841635 -0.19521162 -0.14911762 -0.015237856 -0.32902378 -0.14447138
0.36933866 -0.08884189 0.12644014 -0.13537693 0.08336671 0.074614696 0.2754858 -0.246307
0.008503291 -0.15734851 0.03715012 -0.04750162 -0.34421113 0.067163914 0.030176172 0.013358541
0.28113553 0.010940704 -0.16148141 -0.68948907 0.2272954 -0.13222933 -0.22751163 -0.15465593
-0.08362373 0.016746221 -0.30652896 -0.019514645 0.19428982 -0.03796307 -0.22153994 0.024243519
-0.3718884 -0.34218833 0.141226 0.25635645 -0.21345514 0.40094757 0.29731703 -0.099964306
-0.3714631 0.6408596 -0.12969357 0.39203393 -0.016651254 -0.12205231 0.2676454 0.14448439
-0.39644277 -0.061032064 -0.08575637 0.1023618 0.32044324 0.07786266 -0.33759737 0.2358005
0.058524627 -0.5266109 -0.30447873 0.16715558 0.2449777 -0.5895656 0.03820046 0.2243109
0.22045755 0.017371232 0.38648683 -0.2264543 0.31195 0.09591567 -0.2179432 0.25102982
-0.39841682 0.15105182 0.12058551 0.16379051 0.482558 -0.33852524 -0.03885104 -0.3459259
-0.08940547 0.10981268 0.026261384 0.28621736 -0.12535968 -0.29672232 0.08735995 -0.06508101
0.017419739 0.5571631 -0.061350852 0.20482233 -0.2973307 -0.06694392 -0.17652269 0.034211863
00000000: c733 37bb 4908 433c 0ff3 b4bd d4d0 11bf
00000010: 1e68 c03e 4d6c 2bbe 1f42 5fbd 688b 85be
00000020: 4fe6 03bd c0aa 91bd c463 173f 3bb7 d43d
00000030: 5793 0e3d b18d cf3b 026e ccbe 51fd d4be
00000040: 5a3b 823e f2e0 b93e 0c47 373b 0928 323e
00000050: 57e3 91be 5e0e ac3e 6387 d1bd b92e a23e
00000060: 2256 6b3e 425d 023e ddfd cfbd 076f 19bf
00000070: ce54 abbe cff7 8d3d caf4 4bbd 88f5 a2bc
00000080: 2ef7 fe3d 3a1e 4f3e a8bb 93be 58f1 20be
00000090: 4f51 733d 27e2 1d3d f3a5 85bc 3747 ad3d
000000a0: 3ff6 bf3e 6656 adbd 46c5 9ebd dc7a e1be
000000b0: 4182 3cbe 225c cebe c106 083f b2ec cbbe
000000c0: 6395 dbbd bd3e 0dbf 2dfe 7f3d 24a5 233e
000000d0: d06a 09bf dcac 5fbe 6527 9bbe 5e8e 2d3e
000000e0: 3009 8abe bb90 f73d 8af7 72be 5a29 35be
000000f0: 2fbf 523e a75a 143d d462 f7bc 8f34 9bbe
00000100: 1a89 0bbd f679 783d b0f4 613d 1be4 97bc
00000110: 2810 7bbd f96c b33e 0561 32be 2684 d2be
00000120: ae4d b4bd f115 bc3e 7864 c8bd d0f2 8b3c
00000130: c3c3 033f 282a f7be be83 db3e cc51 ac3d
00000140: 0979 ea3b ee4e 56bd af33 cabe cf9d 9b3d
00000150: dff4 103e e75d 453e 37ec cebd 324f 8cbe
00000160: 817d a6be adaa 59be ac3b 1cbc afb4 87be
00000170: 5f96 313d 5903 95bc 44ed dbbd a955 3bbe
00000180: 0a06 443e a58b 61be cff1 66be 3996 c23e
00000190: fd8d e1bb 9b10 b03d bbef 143d 7824 9d3e
000001a0: c50b 423f da6a f7bd 3bd0 68be b296 933e
000001b0: 78c9 5fbf dbce 763d 4673 a03e 0c16 c43e
000001c0: a4fe 49be 23dd d0bd b110 833e 327a 8ebb
000001d0: db6b 18be 4d2f 72be d1dd 7d3e 535b 253e
000001e0: 25ef 87be 6688 d53d 36f1 4e3e f5d6 cb3d
000001f0: 01e2 463e 1a10 a93d 1542 793e 1861 31be
00000200: abbb cc3d 6651 efbe 422a 9c3d 092a 273f
00000210: 3bd6 9ebd 9ba8 943d cd41 b1be b6a3 963e
00000220: 8ab9 683e 5e23 b7be 996d 94bc 2b6e 2ebe
00000230: 0d5f 06be 2394 8bbe d56d bc3d 8773 babd
00000240: 9505 6a3d 8ae7 39bd 2114 2e3d 19ac 85be
00000250: 1649 723d 49e5 66bd b54a fa3e 175c e73d
00000260: f66a 94be 3811 3b3e 264f 84be 8ee5 47be
00000270: 4ab2 18be 33a8 79bc ce75 a8be 4ef0 13be
00000280: f519 bd3e bdf2 b5bd 8679 013e 40a0 0abe
00000290: 2abc aa3d 97cf 983d 7a0c 8d3e e737 7cbe
000002a0: 6351 0b3c f81f 21be b92a 183d 0f91 42bd
000002b0: 713c b0be 3c8d 893d 0534 f73c c8dd 5a3c
000002c0: fff0 8f3e a340 333c 625b 25be 5b82 30bf
000002d0: 20c0 683e 2067 07be cff8 68be 205e 1ebe
000002e0: eb42 abbd 5f2f 893c 5df1 9cbe 2ddd 9fbc
000002f0: e9f3 463e 2a7f 1bbd 5edb 62be 589a c63c
00000300: 2868 bebe 4f33 afbe 8c9d 103e 2741 833e
00000310: fc93 5abe 0049 cd3e f039 983e 16ba ccbd
00000320: 6930 bebe 600f 243f 64ce 04be acb8 c83e
00000330: 3668 88bc 90f6 f9bd d108 893e b7f3 133e
00000340: 8cfa cabe c2fc 79bd 09a1 afbd 10a3 d13d
00000350: 2311 a43e 7576 9f3d 90d9 acbe b075 713e
00000360: 85b7 6f3d f9cf 06bf a3e4 9bbe d52a 2b3e
00000370: 6fdb 7a3e c5ed 16bf 1678 1c3d c2b1 653e
00000380: a0bf 613e 1d4e 8e3c 9ae1 c53e a3e3 67be
00000390: e9b7 9f3e 6f6f c43d 812c 5fbe fb86 803e
000003a0: 4afd cbbe 54ad 1a3e 89f5 f63d b3b8 273e
000003b0: d811 f73e 2e53 adbe 4522 1fbd 331d b1be
000003c0: 371a b7bd 78e5 e03d 1d22 d73c 158b 923e
000003d0: 4a5e 00be fdeb 97be c6e9 b23d 3149 85bd
000003e0: d7b3 8e3c 3ea2 0e3f 084b 7bbd f2bc 513e
000003f0: bb3b 98be e519 89bd 5dc2 34be bd21 0c3d

weight_ih_l0 f4 [200, 25]
-0.29173464 0.37442455 -0.26952538 0.15721662 -0.13885997 0.6067575 0.41851422 -0.4092322
0.028796475 -0.36309925 -0.5548235 0.05904756 0.5707136 0.54960227 0.07126401 -0.050846893
-0.37621367 0.2352311 -0.015209004 -0.15143487 0.3332236 -0.51364577 -0.46878934 -0.2790153
0.27823538 -0.12679726 0.19979662 -1.076242 -0.23875858 0.3809402 0.23070154 0.2504204
-0.07563735 0.5612436 0.32396132 -0.17908107 -0.3574711 0.87795293 -0.07315422 -0.5772113
0.016094841 -0.0098860655 -0.4719663 -0.033150155 0.36362457 0.003850364 -0.2966032 -0.18163201
0.461007 0.48916277 0.19707571 -0.6187834 -0.6375366 0.10970912 0.3304341 0.135834
0.36818153 -0.032630462 -0.052570622 0.06739403 -0.30766007 -0.022504939 -0.02572323 -0.073797494
-0.48342153 0.5303342 -0.43241075 -0.039951984 0.32197 -0.11117994 -0.2567116 0.93030185
-0.2712117 -0.18440507 0.0131565165 0.08644191 0.7776607 0.13649671 0.17347011 -0.033898123
-0.04872127 0.0146654 -0.19196022 -0.29298764 0.06246301 -0.042486746 -0.21388644 -0.2677499
0.26706052 -0.046022207 -0.040053725 0.20522001 0.14080591 -0.12671077 0.041341875 0.3385504
-0.43999246 -0.06579101 -0.25288278 0.43370417 0.35804108 -0.067576215 -0.03952502 -0.41801256
-0.122125015 -0.6029705 0.15549769 0.0136709595 0.51426244 0.007474558 0.39978114 0.044942003
0.7039629 0.23154388 0.18427764 0.09151905 -0.34835464 -0.13164112 0.60909814 -0.016453166
-0.2212568 0.5039615 0.58935934 0.09732463 0.083994664 -0.27146193 0.16746067 -0.086972564
-0.3734861 0.64715093 0.21346842 0.30687016 -0.45056373 0.3149955 0.68346953 0.10954282
-0.16385958 -0.34298128 -0.5240444 0.024276566 -0.22305335 0.13456762 0.28719422 -0.19576614
0.27928612 0.28584644 0.17861277 0.14114559 -0.3022989 0.6615978 0.4841941 -0.012714586
0.08388133 0.55835205 -0.2742067 -0.09331925 -0.16243613 -0.048501365 -0.1404741 0.504758
0.32756364 0.1417522 0.14191148 -0.061795507 -0.3422027 0.39279273 0.14278024 -0.53349733
0.191935 0.0958005 0.19426854 0.36174986 0.49335116 -0.3349614 -0.07442113 0.27138415
0.41240236 -0.36787665 0.11729929 0.07135608 -0.17193331 -0.23881094 0.20354004 0.24252835
0.18151101 0.33572894 -0.2569254 0.32629198 -0.17946096 -0.024261916 0.17802201 0.30213246
-0.80122834 -0.0746131 -0.40899637 -0.072344005 -0.2800346 -0.28826135 0.31567034 0.2551308
-0.07432435 -0.75856566 -0.6451622 0.4782565 0.1719036 -0.5150735 0.32273173 -0.24409439
0.058181655 0.062978536 0.19434175 -0.28982535 -0.17506482 0.022616947 0.111468725 0.15679753
0.4341228 0.07759307 -0.38589472 -0.06399246 -0.03377942 -0.2339501 0.12316491 0.008060483
-0.061177284 -0.2881972 0.29615122 0.1879822 0.19089288 0.13027051 0.3145425 0.5521125
-0.43317932 -0.09166382 0.20719486 0.25989848 -0.28925723 -0.33300343 0.08133406 -0.6081877
-0.14025374 0.07731555 -0.33052373 -0.23572212 0.48152563 0.14977024 0.18104778 0.5602174
-0.06157232 0.38121524 -0.3907586 0.07649952 0.2797014 -0.09908751 -0.2654897 -0.31693685
00000000: 3e5e 95be 93b4 bf3e 3bff 89be 65fd 203e
00000010: 4f31 0ebe 7654 1b3f 7f47 d63e e286 d1be
00000020: 96e6 eb3c 25e8 b9be ea08 0ebf dbdb 713d
00000030: 491a 123f bcb2 0c3f def2 913d d544 50bd
00000040: 149f c0be 6ce0 703e 302f 79bc be11 1bbe
00000050: 499c aa3e 4a7e 03bf 2805 f0be 18db 8ebe
00000060: de74 8e3e 24d7 01be 7c97 4c3e 4cc2 89bf
00000070: 217d 74be 980a c33e 063d 6c3e 1a37 803e
00000080: c1e7 9abd a9ad 0f3f 42de a53e 0761 37be
00000090: 7406 b7be 86c1 603f e1d1 95bd 1fc4 13bf
000000a0: 54d9 833c 2af9 21bc 91a5 f1be 75c8 07bd
000000b0: 002d ba3e 6356 7c3b 60dc 97be befd 39be
000000c0: 1c09 ec3e 8b73 fa3e 37ce 493e 9768 1ebf
000000d0: 9935 23bf 2daf e03d a92e a93e 1118 0b3e
000000e0: 4a82 bc3e 85a7 05bd 4b54 57bd e205 8a3d
000000f0: 9f85 9dbe 475c b8bc 86b9 d2bc 2423 97bd
00000100: 0783 f7be fbc3 073f f164 ddbe b1a4 23bd
00000110: 40d9 a43e 4fb2 e3bd b46f 83be 4328 6e3f
00000120: 43dc 8abe afd4 3cbe 6e8e 573c 7508 b13d
00000130: c614 473f cbc5 0b3e 26a2 313e c2d8 0abd
00000140: f48f 47bd 2547 703c 3891 44be 7a02 96be
00000150: 37d9 7f3d 9506 2ebd 0c05 5bbe 8416 89be
00000160: 28bc 883e c881 3cbd 600f 24bd 3225 523e
00000170: 6d2f 103e 78c0 01be 1956 293d 7a56 ad3e
00000180: b146 e1be 70bd 86bd da79 81be 790e de3e
00000190: 2951 b73e 6665 8abd fde4 21bd be05 d6be
000001a0: ae1c fabd 465c 1abf c93a 1f3e 29fc 5f3c
000001b0: b4a6 033f 23ed f43b 1db0 cc3e 1b15 383d
000001c0: ea36 343f d719 6d3e 47b3 3c3e 576e bb3d
000001d0: 8a5b b2be eecc 06be dbed 1b3f cac8 86bc
000001e0: 2591 62be 9f03 013f 41e0 163f 2352 c73d
000001f0: 6505 ac3d 0ffd 8abe cf7a 2b3e ac1e b2bd
00000200: 9239 bfbe afab 253f 7797 5a3e 161e 9d3e
00000210: 4ab0 e6be 1747 a13e dcf7 2e3f fc57 e03d
00000220: ceca 27be 3e9b afbe c627 06bf a6df c63c
00000230: 1968 64be 18cc 093e 1f0b 933e eb76 48be
00000240: 97fe 8e3e 775a 923e 44e6 363e 7888 103e
00000250: ecc6 9abe 795e 293f 4ae8 f73e d750 50bc
00000260: fac9 ab3d 29f0 0e3f d264 8cbe 2a1e bfbd
00000270: a855 26be 5ea9 46bd 71d8 0fbe d237 013f
00000280: 6cb6 a73e 7d27 113e 3e51 113e 491d 7dbd
00000290: 3135 afbe 211c c93e fc34 123e 4893 08bf
000002a0: 9c8a 443e 0d33 c43d 55ee 463e 4737 b93e
000002b0: 8698 fc3e 1080 abbe 1b6a 98bd ddf2 8a3e
000002c0: 6726 d33e 545a bcbe 9c3a f03d 2323 923d
000002d0: 490f 30be db8a 74be cd6c 503e 5a59 783e
000002e0: 06de 393e aae4 ab3e ba8b 83be be0f a73e
000002f0: 9dc4 37be edc0 c6bc 674b 363e 1bb1 9a3e
00000300: 4d1d 4dbf c1ce 98bd f967 d1be 1829 94bd
00000310: b260 8fbe fe96 93be 8b9f a13e 81a0 823e
00000320: 5d37 98bd 5c31 42bf 5a29 25bf 09de f43e
00000330: 7f07 303e dbdb 03bf 183d a53e e1f3 79be
00000340: e34f 6e3d e4fa 803d 8601 473e fd63 94be
00000350: 3144 33be 2d47 b93c b749 e43d 888f 203e
00000360: 5845 de3e 1ee9 9e3d fe93 c5be 7b0e 83bd
00000370: 4a5c 0abd 9d90 6fbe e23d fc3d 1e10 043c
00000380: 0895 7abd 958e 93be 22a1 973e 687e 403e
00000390: 6c79 433e a265 053e b70b a13e 3f57 0d3f
000003a0: aec9 ddbe 3eba bbbd e42a 543e 6a11 853e
000003b0: 8619 94be 6d7f aabe 7992 a63d 30b2 1bbf
000003c0: ad9e 0fbe 9d57 9e3d 683a a9be 2461 71be
000003d0: 878a f63e 5f5d 193e 9764 393e 686a 0f3f
000003e0: 4233 7cbd a52e c33e 8311 c8be c8ab 9c3d
000003f0: 0635 8f3e 64ee cabd 44ee 87be 8c45 a2be

weight_hh_l0 f4 [200, 50]
-0.1856252 -0.2444923 -0.063267745 0.1583757 -0.06859142 -0.21916862 -0.19179137 0.030534592
0.56507206 -0.22331539 -0.5789067 -0.03232829 -0.056448687 -0.17701146 0.2869718 -0.51406115
0.233736 -0.31360587 0.21778774 0.5795599 -0.08113138 0.028690344 0.05971611 -0.26111102
0.031894516 -0.07087524 -0.051368654 0.21552916 -0.46758708 -0.26133826 -0.046712454 -0.036237977
-0.04118832 0.07446394 0.15549769 0.24737394 -0.101015024 -0.2895166 0.04393406 -0.51475763
-0.04782094 -0.49169034 -0.06184851 0.026225949 -0.16691321 -0.03449606 -0.17805876 -0.102509715
-0.03962267 -0.5223811 -0.06686991 0.3516869 -0.09571447 -0.35826397 -0.62859607 -0.446768
-0.032316945 0.16938516 -0.18893115 0.41690314 0.182655 0.13552494 -0.2841984 0.08402351
0.10917456 0.33765575 -0.25712112 -0.19317463 -0.4882631 -0.17377523 0.14207588 0.31574324
0.0134249665 0.04710223 -0.4476034 0.27841568 -0.31910545 -0.17454584 -0.10337022 -0.07974142
-0.067924224 -0.15781783 -0.053755287 -0.23388591 -0.20430395 -0.108186655 -0.3770358 0.2046814
0.05896081 -0.09120356 -0.5349576 -0.11239482 0.23862655 0.21135472 0.08461699 -0.09405736
0.08996521 0.113067314 -0.27963197 0.60407954 0.6729828 -0.11705605 -0.1477773 0.057183813
0.1982442 -0.3435612 -0.25166944 -0.45397705 0.17556322 0.4238904 -0.29809996 -0.32645136
0.18847251 0.8294274 0.21819803 -0.2856424 -0.056547146 0.40759307 -0.717872 -0.09481652
-0.46058258 0.37834647 -0.053571433 0.3320906 -0.057603654 0.3371858 -0.6930971 -0.15696837
-0.5153847 -0.49501857 0.55357534 -0.28853327 -0.029948162 -0.5068783 0.015373868 0.45582992
-0.13602185 0.3971872 -0.5685654 -0.40968418 -0.07094521 -0.061875287 -0.090485804 0.181732
0.03631099 0.465728 0.262899 -0.27535352 -0.042595666 -0.40221986 0.5666995 0.12692232
-0.24786986 -0.12572064 0.24338037 -0.16374595 0.31249353 -0.08435467 -0.11372207 0.3348593
-0.10380426 -0.39509746 0.024111385 0.116151765 0.40412983 -0.2953567 -0.076456875 -0.21942206
-0.3419044 -0.36232907 -0.08725126 0.008925922 0.1357366 0.13582349 0.12714827 0.17942253
-0.15853728 -0.49257106 0.030874012 0.011691257 0.27798864 0.31147486 -0.054194495 -0.45035738
0.39958155 0.54765195 -0.2353617 -0.10816751 -0.22799161 -0.074522525 -0.22136521 -0.5162078
-0.2858973 0.13563932 -0.39934966 0.020973504 0.16501375 -0.030019514 0.16827063 -0.07213508
0.19505316 0.02586858 0.23521365 0.07554409 -0.058721438 0.29728526 0.042960607 -0.097039744
0.28473386 0.29638386 -0.51091045 -0.264472 -0.06350639 0.25174698 0.09680402 -0.035173267
-0.21013355 -0.24489975 0.11255967 -0.51982933 0.05226259 0.6152378 0.10708993 -0.2055158
-0.35383126 -0.17844845 -0.22209586 -0.05991262 -0.35527784 -0.39057493 -0.105667114 0.17659558
0.38090536 0.04751973 0.28793335 0.59405786 -0.1673821 -0.08266972 -0.43678144 -0.51032805
-0.8013606 0.051627167 0.16638158 0.4893474 -0.04729084 -0.018653871 0.089177914 0.019163517
0.63913435 0.011892907 0.1798506 -0.55200183 -0.23074634 -0.45887136 0.78053254 -0.32026693
00000000: 8814 3ebe 315c 7abe 8592 81bd 3d2d 223e
00000010: a979 8cbd bd6d 60be f564 44be ae23 fa3c
00000020: 90a8 103f caac 64be 3b33 14bf ab6a 04bd
00000030: bd36 67bd 7e42 35be f8ed 923e 8399 03bf
00000040: 7d58 6f3e f390 a0be c003 5f3e 0a5e 143f
00000050: 3528 a6bd 0308 eb3c e198 743d 58b0 85be
00000060: d3a3 023d 0a27 91bd f067 52bd adb3 5c3e
00000070: 9367 efbe 21ce 85be 8f55 3fbd 466e 14bd
00000080: 15b5 28bd 8d80 983d c93a 1f3e 984f 7d3e
00000090: f7e0 cebd 853b 94be 33f4 333d 28c7 03bf
000000a0: e4df 43bd d6be fbbe dd54 7dbd cdd7 d63c
000000b0: 4ceb 2abe be4b 0dbd 0955 36be 9df0 d1bd
000000c0: 614b 22bd c5ba 05bf 17f3 88bd 4e10 b43e
000000d0: f305 c4bd 606e b7be aceb 20bf c6be e4be
000000e0: c65e 04bd 4e73 2d3e 2b77 41be 5474 d53e
000000f0: ea09 3b3e 0dc7 0a3e 7482 91be 8514 ac3d
00000100: e996 df3d 37e1 ac3e 61a5 83be 92cf 45be
00000110: 9ffd f9be 22f2 31be 577c 113e 19a9 a13e
00000120: 64f4 5b3c 45ee 403d 462c e5be 808c 8e3e
00000130: ca61 a3be 25bc 32be c4b3 d3bd 784f a3bd
00000140: db1b 8bbd ff9a 21be 812e 5cbd ca7f 6fbe
00000150: 0e35 51be f790 ddbd d60a c1be 0098 513e
00000160: e480 713d efc8 babd fbf2 08bf 412f e6bd
00000170: 855a 743e 5f6d 583e ac4b ad3d 25a1 c0bd
00000180: ae3f b83d d68f e73d ec2b 8fbe f5a4 1a3f
00000190: 9a48 2c3f 15bb efbd ef52 17be 9339 6a3d
000001a0: 8700 4b3e 41e7 afbe d1da 80be ae6f e8be
000001b0: d8c6 333e 2a08 d93e 8fa0 98be a224 a7be
000001c0: f0fe 403e 5b55 543f 4e6f 5f3e b83f 92be
000001d0: fb9d 67bd 0ab0 d03e 76c6 37bf 2a2f c2bd
000001e0: 7bd1 ebbe a1b6 c13e b86d 5bbd c707 aa3e
000001f0: cff1 6bbd 9ea3 ac3e d06e 31bf 51bc 20be
00000200: 40f0 03bf 1373 fdbe 1db7 0d3f a2ba 93be
00000210: d955 f5bc c7c2 01bf ade2 7b3c 8a62 e93e
00000220: 5049 0bbe 1f5c cb3e 818d 11bf 20c2 d1be
00000230: b94b 91bd f170 7dbd 9f50 b9bd f417 3a3e
00000240: d5ba 143d e773 ee3e b39a 863e 23fb 8cbe
00000250: cb78 2ebd c3ef cdbe 3813 113f edf7 013e
00000260: 99d1 7dbe e9bc 00be b438 793e 05ad 27be
00000270: 27ff 9f3e 24c2 acbd 1ee7 e8bd ae72 ab3e
00000280: 5497 d4bd 374a cabe 3d85 c53c fae0 ed3d
00000290: 1bea ce3e fe38 97be 6c95 9cbd 2db0 60be
000002a0: 180e afbe 3283 b9be cab0 b2bd 083e 123c
000002b0: 89fe 0a3e 5015 0b3e 2833 023e 8aba 373e
000002c0: 9957 22be 4632 fcbe 7feb fc3c b08c 3f3c
000002d0: 8754 8e3e a279 9f3e 0cfb 5dbd 3e95 e6be
000002e0: f495 cc3e eb32 0c3f a802 71be ed86 ddbd
000002f0: a276 69be 449f 98bd 90ad 62be 3226 04bf
00000300: 2261 92be 09e5 0a3e 8f77 ccbe a0d0 ab3c
00000310: 5df9 283e 7ceb f5bc 234f 2c3e 8fbb 93bd
00000320: 04bc 473e 58ea d33c d9db 703e dcb6 9a3d
00000330: e485 70bd c635 983e 76f7 2f3d c6bc c6bd
00000340: a3c8 913e a0bf 973e 07cb 02bf e068 87be
00000350: a30f 82bd fbe4 803e 3041 c63d d811 10bd
00000360: 402d 57be 00c7 7abe af85 e63d 8913 05bf
00000370: 4c11 563d 3980 1d3f f751 db3d bc72 52be
00000380: 5f29 b5be 31bb 36be 196d 63be ef66 75bd
00000390: fae6 b5be 70f9 c7be 0068 d8bd 79d5 343e
000003a0: 0706 c33e 0ca4 423d 006c 933e 2d14 183f
000003b0: 3766 2bbe be4e a9bd d1a1 dfbe dca4 02bf
000003c0: f825 4dbf 0277 533d ef5f 2a3e be8b fa3e
000003d0: 0ab4 41bd 01d0 98bc e9a2 b63d cffc 9c3c
000003e0: 4f9e 233f 78da 423c c12a 383e fe4f 0dbf
000003f0: c548 6cbe 30f1 eabe fbd0 473f 07fa a3be

weight_hh_l0_reverse f4 [200, 50]
0.36895278 -0.36133382 0.09903172 0.34448826 -0.28455177 0.088669725 -0.09283558 0.31552958
-0.052092593 0.10018359 0.19488515 -0.3055566 0.23766837 -0.42647368 -0.21570176 -0.051093303
0.3660503 -0.22499941 -0.08225955 0.6210133 0.010558797 -0.06434988 -0.5951935 -0.5638676
-0.480721 0.072527595 -0.121334486 0.27352953 -0.08286805 -0.1688011 0.26250482 0.067277536
-0.17102739 -0.29812318 0.2390503 0.21153721 -0.13304988 0.28052938 -0.008873979 -0.12475007
0.0538208 0.33578393 -0.17446977 0.1275754 0.19715382 0.41909745 -0.10023745 0.69852734
-0.19237834 -0.15700603 0.031072794 0.031455304 0.16146895 0.19104484 0.017294938 -0.4540674
0.28647444 0.12199717 -0.033922095 0.3267989 0.39792117 -0.26414675 0.108589455 -0.06421089
-0.3502138 0.05638183 0.15229148 -0.2143954 0.06273969 0.32697237 -0.0054902243 0.16522269
-0.33234748 -0.25559977 -0.13653992 -0.2707955 0.104290456 0.12651363 -0.03339018 -0.080502436
0.06085007 0.23857386 -0.16053136 -0.15602686 -0.35544145 -0.16773643 -0.2015263 0.16942514
-0.035096012 0.105744846 0.11697932 0.27039233 -0.02748276 0.11556573 0.03139466 0.058785304
-0.0131480815 0.10736283 -0.008379876 0.027182618 0.11456533 -0.2859552 0.011969242 0.12391262
-0.3755904 -0.24311699 0.15198931 0.095485166 0.047598857 -0.16747722 -0.18572316 -0.07556764
0.069482155 -0.10740551 -0.08880626 0.16045335 0.38583377 -0.15418689 -0.06406233 0.0938987
0.36570534 -0.30918267 0.017806903 -0.1085995 -0.13459557 0.027651452 -0.19496714 0.08591065
-0.039980516 0.024216777 0.16597345 0.28245005 0.014811837 0.035945293 0.14190595 0.33881813
0.016588619 0.114749216 -0.17355368 0.049833495 0.3870701 -0.023417873 -0.09699827 -0.039157506
0.044504356 0.04393963 -0.25435278 0.03765624 -0.15594397 0.0073744515 0.026519783 0.11320886
-0.19627742 0.264627 0.04210779 -0.24773183 -0.034778982 0.023754055 0.3011506 0.5839994
-0.10206686 -0.021332266 -0.40678874 -0.6005826 -0.016270926 -0.10044219 0.01718891 -0.21542133
0.17421788 0.097356215 -0.4299448 0.30324274 0.023113152 -0.08362477 0.14968677 -0.07365561
-0.027583813 0.12698042 0.6098093 0.1596764 -0.014824588 -0.4623762 -0.43435204 -0.44601005
0.078267604 -0.438741 -0.38600913 0.14980695 0.3316903 -0.21625707 0.086188436 0.22578123
0.17724857 0.24496269 -0.11260251 0.0029007234 0.37731594 -0.085962415 0.4962717 -0.33423364
0.14279842 0.4122615 0.20580116 0.29462856 -0.10375113 0.029451046 -0.06674569 0.34679517
0.04607124 0.026151964 0.15087433 -0.1764776 0.12805438 0.17817956 -0.23181677 -0.021092886
0.056914777 -0.31399882 -0.08839185 0.17667645 0.12856023 -1.7975604e-05 -0.15665416 0.16996033
-0.25711727 0.11924116 -0.13282749 0.10396727 -0.005307533 -0.19674473 0.10710856 -0.16373466
-0.13804658 0.1319045 -0.07001688 -0.09584638 -0.12988529 0.3051447 0.07488667 -0.1416632
0.29337257 0.13687375 -0.067821644 -0.009557318 0.3613593 0.38451016 -0.088641986 0.26391923
0.08779143 0.09199431 -0.05535505 -0.2503162 -0.22923352 -0.2767557 0.17270987 -0.29415962
00000000: 61e7 bc3e bf00 b9be 24d1 ca3d c460 b03e
00000010: c5b0 91be 7998 b53d 9520 bebd 188d a13e
00000020: 0b5f 55bd 0e2d cd3d f98f 473e ea71 9cbe
00000030: 565f 733e c25a dabe ece0 5cbe 3647 51bd
00000040: f26a bb3e 3f66 66be b277 a8bd bafa 1e3f
00000050: cefe 2c3c dfc9 83bd 9a5e 18bf a159 10bf
00000060: 1021 f6be 5989 943d 377e f8bd 100c 8c3e
00000070: b9b6 a9bd 32da 2cbe 0867 863e cec8 893d
00000080: ce21 2fbe 9aa3 98be 9ac9 743e 369d 583e
00000090: 3a3e 08be 8ca1 8f3e 2a64 11bc f77c ffbd
000000a0: 3373 5c3d dfeb ab3e 34a8 32be 20a3 023e
000000b0: b1e2 493e f193 d63e 4b49 cdbd b0d2 323f
000000c0: d4fe 44be 30c6 20be 5f8c fe3c 47d7 003d
000000d0: 1e58 253e 42a1 433e 1dae 8d3c 867b e8be
000000e0: c7ac 923e a7d9 f93d e5f1 0abd 2f52 a73e
000000f0: 53bc cb3e 3e3e 87be 2664 de3d 0081 83bd
00000100: 394f b3be a2f0 663d 4cf2 1b3e 788a 5bbe
00000110: ab7d 803d ec68 a73e 57e7 b3bb 2330 293e
00000120: 7329 aabe f9dd 82be 1fd1 0bbe b5a5 8abe
00000130: 3c96 d53d ca8c 013e 24c4 08bd 76de a4bd
00000140: ec3d 793d b54c 743e 5562 24be 81c5 1fbe
00000150: 6cfc b5be 19c3 2bbe e95c 4ebe c97d 2d3e
00000160: d6c0 0fbd c190 d83d db92 ef3d dd70 8a3e
00000170: 8623 e1bc baad ec3d b097 003d dcc8 703d
00000180: 0d6b 57bc 0be1 db3d bf4b 09bc 15ae de3c
00000190: 3aa1 ea3d b868 92be a41a 443c e6c5 fd3d
000001a0: 634d c0be a9f3 78be 16a3 1b3e ba8d c33d
000001b0: 05f7 423d 267f 2bbe 362e 3ebe 35c3 9abd
000001c0: a94c 8e3d 6cf7 dbbd 0ee0 b5bd e24d 243e
000001d0: 018c c53e 2be3 1dbe 1c33 83bd f64d c03d
000001e0: bb3d bb3e 314d 9ebe c8df 913c 6a69 debd
000001f0: 6cd3 09be 4c85 e23c 77a5 47be ecf1 af3d
00000200: 9cc2 23bd 4362 c63c f2f4 293e 4b9d 903e
00000210: 59ad 723c 5f3b 133d cb4f 113e 9279 ad3e
00000220: dbe4 873c a301 eb3d 0eb8 31be 351e 4c3d
00000230: 0d2e c63e d7d6 bfbc 07a7 c6bd 9f63 20bd
00000240: 334a 363d 0bfa 333d 873a 82be 6e3d 1a3d
00000250: c7af 1fbe 62a5 f13b 0440 d93c 0cda e73d
00000260: f3fc 48be 317d 873e 3879 2c3d 6aad 7dbe
00000270: 6874 0ebd dd97 c23c 6930 9a3e fc80 153f
00000280: 6e08 d1bd 01c1 aebc 9d46 d0be c8bf 19bf
00000290: 9b4a 85bc a3b4 cdbd c2cf 8c3c 6997 5cbe
000002a0: 2c66 323e b262 c73d ba21 dcbe a242 9b3e
000002b0: cb57 bd3c 7743 abbd 7d47 193e c1d8 96bd
000002c0: 73f7 e1bc 2807 023e 761c 1c3f 3682 233e
000002d0: d4e2 72bc 93bc ecbe 6463 debe 6e5b e4be
000002e0: c44a a03d a9a2 e0be fda2 c5be fe66 193e
000002f0: 50d3 a93e 7e72 5dbe 9083 b03d 3233 673e
00000300: a680 353e 80d7 7a3e 259c e6bd 101a 3e3b
00000310: 8e2f c13e 100d b0bd 5317 fe3e ac20 abbe
00000320: c039 123e f013 d33e 8abd 523e 8ed9 963e
00000330: 797b d4bd 5243 f13c f7b1 88bd 238f b13e
00000340: 32b5 3c3d a53c d63c cd7e 1a3e 8bb6 34be
00000350: b020 033e b474 363e 6061 6dbe fdca acbc
00000360: 781f 693d 74c4 a0be c906 b5bd acea 343e
00000370: 4ba5 033e 51ca 96b7 f369 20be 150a 2e3e
00000380: e0a4 83be b634 f43d ee03 08be cbec d43d
00000390: d0ea adbb 7377 49be bc5b db3d 0faa 27be
000003a0: 155c 0dbe f911 073e 0365 8fbd 1b4b c4bd
000003b0: a600 05be ed3b 9c3e 2f5e 993d 2810 11be
000003c0: ee34 963e a228 0c3e 13e6 8abd 4c96 1cbc
000003d0: 1604 b93e 84de c43e ee89 b5bd 6c20 873e
000003e0: fecb b33d 8367 bc3d fabb 62bd 7229 80be
000003f0: 31bc 6abe ecb2 8dbe dbda 303e 179c 96be

weight_ih_l0_reverse f4 [200, 100]
-0.37483504 -0.03675945 -0.46651033 -0.08324353 -0.07543883 -0.059132125 0.31178984 -0.12625471
-0.38114384 0.50599784 0.3293177 -0.103052884 -0.21776126 -0.021647878 0.03055386 0.17044118
-0.08221565 -0.007328089 0.19328842 -0.1260715 0.02168988 0.22765052 -0.028654926 0.013454101
0.030432764 -0.4473103 0.10647265 0.104092576 0.1976701 0.05982966 0.25172934 0.21997958
-0.06319135 0.31346652 -0.40451798 0.06265775 0.11825003 0.14241795 0.058167238 0.08310686
-0.161166 0.10528357 -0.24041395 0.46547696 0.062262446 0.00077908667 -0.10413572 0.059451874
-0.07050651 0.24103154 -0.01812058 0.022749875 -0.1473975 0.12152686 0.026604129 -0.30460468
-0.30732426 0.012374917 0.09030871 -0.15752667 0.31064296 -0.3472884 -0.40465215 0.10839294
-0.42587852 -0.27067348 0.33092123 0.019999368 -0.10794229 -0.3682642 0.45177177 -0.11540715
-0.32428703 -0.23512772 0.20412989 0.26985672 0.2571999 -0.044447843 0.08918301 -0.47077346
0.020716364 -0.01911765 -0.17912196 0.33336788 0.20806815 0.07287643 -0.23309964 0.04374216
-0.016660301 -0.014733965 -0.21588601 0.08018058 0.038402367 -0.0078909565 0.030047178 -0.03408898
0.17468359 0.30549636 -0.08014722 0.46760076 0.18160513 0.12181257 -0.3557085 -0.28018364
0.45201546 -0.18538967 -0.40246 -0.02462891 0.21424982 -0.48076072 -0.1617169 0.1399011
-0.028023317 0.086034514 0.090757504 0.16392924 -0.062019177 -0.84767586 -0.6217082 0.07012843
-0.14114302 0.15979242 -0.10998042 -0.23529051 0.21838263 0.21434264 0.029682007 0.32853657
-0.2290939 -0.11803891 -0.25856334 -0.41256872 -0.40456417 -0.67815006 0.23339707 0.17085943
0.104703724 -0.41139874 -0.40139553 -0.8790035 -0.4624501 -0.30523604 -0.123305954 0.18866344
0.27478844 0.1152636 -0.038594328 -0.18913892 0.21243645 -0.14472724 0.2501959 -0.10087731
0.2640307 -0.538738 0.31483522 0.47034177 -0.03558429 0.04649061 0.31980342 0.11334651
0.4005793 -0.33186424 0.7052963 -0.15496917 0.26009053 0.17335038 0.38234165 0.52401835
0.12667023 -0.24107297 -0.5640302 0.4171141 0.7359823 0.3375364 -0.53916585 0.1355725
-0.26354778 1.0028019 -0.6035556 0.11645559 0.58195215 0.016225243 0.23531896 -0.19644053
-0.49972475 0.3314886 0.08181382 0.16565296 0.6447793 -0.15098634 -0.27893275 -0.041249122
0.09876254 0.47599497 -0.11216188 0.34747598 -0.44894058 0.16834196 0.20248361 0.38816857
-0.02708526 -0.45277637 -0.32219902 0.5018207 0.029079815 -0.08937686 0.38605246 -0.11672819
0.08849292 0.38984978 -0.12913115 -0.3879009 -0.12044323 0.046903454 0.42560607 -0.39090356
-0.14208461 -0.21860479 0.070137724 0.46850896 -0.35732546 0.0008904086 0.053261552 -0.12541243
0.11462021 -0.092925936 -0.17336722 -0.14917251 -0.6089608 -0.16597576 0.47502735 0.7493706
-0.022479625 -0.015144864 -0.26937166 -0.28587514 0.11174584 0.02527057 0.07154097 -0.25513968
-0.2400998 0.18638882 0.3335652 0.09791667 0.06522473 0.5270489 -0.05341582 0.244737
0.65557045 -0.030909434 -0.45840085 -0.24708456 0.18185858 -0.20887363 -0.28557724 -0.28521624
00000000: 61ea bfbe 1491 16bd 71da eebe 957b aabd
00000010: ac7f 9abd 8734 72bd eba2 9f3e ea48 01be
00000020: 4925 c3be 1389 013f 549c a83e 640d d3bd
00000030: cffc 5ebe e456 b1bc 174c fa3c 2288 2e3e
00000040: ae60 a8bd 7720 f0bb 66ed 453e e318 01be
00000050: faae b13c 381d 693e bcbd eabc 976e 5c3c
00000060: 224e f93c db05 e5be 550e da3d 7d2e d53d
00000070: 086a 4a3e f20f 753d abe2 803e 5442 613e
00000080: 776a 81bd af7e a03e fb1c cfbe b552 803d
00000090: 122d f23d 03d6 113e c540 6e3d ee33 aa3d
000000a0: b308 25be ea9e d73d 132f 76be ff52 ee3e
000000b0: e806 7f3d 9f3b 4c3a 1c45 d5bd cf83 733d
000000c0: b865 90bd f9d0 763e 9c71 94bc f25d ba3c
000000d0: 5fef 16be 13e3 f83d e7f0 d93c 25f5 9bbe
000000e0: 9b59 9dbe 2ac0 4a3c c6f3 b83d ac4e 21be
000000f0: 980c 9f3e c9cf b1be 912e cfbe 1efd dd3d
00000100: c00c dabe b795 8abe 826e a93e b7d5 a33c
00000110: d910 ddbd 208d bcbe a14e e73e 955a ecbd
00000120: f308 a6be 52c5 70be 6d07 513e a92a 8a3e
00000130: b5af 833e f10e 36bd 95a5 b63d 3809 f1be
00000140: 5db5 a93c 9e9c 9cbc bf6b 37be 32af aa3e
00000150: d10f 553e 3d40 953d acb1 6ebe fb2a 333d
00000160: 2f7b 88bc ba66 71bc 3911 5dbe b735 a43d
00000170: cd4b 1d3d 1249 01bc 8025 f63c e3a0 0bbd
00000180: 41e0 323e 056a 9c3e 3a24 a4bd 5e69 ef3e
00000190: b2f6 393e de78 f93d 6d1f b6be 3b74 8fbe
000001a0: 926e e73e cad6 3dbe 3d0f cebe 91c2 c9bc
000001b0: 4e64 5b3e 4526 f6be 1d99 25be 3c42 0f3e
000001c0: 2891 e5bc dd32 b03d 12df b93d 11dd 273e
000001d0: d207 7ebd 4901 59bf 4528 1fbf 7f9f 8f3d
000001e0: cc87 10be a0a0 233e 6a3d e1bd ffef 70be
000001f0: b29f 5f3e a37c 5b3e ae27 f33c f235 a83e
00000200: 9797 6abe 62be f1bd 6a62 84be 353c d3be
00000210: 0923 cfbe 3e9b 2dbf a4ff 6e3e c6f5 2e3e
00000220: e86e d63d dba2 d2be b783 cdbe 6006 61bf
00000230: 42c6 ecbe e647 9cbe d587 fcbd fd30 413e
00000240: 12b1 8c3e 530f ec3d 1615 1ebd a2ad 41be
00000250: f188 593e 6133 14be ad19 803e c398 cebd
00000260: 082f 873e bcea 09bf 1532 a13e a3d0 f03e
00000270: d5c0 11bd f06c 3e3d 46bd a33e 3722 e83d
00000280: bb18 cd3e 1cea a9be 4c8e 343f 3db0 1ebe
00000290: 962a 853e c382 313e 49c2 c33e 1126 063f
000002a0: d7b5 013e d5db 76be 4864 10bf fb8f d53e
000002b0: 5669 3c3f 92d1 ac3e c606 0abf 84d3 0a3e
000002c0: bcef 86be d05b 803f 9f82 1abf 4580 ee3d
000002d0: d1fa 143f cdea 843c 74f7 703e b527 49be
000002e0: ecdb ffbe e0b8 a93e 018e a73d eea0 293e
000002f0: 4210 253f 2a9c 1abe 46d0 8ebe d7f4 28bd
00000300: 0444 ca3d 9db5 f33e 21b5 e5bd 5fe8 b13e
00000310: 8adb e5be d661 2c3e dd57 4f3e 08be c63e
00000320: e8e1 ddbc 4ed2 e7be 45f7 a4be 5277 003f
00000330: cb38 ee3c 370b b7bd aba8 c53e 300f efbd
00000340: c73b b53d 649a c73e f53a 04be f29a c6be
00000350: f1aa f6bd d61d 403d 0ae9 d93e 8324 c8be
00000360: a17e 11be efd9 5fbe 5ea4 8f3d 68e0 ef3e
00000370: 5df3 b6be 4f6a 693a c928 5a3d 1e6c 00be
00000380: 00be ea3d f44f bebd 2d87 31be aec0 18be
00000390: dbe4 1bbf 8df5 29be c936 f33e c0d6 3f3f
000003a0: 3127 b8bc 2a22 78bc 15eb 89be 3a5e 92be
000003b0: 01db e43d 3a04 cf3c 1284 923d aba1 82be
000003c0: b9dc 75be b6dc 3e3e 0fc9 aa3e 8988 c83d
000003d0: 8b94 853d adec 063f 8cca 5abd 569c 7a3e
000003e0: 77d3 273f c835 fdbc 84b3 eabe bc03 7dbe
000003f0: 2339 3a3e f8e2 55be 2e37 92be dd07 92be

weight_ih_l0 f4 [200, 100]
0.05333878 -0.1931843 -0.30239698 -0.14137055 0.0072910264 -0.3045061 0.004811655 -0.06610403
0.18551542 -0.028787794 0.22600244 -0.09599614 0.39511633 0.1442351 -0.22444625 -0.40136886
-0.21683086 -0.02123503 -0.098456174 0.010807887 0.08172744 -0.28430903 -0.053603567 -0.04435227
0.38855156 0.07155278 -0.13992444 0.030320708 -0.09680529 -0.08191955 0.20039831 -0.018743023
-0.13990812 0.06266121 0.101170294 -0.32755694 -0.25770536 0.061061352 -0.18749954 -0.021889174
0.05526107 0.17305571 -0.1580314 -0.030073652 -0.06518618 0.085452676 0.26829427 -0.11537652
0.017519124 0.29265597 0.1446749 0.10290007 -0.18921165 -0.1792768 0.1507442 0.11695754
0.4036441 0.21674323 0.12135282 -0.3017474 0.19780886 -0.36143956 -0.018038256 0.21788555
-0.000803501 0.57385945 0.70549315 -0.2715268 -0.06497058 -0.34929663 -0.109200284 0.40560162
0.23447685 0.36179847 0.12979373 -0.0227225 -0.29616603 0.3799556 -0.15741839 -0.47729877
0.3086484 -0.12646568 0.2469729 -0.06968489 0.27323952 0.16967367 0.21461082 0.49447066
0.3419952 0.15550864 0.06498738 -0.14602414 -0.53884876 0.53512675 0.5932228 0.62403655
-0.091876164 0.43039826 0.09333353 0.23002383 0.107238844 -0.051212516 -0.15125856 0.08032953
-0.21138313 0.22100744 -0.1615805 0.18939024 -0.122364506 0.11695998 -0.023160959 0.15762906
0.06809511 -0.17490865 0.058748875 0.2752504 0.23620197 -0.14058602 0.36841398 -0.31355953
0.27119055 0.23893464 0.2631463 0.016139576 0.05758737 0.15892164 0.17324115 0.39259145
-0.24117808 -0.03178345 0.025946522 0.3611511 0.09516464 0.081221275 0.032263663 -0.24848364
-0.009281884 0.11570284 -0.042878956 0.26048547 -0.08311341 0.18567936 0.42394987 0.48047134
0.009047498 -0.10852503 0.06838793 0.16439758 0.045779567 0.2785875 0.096565016 -0.2991842
-0.1422952 0.20910011 0.17520852 -0.38964266 0.1387999 0.13506858 -0.00026111671 -0.305067
0.067557946 -0.23465566 -0.12105571 -0.4063059 0.5121306 0.08432044 0.20975661 -0.16597939
-0.58913034 -0.074130565 -0.06301592 0.19010392 0.458721 0.5590214 0.27156538 0.045599513
0.008742393 0.2941721 0.05166943 -0.06468542 -0.11844219 -0.10075997 0.03279924 -0.10380765
0.1291885 0.10348011 0.23589125 0.2608037 0.5498463 -0.46383566 -0.028891228 0.063380934
-0.18834527 0.14976457 -0.19817482 0.17868544 -0.6234318 0.27989674 -0.06980335 -0.015971152
0.3027145 0.18195878 0.013988655 0.42536187 0.091970466 -0.05909482 -0.27795446 -0.36923847
0.22098519 0.23360683 -0.28274098 -0.42106798 0.10146488 0.025439687 0.24562305 -0.04182055
-0.4978681 0.060892668 -0.12816012 0.13688286 -0.11030312 0.38932124 0.3473997 -0.03759361
-0.032374088 -0.2568467 0.19168542 -0.36218527 -0.3233125 -0.11561835 -0.0018677188 -0.018157654
0.06689656 -0.08419249 -0.023395143 0.10928515 0.047942195 0.0789991 0.11559266 -0.19804744
-0.27415442 -0.1662786 0.13184479 0.58737457 -0.1470471 -0.009316172 -0.0585335 0.16398579
-0.24548128 0.16856626 0.046118587 0.47460186 0.062010624 0.13444623 -0.18396509 0.059215207
00000000: c479 5a3d 1bd2 45be c7d3 9abe 71c3 10be
00000010: 90e9 ee3b 39e8 9bbe 16ab 9d3b 8d61 87bd
00000020: c1f7 3d3e 61d4 ebbc 2f6d 673e a099 c4bd
00000030: b04c ca3e 5eb2 133e 3dd5 65be 3880 cdbe
00000040: e908 5ebe 16f5 adbc 64a3 c9bd 9013 313c
00000050: b760 a73d f490 91be 6a8f 5bbd baaa 35bd
00000060: 3bf0 c63e 448a 923d 5a48 0fbe 2263 f83c
00000070: da41 c6bd 70c5 a7bd 3735 4d3e f88a 99bc
00000080: 1344 0fbe 8554 803d 5f32 cf3d 8bb5 a7be
00000090: f5f1 83be 781b 7a3d e1ff 3fbe ed50 b3bc
000000a0: 6f59 623d 8435 313e fcd2 21be 055d f6bc
000000b0: 5580 85bd d001 af3d de5d 893e 864a ecbd
000000c0: 4484 8f3c 01d7 953e a825 143e 46bd d23d
000000d0: b3c0 41be 5694 37be b05c 1a3e 6f87 ef3d
000000e0: 71aa ce3e f0f1 5d3e d487 f83d a37e 9abe
000000f0: 688e 4a3e 9b0e b9be f7c4 93bc 641d 5f3e
00000100: 0aa2 52ba 74e8 123f 339b 343f 9005 8bbe
00000110: 4c0f 85bd 02d7 b2be 66a4 dfbd 04ab cf3e
00000120: b31a 703e a63d b93e a6e8 043e 8924 babc
00000130: 13a3 97be 8a89 c23e 4932 21be 8160 f4be
00000140: 2a07 9e3e 3880 01be 77e6 7c3e f4b6 8ebd
00000150: 0de6 8b3e efbe 2d3e f0c2 5b3e 422b fd3e
00000160: ff19 af3e a83d 1f3e 1a18 853d 5a87 15be
00000170: fef1 09bf 11fe 083f 73dd 173f dcc0 1f3f
00000180: 9229 bcbd 295d dc3e a625 bf3d 5e8b 6b3e
00000190: 0aa0 db3d 37c4 51bd 86e3 1abe cf83 a43d
000001a0: d274 58be c64f 623e 5c75 25be 84ef 413e
000001b0: 3e9a fabd b788 ef3d 0dbc bdbc 8369 213e
000001c0: 7375 8b3d 411b 33be a9a2 703d 9fed 8c3e
000001d0: eede 713e c8f5 0fbe c2a0 bc3e e08a a0be
000001e0: 7dd9 8a3e 48ab 743e 1dbb 863e 2537 843c
000001f0: bce0 6b3d 5bbc 223e 2166 313e bf01 c93e
00000200: 63f7 76be 5d2f 02bd cd8d d43c cce8 b83e
00000210: aee5 c23d 5757 a63d e726 043d 7f72 7ebe
00000220: 0b13 18bc 9cf5 ec3d d8a1 2fbd 5a5e 853e
00000230: 5d37 aabd bb22 3e3e f50f d93e 5700 f63e
00000240: f53b 143c 5f42 debd f90e 8c3d d757 283e
00000250: 5b83 3b3d 05a3 8e3e e1c3 c53d ac2e 99be
00000260: d5b5 11be 571e 563e dd69 333e 3e7f c7be
00000270: 9021 0e3e 6b4f 0a3e 7ee6 88b9 be31 9cbe
00000280: d25b 8a3d 9349 70be 0eec f7bd 5407 d0be
00000290: fe1a 033f 32b0 ac3d 70ca 563e 80f6 29be
000002a0: 3fd1 16bf c4d1 97bd 7e0e 81bd 9aaa 423e
000002b0: 7bdd ea3e 071c 0f3f 9e0a 8b3e 8ec6 3a3d
000002c0: 413c 0f3c ba9d 963e 53a3 533d ca79 84bd
000002d0: d291 f2bd 3e5b cebd 7f58 063d 1b99 d4bd
000002e0: fd49 043e 61ed d33d 7a8d 713e 1088 853e
000002f0: bac2 0c3f de7b edbe 4cad ecbc ddcd 813d
00000300: 95dd 40be e25b 193e 57ee 4abe 51f9 363e
00000310: 3a99 1fbf a04e 8f3e 0ff5 8ebd efd5 82bc
00000320: 65fd 9a3e 6753 3a3e ac30 653c 08c9 d93e
00000330: 035b bc3d 690d 72bd 0c50 8ebe d30c bdbe
00000340: f149 623e a136 6f3e 6dc3 90be 3996 d7be
00000350: d2cc cf3d e466 d03c 9c84 7b3e 064c 2bbd
00000360: 91e8 febe 976a 793d 683c 03be 052b 0c3e
00000370: 9ae6 e1bd 1d55 c73e 60de b13e c2fb 19bd
00000380: b19a 04bd 6981 83be 2f49 443e 5970 b9be
00000390: 3789 a5be 50c9 ecbd 3ece f4ba 5cbf 94bc
000003a0: 1001 893d 1d6d acbd 2ca7 bfbc e5d0 df3d
000003b0: 095f 443d 48ca a13d d8bb ec3d f3cc 4abe
000003c0: f85d 8cbe f044 2abe 5202 073e 2e5e 163f
000003d0: 8493 16be dca2 18bc d3c0 6fbd e4eb 273e
000003e0: 725f 7bbe a29c 2c3e d8e6 3c3d 04ff f23e
000003f0: dafe 7d3d 46ac 093e 5861 3cbe a58b 723d
