data/de/ts_cpu.pt (torch, 373659 bytes, 10 tensors)

weight f4 [129, 25]
00000000: 00a0 47bf 0060 16bd 0020 733f 0000 f5be
00000010: 00a0 1dbf 0040 4d3e 0020 efbf 00c0 e8bd
00000020: 00a0 693f 0080 8cbe 00c0 dd3e 0020 69be
00000030: 0020 98bf 00a0 93bf 0020 b5be 0020 f53e
00000040: 0080 a4bf 00e0 8f3e 00c0 91be 0040 633e
00000050: 0060 babd 00e0 7abf 0060 a1bd 0080 1ebf
00000060: 00c0 e5bf 00a0 2c3f 0060 f4bf 0040 a2be
00000070: 00c0 27be 0060 fd3e 0040 613e 00e0 bdbe
00000080: 0060 ab3f 0000 01bf 00a0 5f3f 0000 0ebe
00000090: 00e0 ae3e 00a0 8fbd 0020 203f 0000 283f
000000a0: 00e0 713f 00e0 9e3e 0040 c43e 00a0 e63d
000000b0: 0060 40bf 0020 bc3e 00e0 003f 0000 87bf
000000c0: 0060 0dbe 0040 713f 0000 00b4 0000 00b4
000000d0: 0000 00b4 0000 80b3 0000 8033 0000 80b3
000000e0: 0000 8034 0000 00b4 0000 00b4 0000 4034
000000f0: 0000 8033 0000 00b4 0000 0034 0000 0080
00000100: 0000 80b3 0000 80b3 0000 8033 0000 00b4
00000110: 0000 0034 0000 40b4 0000 40b4 0000 80b3
00000120: 0000 00b4 0000 80b3 0000 80b3 0000 0080
00000130: 0000 0034 0000 80b3 0000 40b4 0000 c034
00000140: 0000 4034 0000 8033 0000 80b3 0000 0080
00000150: 0000 a0b4 0000 a0b4 0000 80b3 0000 8033
00000160: 0000 8033 0000 80b3 0000 00b4 0000 80b3
00000170: 0000 8033 0000 0000 0000 a0b4 0000 8034
00000180: 0000 0034 0000 0000 0000 0034 0000 80b3
00000190: 0000 8033 0000 80b3 0000 4034 0000 4034
000001a0: 0000 80b3 0000 80b3 0000 0034 0000 00b4
000001b0: 0000 80b3 0000 0080 0000 0080 0000 00b4
000001c0: 0000 00b4 0000 8033 0000 80b3 0000 8033
000001d0: 0000 0080 0000 80b3 0000 8033 0000 0000
000001e0: 0000 0034 0000 40b4 0000 0000 0000 80b3
000001f0: 0000 0034 0000 0080 0000 0034 0000 8033
00000200: 0000 40b4 0000 00b4 0000 80b3 0000 00b4
00000210: 0000 0000 0000 80b4 0000 0034 0000 00b4
00000220: 0000 40b4 0000 0034 0000 80b3 0000 8033
00000230: 0000 8033 0000 8033 0000 a034 0000 0000
00000240: 0000 8033 0000 8033 0000 0034 0000 8033
00000250: 0000 0000 0000 80b3 0000 40b4 0000 8033
00000260: 0000 0034 0000 80b3 0000 8033 0000 8033
00000270: 0000 8033 0000 8033 0000 0080 0000 0080
00000280: 0000 0000 0000 0034 0000 0034 0000 80b3
00000290: 0000 00b4 0000 80b3 0000 0000 0000 00b4
000002a0: 0000 80b3 0000 a034 0000 0034 0000 80b3
000002b0: 0000 80b3 0000 8033 0000 8033 0000 0080
000002c0: 0000 80b3 0000 80b3 0000 8033 0000 0000
000002d0: 0000 80b3 0000 8033 0000 a034 0000 8033
000002e0: 0000 80b3 0000 80b3 0000 0000 0000 80b3
000002f0: 0000 8033 0000 00b4 0000 0034 0000 00b4
00000300: 0000 00b4 0000 8033 0000 80b3 0000 80b3
00000310: 0000 80b3 0000 00b4 0000 80b3 0000 00b4
00000320: 0000 0034 0000 0000 0000 8034 0000 e0b4
00000330: 0000 0034 0000 0034 0000 8033 0000 8033
00000340: 0000 40b4 0000 8033 0000 40b4 0000 00b4
00000350: 0000 80b3 0000 80b3 0000 0000 0000 8033
00000360: 0000 0080 0000 0000 0000 80b3 0000 80b3
00000370: 0000 80b3 0000 4034 0000 4034 0000 0080
00000380: 0000 80b3 0000 8033 0000 40b4 0000 00b4
00000390: 0000 0000 0000 0034 0000 0080 0000 8034
000003a0: 0000 0080 0000 4034 0000 8033 0000 80b3
000003b0: 0000 8033 0000 00b4 0000 80b3 0000 80b3
000003c0: 0000 0000 0000 80b3 0000 40b4 0000 0080
000003d0: 0000 8033 0000 0034 0000 0000 0000 0080
000003e0: 0000 00b4 0000 80b4 0000 8033 0000 0034
000003f0: 0000 0034 0000 80b3 0000 0034 0000 0034
-0.77978516 -0.036712646 0.94970703 -0.47851562 -0.61572266 0.20043945 -1.8681641 -0.11364746
0.91259766 -0.27441406 0.43310547 -0.22766113 -1.1884766 -1.1533203 -0.35375977 0.47875977
-1.2851562 0.28100586 -0.28466797 0.22192383 -0.09100342 -0.97998047 -0.07879639 -0.6191406
-1.7949219 0.6743164 -1.9091797 -0.31689453 -0.16381836 0.49487305 0.2199707 -0.3708496
1.3388672 -0.50390625 0.87353516 -0.13867188 0.34155273 -0.070129395 0.6254883 0.65625
0.9448242 0.31030273 0.38330078 0.11260986 -0.75146484 0.36743164 0.50341797 -1.0546875
-0.13806152 0.9423828 -1.1920929e-07 -1.1920929e-07 -1.1920929e-07 -5.9604645e-08 5.9604645e-08 -5.9604645e-08
2.3841858e-07 -1.1920929e-07 -1.1920929e-07 1.7881393e-07 5.9604645e-08 -1.1920929e-07 1.1920929e-07 -0.0
-5.9604645e-08 -5.9604645e-08 5.9604645e-08 -1.1920929e-07 1.1920929e-07 -1.7881393e-07 -1.7881393e-07 -5.9604645e-08
-1.1920929e-07 -5.9604645e-08 -5.9604645e-08 -0.0 1.1920929e-07 -5.9604645e-08 -1.7881393e-07 3.5762787e-07
1.7881393e-07 5.9604645e-08 -5.9604645e-08 -0.0 -2.9802322e-07 -2.9802322e-07 -5.9604645e-08 5.9604645e-08
5.9604645e-08 -5.9604645e-08 -1.1920929e-07 -5.9604645e-08 5.9604645e-08 0.0 -2.9802322e-07 2.3841858e-07
1.1920929e-07 0.0 1.1920929e-07 -5.9604645e-08 5.9604645e-08 -5.9604645e-08 1.7881393e-07 1.7881393e-07
-5.9604645e-08 -5.9604645e-08 1.1920929e-07 -1.1920929e-07 -5.9604645e-08 -0.0 -0.0 -1.1920929e-07
-1.1920929e-07 5.9604645e-08 -5.9604645e-08 5.9604645e-08 -0.0 -5.9604645e-08 5.9604645e-08 0.0
1.1920929e-07 -1.7881393e-07 0.0 -5.9604645e-08 1.1920929e-07 -0.0 1.1920929e-07 5.9604645e-08
-1.7881393e-07 -1.1920929e-07 -5.9604645e-08 -1.1920929e-07 0.0 -2.3841858e-07 1.1920929e-07 -1.1920929e-07
-1.7881393e-07 1.1920929e-07 -5.9604645e-08 5.9604645e-08 5.9604645e-08 5.9604645e-08 2.9802322e-07 0.0
5.9604645e-08 5.9604645e-08 1.1920929e-07 5.9604645e-08 0.0 -5.9604645e-08 -1.7881393e-07 5.9604645e-08
1.1920929e-07 -5.9604645e-08 5.9604645e-08 5.9604645e-08 5.9604645e-08 5.9604645e-08 -0.0 -0.0
0.0 1.1920929e-07 1.1920929e-07 -5.9604645e-08 -1.1920929e-07 -5.9604645e-08 0.0 -1.1920929e-07
-5.9604645e-08 2.9802322e-07 1.1920929e-07 -5.9604645e-08 -5.9604645e-08 5.9604645e-08 5.9604645e-08 -0.0
-5.9604645e-08 -5.9604645e-08 5.9604645e-08 0.0 -5.9604645e-08 5.9604645e-08 2.9802322e-07 5.9604645e-08
-5.9604645e-08 -5.9604645e-08 0.0 -5.9604645e-08 5.9604645e-08 -1.1920929e-07 1.1920929e-07 -1.1920929e-07
-1.1920929e-07 5.9604645e-08 -5.9604645e-08 -5.9604645e-08 -5.9604645e-08 -1.1920929e-07 -5.9604645e-08 -1.1920929e-07
1.1920929e-07 0.0 2.3841858e-07 -4.172325e-07 1.1920929e-07 1.1920929e-07 5.9604645e-08 5.9604645e-08
-1.7881393e-07 5.9604645e-08 -1.7881393e-07 -1.1920929e-07 -5.9604645e-08 -5.9604645e-08 0.0 5.9604645e-08
-0.0 0.0 -5.9604645e-08 -5.9604645e-08 -5.9604645e-08 1.7881393e-07 1.7881393e-07 -0.0
-5.9604645e-08 5.9604645e-08 -1.7881393e-07 -1.1920929e-07 0.0 1.1920929e-07 -0.0 2.3841858e-07
-0.0 1.7881393e-07 5.9604645e-08 -5.9604645e-08 5.9604645e-08 -1.1920929e-07 -5.9604645e-08 -5.9604645e-08
0.0 -5.9604645e-08 -1.7881393e-07 -0.0 5.9604645e-08 1.1920929e-07 0.0 -0.0
-1.1920929e-07 -2.3841858e-07 5.9604645e-08 1.1920929e-07 1.1920929e-07 -5.9604645e-08 1.1920929e-07 1.1920929e-07

cpu f4 [512]
00000000: 0000 833e 00c0 ed3d 0080 a13e 00e0 72be
00000010: 0000 863e 0080 2ebd 0020 a3bd 0040 e53d
00000020: 0080 10bd 0020 e03c 0060 23bf 00a0 7f3d
00000030: 0040 783d 0080 133e 00e0 a2bd 0020 d63d
00000040: 0060 123d 00e0 483e 00e0 fb3d 0040 733e
00000050: 0060 b03d 00e0 b43e 0080 22bd 0020 9e3c
00000060: 0000 c73d 00e0 823e 00c0 2c3e 00c0 583d
00000070: 0040 9fbd 0020 7ebe 0040 2f3f 0060 a03e
00000080: 0060 e73d 0000 d43d 0080 2c3e 0080 6b3e
00000090: 00e0 a0bc 0000 033e 00a0 073d 00a0 d5bb
000000a0: 0080 af3d 0040 4a3e 0060 3fbd 00a0 db3d
000000b0: 00e0 aebb 00e0 043e 0080 7c3e 00c0 863d
000000c0: 00c0 c93d 0060 e2be 0000 3dbe 0040 743d
000000d0: 00c0 fa3d 0020 e43d 0080 74be 0040 003e
000000e0: 0060 d4bb 0000 ec3d 00c0 113e 00c0 c83d
000000f0: 0040 f2be 0000 d8bd 0060 2c3e 0020 fc3e
00000100: 0000 953d 00c0 473e 0060 973c 0060 743e
00000110: 0040 e23c 0080 093e 00a0 fdbc 0060 d83d
00000120: 0020 32bf 00e0 9d3c 0060 d2bd 0080 c1bd
00000130: 0020 a23d 00e0 a3bd 0040 973c 00e0 193e
00000140: 0040 673e 0020 163e 0000 163e 0080 1abe
00000150: 00a0 963c 0040 3f3e 0040 1b3c 0000 6d3e
00000160: 0060 cf3d 0080 f23d 00e0 3d3e 00c0 29be
00000170: 00e0 653d 0080 56be 0060 20be 0080 8ebe
00000180: 00a0 393e 0040 34bd 0020 5c3d 0080 a7be
00000190: 0000 943e 0060 d4bd 00a0 a13e 00c0 f73d
000001a0: 00e0 4f3d 00a0 493e 00c0 36bd 0060 2e3d
000001b0: 00e0 02bd 00c0 55bc 0080 833e 00e0 cdbd
000001c0: 0000 0f3d 0020 953d 00e0 0e3e 00c0 14bf
000001d0: 0060 173e 0000 983d 0000 253e 0000 4b3d
000001e0: 00e0 eabd 00e0 2dbe 0000 b23d 0000 ed3d
000001f0: 0000 d1bc 00c0 743d 0040 49bf 00c0 5c3e
00000200: 0000 8ebe 0060 86bd 0080 22bd 0080 433e
00000210: 00a0 98be 0040 61be 0000 d7bd 0000 58be
00000220: 0000 3dbe 00a0 e4bd 0080 973e 0040 8bbe
00000230: 0040 a2bd 00e0 4abe 0000 2cbe 00e0 7dbd
00000240: 00a0 6cbe 00e0 a1be 00c0 4ebd 0000 3fbe
00000250: 0040 48be 00e0 a93d 00c0 493c 0040 77be
00000260: 00c0 74bd 0000 2abe 0000 23be 0000 4dbe
00000270: 00c0 70bd 00c0 043e 0060 cbbe 0020 5fbe
00000280: 0040 5fbe 00c0 25be 0060 5dbe 0040 a63e
00000290: 0000 26be 00c0 11be 0020 8f3d 00e0 e33c
000002a0: 00c0 31be 00e0 8fbd 00a0 77be 00e0 8c3d
000002b0: 00a0 50bd 0080 983c 0020 65be 0040 3ebe
000002c0: 00a0 06bc 0060 ab3e 00c0 443e 00a0 43be
000002d0: 0000 0ebe 0040 3abd 0060 ac3d 00c0 4abd
000002e0: 0020 b93c 00e0 a0bc 0020 52be 00e0 e8bc
000002f0: 00e0 b83e 0080 aabe 0080 92be 00e0 84be
00000300: 0000 37be 00a0 ecbd 00e0 00be 0000 60bd
00000310: 00c0 92bd 00e0 113e 0080 c93e 0060 eebb
00000320: 0020 653f 00a0 d6bd 0060 32be 00c0 c83b
00000330: 0000 6ebe 0040 3ebe 0040 9ebb 0060 4bbe
00000340: 00c0 97be 0020 06be 0020 42be 00e0 e7bd
00000350: 0060 0dbe 00c0 06be 0000 febd 0040 d3bd
00000360: 0000 123d 0080 edbd 0000 debd 0020 93bd
00000370: 00e0 0fbe 00a0 bcbc 0040 87be 00c0 693d
00000380: 0080 5c3d 0040 f7bd 0020 d8bd 0020 a53e
00000390: 00e0 80be 0020 603d 0060 05be 00e0 efbd
000003a0: 0080 c5bd 0040 6bbd 00a0 10be 0060 91be
000003b0: 0060 1abe 00e0 92bd 0080 4bbd 00c0 29be
000003c0: 00c0 64be 0040 7cbe 0080 9abc 00c0 1d3f
000003d0: 0040 dcbd 00c0 d9bc 0040 b1bd 0040 85be
000003e0: 0060 713e 0040 febd 00c0 1cbe 0060 8fbe
000003f0: 0060 d13c 0020 d6bc 0080 3f3f 0080 3dbb
0.25585938 0.11608887 0.3154297 -0.23718262 0.26171875 -0.04260254 -0.07965088 0.11193848
-0.03527832 0.027359009 -0.6381836 0.062408447 0.06060791 0.14404297 -0.07952881 0.10455322
0.035736084 0.19616699 0.12298584 0.23754883 0.086120605 0.35327148 -0.03967285 0.019302368
0.09716797 0.25561523 0.16870117 0.05291748 -0.07775879 -0.24816895 0.6845703 0.31323242
0.112976074 0.103515625 0.16845703 0.22998047 -0.019638062 0.12792969 0.033111572 -0.0065193176
0.08569336 0.19750977 -0.046722412 0.10723877 -0.0053367615 0.12976074 0.24658203 0.0657959
0.09851074 -0.44213867 -0.18457031 0.059631348 0.12243652 0.11138916 -0.23876953 0.12524414
-0.0064811707 0.115234375 0.14233398 0.09802246 -0.47314453 -0.10546875 0.16833496 0.49243164
0.072753906 0.19506836 0.018478394 0.23864746 0.027618408 0.13427734 -0.030960083 0.105651855
-0.6958008 0.01927185 -0.10272217 -0.09448242 0.0791626 -0.08001709 0.018463135 0.15026855
0.22583008 0.14660645 0.14648438 -0.1508789 0.01838684 0.18676758 0.009475708 0.23144531
0.101257324 0.1184082 0.1854248 -0.16577148 0.056121826 -0.20947266 -0.15661621 -0.2783203
0.18127441 -0.044006348 0.053741455 -0.32714844 0.2890625 -0.10369873 0.31567383 0.12097168
0.050750732 0.19689941 -0.0446167 0.04257202 -0.031951904 -0.013046265 0.25683594 -0.1005249
0.03491211 0.07281494 0.13952637 -0.5810547 0.14782715 0.07421875 0.16113281 0.049560547
-0.11468506 -0.1697998 0.08691406 0.115722656 -0.025512695 0.059753418 -0.7861328 0.21557617
-0.27734375 -0.06561279 -0.03967285 0.19091797 -0.2980957 -0.2199707 -0.10498047 -0.2109375
-0.18457031 -0.1116333 0.29589844 -0.27197266 -0.07922363 -0.19812012 -0.16796875 -0.0619812
-0.2310791 -0.3161621 -0.050476074 -0.18652344 -0.19555664 0.08294678 0.012313843 -0.24145508
-0.059753418 -0.16601562 -0.15917969 -0.20019531 -0.058776855 0.12963867 -0.3972168 -0.21789551
-0.21801758 -0.16186523 -0.21618652 0.32470703 -0.16210938 -0.14233398 0.069885254 0.027816772
-0.17358398 -0.070251465 -0.24182129 0.06878662 -0.050933838 0.018615723 -0.22375488 -0.18579102
-0.008216858 0.3347168 0.19213867 -0.19104004 -0.13867188 -0.04547119 0.08416748 -0.04949951
0.022598267 -0.019638062 -0.2052002 -0.028427124 0.36108398 -0.3330078 -0.2861328 -0.25952148
-0.17871094 -0.11553955 -0.12585449 -0.0546875 -0.07165527 0.14245605 0.3935547 -0.0072746277
0.89501953 -0.10479736 -0.17419434 0.006126404 -0.23242188 -0.18579102 -0.0048294067 -0.1986084
-0.29638672 -0.13098145 -0.1895752 -0.113220215 -0.13806152 -0.1315918 -0.12402344 -0.103149414
0.03564453 -0.1159668 -0.10839844 -0.07183838 -0.14050293 -0.023025513 -0.26416016 0.05706787
0.053833008 -0.12072754 -0.105529785 0.32250977 -0.25170898 0.054718018 -0.13024902 -0.117126465
-0.09643555 -0.057434082 -0.14123535 -0.28393555 -0.15075684 -0.07171631 -0.049682617 -0.16577148
-0.22338867 -0.24633789 -0.018859863 0.61621094 -0.107543945 -0.02658081 -0.08654785 -0.2602539
0.23571777 -0.12414551 -0.15307617 -0.2800293 0.025558472 -0.026138306 0.7480469 -0.0028915405

cpu f4 [512]
00000000: 0000 833e 00c0 ed3d 0080 a13e 00e0 72be
00000010: 0000 863e 0080 2ebd 0020 a3bd 0040 e53d
00000020: 0080 10bd 0020 e03c 0060 23bf 00a0 7f3d
00000030: 0040 783d 0080 133e 00e0 a2bd 0020 d63d
00000040: 0060 123d 00e0 483e 00e0 fb3d 0040 733e
00000050: 0060 b03d 00e0 b43e 0080 22bd 0020 9e3c
00000060: 0000 c73d 00e0 823e 00c0 2c3e 00c0 583d
00000070: 0040 9fbd 0020 7ebe 0040 2f3f 0060 a03e
00000080: 0060 e73d 0000 d43d 0080 2c3e 0080 6b3e
00000090: 00e0 a0bc 0000 033e 00a0 073d 00a0 d5bb
000000a0: 0080 af3d 0040 4a3e 0060 3fbd 00a0 db3d
000000b0: 00e0 aebb 00e0 043e 0080 7c3e 00c0 863d
000000c0: 00c0 c93d 0060 e2be 0000 3dbe 0040 743d
000000d0: 00c0 fa3d 0020 e43d 0080 74be 0040 003e
000000e0: 0060 d4bb 0000 ec3d 00c0 113e 00c0 c83d
000000f0: 0040 f2be 0000 d8bd 0060 2c3e 0020 fc3e
00000100: 0000 953d 00c0 473e 0060 973c 0060 743e
00000110: 0040 e23c 0080 093e 00a0 fdbc 0060 d83d
00000120: 0020 32bf 00e0 9d3c 0060 d2bd 0080 c1bd
00000130: 0020 a23d 00e0 a3bd 0040 973c 00e0 193e
00000140: 0040 673e 0020 163e 0000 163e 0080 1abe
00000150: 00a0 963c 0040 3f3e 0040 1b3c 0000 6d3e
00000160: 0060 cf3d 0080 f23d 00e0 3d3e 00c0 29be
00000170: 00e0 653d 0080 56be 0060 20be 0080 8ebe
00000180: 00a0 393e 0040 34bd 0020 5c3d 0080 a7be
00000190: 0000 943e 0060 d4bd 00a0 a13e 00c0 f73d
000001a0: 00e0 4f3d 00a0 493e 00c0 36bd 0060 2e3d
000001b0: 00e0 02bd 00c0 55bc 0080 833e 00e0 cdbd
000001c0: 0000 0f3d 0020 953d 00e0 0e3e 00c0 14bf
000001d0: 0060 173e 0000 983d 0000 253e 0000 4b3d
000001e0: 00e0 eabd 00e0 2dbe 0000 b23d 0000 ed3d
000001f0: 0000 d1bc 00c0 743d 0040 49bf 00c0 5c3e
00000200: 0000 8ebe 0060 86bd 0080 22bd 0080 433e
00000210: 00a0 98be 0040 61be 0000 d7bd 0000 58be
00000220: 0000 3dbe 00a0 e4bd 0080 973e 0040 8bbe
00000230: 0040 a2bd 00e0 4abe 0000 2cbe 00e0 7dbd
00000240: 00a0 6cbe 00e0 a1be 00c0 4ebd 0000 3fbe
00000250: 0040 48be 00e0 a93d 00c0 493c 0040 77be
00000260: 00c0 74bd 0000 2abe 0000 23be 0000 4dbe
00000270: 00c0 70bd 00c0 043e 0060 cbbe 0020 5fbe
00000280: 0040 5fbe 00c0 25be 0060 5dbe 0040 a63e
00000290: 0000 26be 00c0 11be 0020 8f3d 00e0 e33c
000002a0: 00c0 31be 00e0 8fbd 00a0 77be 00e0 8c3d
000002b0: 00a0 50bd 0080 983c 0020 65be 0040 3ebe
000002c0: 00a0 06bc 0060 ab3e 00c0 443e 00a0 43be
000002d0: 0000 0ebe 0040 3abd 0060 ac3d 00c0 4abd
000002e0: 0020 b93c 00e0 a0bc 0020 52be 00e0 e8bc
000002f0: 00e0 b83e 0080 aabe 0080 92be 00e0 84be
00000300: 0000 37be 00a0 ecbd 00e0 00be 0000 60bd
00000310: 00c0 92bd 00e0 113e 0080 c93e 0060 eebb
00000320: 0020 653f 00a0 d6bd 0060 32be 00c0 c83b
00000330: 0000 6ebe 0040 3ebe 0040 9ebb 0060 4bbe
00000340: 00c0 97be 0020 06be 0020 42be 00e0 e7bd
00000350: 0060 0dbe 00c0 06be 0000 febd 0040 d3bd
00000360: 0000 123d 0080 edbd 0000 debd 0020 93bd
00000370: 00e0 0fbe 00a0 bcbc 0040 87be 00c0 693d
00000380: 0080 5c3d 0040 f7bd 0020 d8bd 0020 a53e
00000390: 00e0 80be 0020 603d 0060 05be 00e0 efbd
000003a0: 0080 c5bd 0040 6bbd 00a0 10be 0060 91be
000003b0: 0060 1abe 00e0 92bd 0080 4bbd 00c0 29be
000003c0: 00c0 64be 0040 7cbe 0080 9abc 00c0 1d3f
000003d0: 0040 dcbd 00c0 d9bc 0040 b1bd 0040 85be
000003e0: 0060 713e 0040 febd 00c0 1cbe 0060 8fbe
000003f0: 0060 d13c 0020 d6bc 0080 3f3f 0080 3dbb
0.25585938 0.11608887 0.3154297 -0.23718262 0.26171875 -0.04260254 -0.07965088 0.11193848
-0.03527832 0.027359009 -0.6381836 0.062408447 0.06060791 0.14404297 -0.07952881 0.10455322
0.035736084 0.19616699 0.12298584 0.23754883 0.086120605 0.35327148 -0.03967285 0.019302368
0.09716797 0.25561523 0.16870117 0.05291748 -0.07775879 -0.24816895 0.6845703 0.31323242
0.112976074 0.103515625 0.16845703 0.22998047 -0.019638062 0.12792969 0.033111572 -0.0065193176
0.08569336 0.19750977 -0.046722412 0.10723877 -0.0053367615 0.12976074 0.24658203 0.0657959
0.09851074 -0.44213867 -0.18457031 0.059631348 0.12243652 0.11138916 -0.23876953 0.12524414
-0.0064811707 0.115234375 0.14233398 0.09802246 -0.47314453 -0.10546875 0.16833496 0.49243164
0.072753906 0.19506836 0.018478394 0.23864746 0.027618408 0.13427734 -0.030960083 0.105651855
-0.6958008 0.01927185 -0.10272217 -0.09448242 0.0791626 -0.08001709 0.018463135 0.15026855
0.22583008 0.14660645 0.14648438 -0.1508789 0.01838684 0.18676758 0.009475708 0.23144531
0.101257324 0.1184082 0.1854248 -0.16577148 0.056121826 -0.20947266 -0.15661621 -0.2783203
0.18127441 -0.044006348 0.053741455 -0.32714844 0.2890625 -0.10369873 0.31567383 0.12097168
0.050750732 0.19689941 -0.0446167 0.04257202 -0.031951904 -0.013046265 0.25683594 -0.1005249
0.03491211 0.07281494 0.13952637 -0.5810547 0.14782715 0.07421875 0.16113281 0.049560547
-0.11468506 -0.1697998 0.08691406 0.115722656 -0.025512695 0.059753418 -0.7861328 0.21557617
-0.27734375 -0.06561279 -0.03967285 0.19091797 -0.2980957 -0.2199707 -0.10498047 -0.2109375
-0.18457031 -0.1116333 0.29589844 -0.27197266 -0.07922363 -0.19812012 -0.16796875 -0.0619812
-0.2310791 -0.3161621 -0.050476074 -0.18652344 -0.19555664 0.08294678 0.012313843 -0.24145508
-0.059753418 -0.16601562 -0.15917969 -0.20019531 -0.058776855 0.12963867 -0.3972168 -0.21789551
-0.21801758 -0.16186523 -0.21618652 0.32470703 -0.16210938 -0.14233398 0.069885254 0.027816772
-0.17358398 -0.070251465 -0.24182129 0.06878662 -0.050933838 0.018615723 -0.22375488 -0.18579102
-0.008216858 0.3347168 0.19213867 -0.19104004 -0.13867188 -0.04547119 0.08416748 -0.04949951
0.022598267 -0.019638062 -0.2052002 -0.028427124 0.36108398 -0.3330078 -0.2861328 -0.25952148
-0.17871094 -0.11553955 -0.12585449 -0.0546875 -0.07165527 0.14245605 0.3935547 -0.0072746277
0.89501953 -0.10479736 -0.17419434 0.006126404 -0.23242188 -0.18579102 -0.0048294067 -0.1986084
-0.29638672 -0.13098145 -0.1895752 -0.113220215 -0.13806152 -0.1315918 -0.12402344 -0.103149414
0.03564453 -0.1159668 -0.10839844 -0.07183838 -0.14050293 -0.023025513 -0.26416016 0.05706787
0.053833008 -0.12072754 -0.105529785 0.32250977 -0.25170898 0.054718018 -0.13024902 -0.117126465
-0.09643555 -0.057434082 -0.14123535 -0.28393555 -0.15075684 -0.07171631 -0.049682617 -0.16577148
-0.22338867 -0.24633789 -0.018859863 0.61621094 -0.107543945 -0.02658081 -0.08654785 -0.2602539
0.23571777 -0.12414551 -0.15307617 -0.2800293 0.025558472 -0.026138306 0.7480469 -0.0028915405

cpu f4 [512]
00000000: 0020 e93d 0040 013d 0080 753d 00e0 e03d
00000010: 0080 223e 0040 0ebe 0000 253e 0060 273e
00000020: 0020 223f 0080 8ebe 0000 4f3d 0020 053c
00000030: 0000 143d 00c0 413c 0080 f5bd 0000 d4be
00000040: 0040 7bbe 00c0 4c3c 0040 893d 0000 193f
00000050: 0080 723e 00e0 263d 00e0 0e3e 0000 3bbe
00000060: 0000 96be 0040 fb3c 0060 1a3e 0020 2d3e
00000070: 00e0 af3c 0000 04bc 00c0 bf3d 00e0 8d3e
00000080: 0000 09be 00a0 23bd 0080 48bd 00e0 953e
00000090: 0000 d23d 0040 3e3e 0000 933d 00a0 c3bd
000000a0: 0040 86bd 0080 4f3e 0060 d93e 00e0 4f3d
000000b0: 0060 55bf 00c0 01bd 00a0 a43d 0060 9c3d
000000c0: 00e0 4c3e 0060 07be 00c0 683e 00e0 3d3e
000000d0: 0020 0fbd 0080 12bd 0000 893d 0040 323e
000000e0: 00c0 26bf 0060 793e 00e0 85be 0060 1bbe
000000f0: 0080 8a3e 00a0 4b3e 00c0 153f 0000 4c3e
00000100: 0040 45be 00e0 fb3c 00a0 3f3e 00a0 2f3c
00000110: 00e0 d1be 0000 2bbd 0000 2c3e 0000 5b3d
00000120: 0020 bf3c 0040 48be 0000 66be 0060 f63d
00000130: 00e0 fdbd 0060 4a3e 0000 2a3d 00e0 b03b
00000140: 00c0 763c 0080 8d3e 0080 e9be 0060 09be
00000150: 0020 ac3e 0000 3b3d 0060 de3d 0080 7fbe
00000160: 0060 853e 00c0 20bf 0060 393d 0080 193e
00000170: 0080 ad3e 0040 6f3e 0060 313e 00e0 c23e
00000180: 0080 473d 0060 2e3e 00c0 133e 0000 a43d
00000190: 0060 a33d 0020 bdbe 0000 4d3e 0040 633e
000001a0: 0020 113d 0080 863e 00c0 41be 00c0 b63d
000001b0: 0060 163e 00a0 0b3e 0000 6a3d 00c0 09bf
000001c0: 00c0 b53d 00a0 753e 00a0 aabe 0000 82ba
000001d0: 00e0 053e 00c0 9a3e 00e0 233d 0060 02bf
000001e0: 00a0 5d3e 0020 38be 0020 8a3d 0000 c03d
000001f0: 0020 c2be 00c0 a93e 0060 ac3e 0000 b83e
00000200: 00a0 1cbd 00e0 5cbe 0020 2b3d 0060 5ebe
00000210: 0040 c8bd 0060 7fbd 0040 e5bd 0000 1fbe
00000220: 0040 59bd 0060 5a3e 0080 06bd 0040 6cbd
00000230: 00a0 35be 00c0 583d 0020 e63e 00e0 9d3e
00000240: 0040 be3d 00c0 b3bd 0020 9dbe 00c0 b2be
00000250: 00e0 18be 00c0 87bc 00c0 17be 00c0 db3d
00000260: 0060 3b3e 00c0 65be 0000 77be 00e0 78be
00000270: 0080 37bd 0080 d5bd 00a0 d4bd 00a0 3dbe
00000280: 0040 ba3d 0020 83bd 0060 e13c 00c0 96be
00000290: 00e0 6dbe 0020 aabd 0020 89be 00a0 34bd
000002a0: 0020 babd 00c0 0cbe 00e0 fcbb 0020 8bbd
000002b0: 0000 253f 00c0 e7bd 00c0 10be 0020 9a3d
000002c0: 00c0 24be 00c0 e8bc 0080 7cbe 00e0 8dbd
000002d0: 0000 3ebe 00e0 ed3b 0020 353c 0020 2bbd
000002e0: 0060 2d3f 00a0 90bd 0020 4e3e 00a0 51be
000002f0: 00e0 1fbe 0000 ef3d 0080 07be 0020 5f3e
00000300: 0020 ab3d 0020 4f3d 0080 d6bc 0060 853d
00000310: 00a0 bf3e 00c0 4c3d 00e0 63bd 00c0 3bbd
00000320: 00e0 813d 00a0 823e 0060 d43d 0040 bcbd
00000330: 0000 963d 0060 9abd 0040 30bd 0080 00be
00000340: 00c0 22bd 00a0 53be 00e0 353e 00e0 53be
00000350: 0080 8cbd 0060 03be 0000 05be 00e0 7f3e
00000360: 00a0 00be 0060 643f 0080 e5bd 00a0 903e
00000370: 00c0 a7be 0060 1abd 00e0 76bd 00c0 73be
00000380: 0060 2cbd 0060 f13d 0020 bdbe 0020 15be
00000390: 00c0 3dbd 00c0 e73e 0080 1ebe 0080 7dbe
000003a0: 0000 bebd 00c0 79bd 0040 353e 00a0 3ebe
000003b0: 0060 32bb 0020 8bbe 0060 0fbe 0000 f53e
000003c0: 00c0 263e 0080 92be 0040 0c3f 00c0 8cbd
000003d0: 0000 4cbe 0000 40be 00c0 2cbc 0020 433f
000003e0: 00a0 dbbc 0000 c93e 0080 c9bd 00c0 ffbd
000003f0: 0020 2c3e 00e0 92be 0080 a9bd 0000 d6bd
0.11383057 0.031555176 0.059936523 0.109802246 0.1586914 -0.13891602 0.16113281 0.16345215
0.6333008 -0.2783203 0.05053711 0.008125305 0.036132812 0.0118255615 -0.11987305 -0.4140625
-0.24536133 0.012496948 0.0670166 0.59765625 0.2368164 0.040740967 0.13952637 -0.18261719
-0.29296875 0.030670166 0.15075684 0.16906738 0.021469116 -0.008056641 0.09362793 0.2770996
-0.13378906 -0.03994751 -0.048950195 0.2927246 0.10253906 0.18579102 0.071777344 -0.09552002
-0.06555176 0.20263672 0.42456055 0.050750732 -0.8334961 -0.031677246 0.0803833 0.07635498
0.20007324 -0.13220215 0.22729492 0.1854248 -0.034942627 -0.0357666 0.06689453 0.17407227
-0.6513672 0.24353027 -0.2614746 -0.1517334 0.2705078 0.19885254 0.58496094 0.19921875
-0.19262695 0.03074646 0.18713379 0.010719299 -0.4099121 -0.041748047 0.16796875 0.053466797
0.023330688 -0.19555664 -0.22460938 0.12030029 -0.1239624 0.19763184 0.041503906 0.0053977966
0.015060425 0.2763672 -0.4560547 -0.13415527 0.33618164 0.045654297 0.10858154 -0.24951172
0.26049805 -0.6279297 0.04525757 0.14990234 0.3388672 0.23364258 0.17321777 0.38061523
0.048706055 0.17028809 0.14428711 0.080078125 0.07977295 -0.36938477 0.20019531 0.22192383
0.03543091 0.2626953 -0.18920898 0.0892334 0.14685059 0.13635254 0.057128906 -0.53808594
0.08874512 0.23986816 -0.33325195 -0.0009918213 0.1307373 0.3022461 0.040008545 -0.50927734
0.21643066 -0.17980957 0.06744385 0.09375 -0.3791504 0.33154297 0.33666992 0.359375
-0.038238525 -0.21569824 0.041778564 -0.21716309 -0.09777832 -0.062347412 -0.11193848 -0.15527344
-0.05303955 0.21325684 -0.032836914 -0.057678223 -0.17736816 0.05291748 0.4494629 0.3083496
0.09289551 -0.087768555 -0.30688477 -0.3491211 -0.14929199 -0.016571045 -0.14819336 0.107299805
0.1829834 -0.22436523 -0.24121094 -0.24304199 -0.044799805 -0.10424805 -0.1038208 -0.18518066
0.09094238 -0.06402588 0.027511597 -0.2944336 -0.2322998 -0.08306885 -0.26782227 -0.0440979
-0.09088135 -0.13745117 -0.0077171326 -0.06793213 0.64453125 -0.11315918 -0.14135742 0.07525635
-0.16088867 -0.028411865 -0.24658203 -0.0692749 -0.18554688 0.007259369 0.011054993 -0.041778564
0.6772461 -0.070617676 0.20129395 -0.20471191 -0.15612793 0.11669922 -0.13232422 0.21789551
0.08355713 0.050567627 -0.026184082 0.06512451 0.37426758 0.049987793 -0.055633545 -0.045837402
0.06341553 0.25512695 0.10369873 -0.091918945 0.07324219 -0.07537842 -0.043029785 -0.12548828
-0.039733887 -0.20666504 0.1776123 -0.20690918 -0.068603516 -0.1282959 -0.12988281 0.24987793
-0.12561035 0.89208984 -0.11206055 0.2824707 -0.32763672 -0.03768921 -0.060272217 -0.23803711
-0.04208374 0.11785889 -0.36938477 -0.14562988 -0.046325684 0.45263672 -0.15478516 -0.2475586
-0.09277344 -0.06097412 0.17700195 -0.18615723 -0.0027217865 -0.27172852 -0.14001465 0.47851562
0.1628418 -0.2861328 0.54785156 -0.068725586 -0.19921875 -0.1875 -0.010543823 0.76220703
-0.026809692 0.39257812 -0.09838867 -0.12487793 0.16809082 -0.28686523 -0.08276367 -0.10449219

cpu f4 [512]
00000000: 0020 e93d 0040 013d 0080 753d 00e0 e03d
00000010: 0080 223e 0040 0ebe 0000 253e 0060 273e
00000020: 0020 223f 0080 8ebe 0000 4f3d 0020 053c
00000030: 0000 143d 00c0 413c 0080 f5bd 0000 d4be
00000040: 0040 7bbe 00c0 4c3c 0040 893d 0000 193f
00000050: 0080 723e 00e0 263d 00e0 0e3e 0000 3bbe
00000060: 0000 96be 0040 fb3c 0060 1a3e 0020 2d3e
00000070: 00e0 af3c 0000 04bc 00c0 bf3d 00e0 8d3e
00000080: 0000 09be 00a0 23bd 0080 48bd 00e0 953e
00000090: 0000 d23d 0040 3e3e 0000 933d 00a0 c3bd
000000a0: 0040 86bd 0080 4f3e 0060 d93e 00e0 4f3d
000000b0: 0060 55bf 00c0 01bd 00a0 a43d 0060 9c3d
000000c0: 00e0 4c3e 0060 07be 00c0 683e 00e0 3d3e
000000d0: 0020 0fbd 0080 12bd 0000 893d 0040 323e
000000e0: 00c0 26bf 0060 793e 00e0 85be 0060 1bbe
000000f0: 0080 8a3e 00a0 4b3e 00c0 153f 0000 4c3e
00000100: 0040 45be 00e0 fb3c 00a0 3f3e 00a0 2f3c
00000110: 00e0 d1be 0000 2bbd 0000 2c3e 0000 5b3d
00000120: 0020 bf3c 0040 48be 0000 66be 0060 f63d
00000130: 00e0 fdbd 0060 4a3e 0000 2a3d 00e0 b03b
00000140: 00c0 763c 0080 8d3e 0080 e9be 0060 09be
00000150: 0020 ac3e 0000 3b3d 0060 de3d 0080 7fbe
00000160: 0060 853e 00c0 20bf 0060 393d 0080 193e
00000170: 0080 ad3e 0040 6f3e 0060 313e 00e0 c23e
00000180: 0080 473d 0060 2e3e 00c0 133e 0000 a43d
00000190: 0060 a33d 0020 bdbe 0000 4d3e 0040 633e
000001a0: 0020 113d 0080 863e 00c0 41be 00c0 b63d
000001b0: 0060 163e 00a0 0b3e 0000 6a3d 00c0 09bf
000001c0: 00c0 b53d 00a0 753e 00a0 aabe 0000 82ba
000001d0: 00e0 053e 00c0 9a3e 00e0 233d 0060 02bf
000001e0: 00a0 5d3e 0020 38be 0020 8a3d 0000 c03d
000001f0: 0020 c2be 00c0 a93e 0060 ac3e 0000 b83e
00000200: 00a0 1cbd 00e0 5cbe 0020 2b3d 0060 5ebe
00000210: 0040 c8bd 0060 7fbd 0040 e5bd 0000 1fbe
00000220: 0040 59bd 0060 5a3e 0080 06bd 0040 6cbd
00000230: 00a0 35be 00c0 583d 0020 e63e 00e0 9d3e
00000240: 0040 be3d 00c0 b3bd 0020 9dbe 00c0 b2be
00000250: 00e0 18be 00c0 87bc 00c0 17be 00c0 db3d
00000260: 0060 3b3e 00c0 65be 0000 77be 00e0 78be
00000270: 0080 37bd 0080 d5bd 00a0 d4bd 00a0 3dbe
00000280: 0040 ba3d 0020 83bd 0060 e13c 00c0 96be
00000290: 00e0 6dbe 0020 aabd 0020 89be 00a0 34bd
000002a0: 0020 babd 00c0 0cbe 00e0 fcbb 0020 8bbd
000002b0: 0000 253f 00c0 e7bd 00c0 10be 0020 9a3d
000002c0: 00c0 24be 00c0 e8bc 0080 7cbe 00e0 8dbd
000002d0: 0000 3ebe 00e0 ed3b 0020 353c 0020 2bbd
000002e0: 0060 2d3f 00a0 90bd 0020 4e3e 00a0 51be
000002f0: 00e0 1fbe 0000 ef3d 0080 07be 0020 5f3e
00000300: 0020 ab3d 0020 4f3d 0080 d6bc 0060 853d
00000310: 00a0 bf3e 00c0 4c3d 00e0 63bd 00c0 3bbd
00000320: 00e0 813d 00a0 823e 0060 d43d 0040 bcbd
00000330: 0000 963d 0060 9abd 0040 30bd 0080 00be
00000340: 00c0 22bd 00a0 53be 00e0 353e 00e0 53be
00000350: 0080 8cbd 0060 03be 0000 05be 00e0 7f3e
00000360: 00a0 00be 0060 643f 0080 e5bd 00a0 903e
00000370: 00c0 a7be 0060 1abd 00e0 76bd 00c0 73be
00000380: 0060 2cbd 0060 f13d 0020 bdbe 0020 15be
00000390: 00c0 3dbd 00c0 e73e 0080 1ebe 0080 7dbe
000003a0: 0000 bebd 00c0 79bd 0040 353e 00a0 3ebe
000003b0: 0060 32bb 0020 8bbe 0060 0fbe 0000 f53e
000003c0: 00c0 263e 0080 92be 0040 0c3f 00c0 8cbd
000003d0: 0000 4cbe 0000 40be 00c0 2cbc 0020 433f
000003e0: 00a0 dbbc 0000 c93e 0080 c9bd 00c0 ffbd
000003f0: 0020 2c3e 00e0 92be 0080 a9bd 0000 d6bd
0.11383057 0.031555176 0.059936523 0.109802246 0.1586914 -0.13891602 0.16113281 0.16345215
0.6333008 -0.2783203 0.05053711 0.008125305 0.036132812 0.0118255615 -0.11987305 -0.4140625
-0.24536133 0.012496948 0.0670166 0.59765625 0.2368164 0.040740967 0.13952637 -0.18261719
-0.29296875 0.030670166 0.15075684 0.16906738 0.021469116 -0.008056641 0.09362793 0.2770996
-0.13378906 -0.03994751 -0.048950195 0.2927246 0.10253906 0.18579102 0.071777344 -0.09552002
-0.06555176 0.20263672 0.42456055 0.050750732 -0.8334961 -0.031677246 0.0803833 0.07635498
0.20007324 -0.13220215 0.22729492 0.1854248 -0.034942627 -0.0357666 0.06689453 0.17407227
-0.6513672 0.24353027 -0.2614746 -0.1517334 0.2705078 0.19885254 0.58496094 0.19921875
-0.19262695 0.03074646 0.18713379 0.010719299 -0.4099121 -0.041748047 0.16796875 0.053466797
0.023330688 -0.19555664 -0.22460938 0.12030029 -0.1239624 0.19763184 0.041503906 0.0053977966
0.015060425 0.2763672 -0.4560547 -0.13415527 0.33618164 0.045654297 0.10858154 -0.24951172
0.26049805 -0.6279297 0.04525757 0.14990234 0.3388672 0.23364258 0.17321777 0.38061523
0.048706055 0.17028809 0.14428711 0.080078125 0.07977295 -0.36938477 0.20019531 0.22192383
0.03543091 0.2626953 -0.18920898 0.0892334 0.14685059 0.13635254 0.057128906 -0.53808594
0.08874512 0.23986816 -0.33325195 -0.0009918213 0.1307373 0.3022461 0.040008545 -0.50927734
0.21643066 -0.17980957 0.06744385 0.09375 -0.3791504 0.33154297 0.33666992 0.359375
-0.038238525 -0.21569824 0.041778564 -0.21716309 -0.09777832 -0.062347412 -0.11193848 -0.15527344
-0.05303955 0.21325684 -0.032836914 -0.057678223 -0.17736816 0.05291748 0.4494629 0.3083496
0.09289551 -0.087768555 -0.30688477 -0.3491211 -0.14929199 -0.016571045 -0.14819336 0.107299805
0.1829834 -0.22436523 -0.24121094 -0.24304199 -0.044799805 -0.10424805 -0.1038208 -0.18518066
0.09094238 -0.06402588 0.027511597 -0.2944336 -0.2322998 -0.08306885 -0.26782227 -0.0440979
-0.09088135 -0.13745117 -0.0077171326 -0.06793213 0.64453125 -0.11315918 -0.14135742 0.07525635
-0.16088867 -0.028411865 -0.24658203 -0.0692749 -0.18554688 0.007259369 0.011054993 -0.041778564
0.6772461 -0.070617676 0.20129395 -0.20471191 -0.15612793 0.11669922 -0.13232422 0.21789551
0.08355713 0.050567627 -0.026184082 0.06512451 0.37426758 0.049987793 -0.055633545 -0.045837402
0.06341553 0.25512695 0.10369873 -0.091918945 0.07324219 -0.07537842 -0.043029785 -0.12548828
-0.039733887 -0.20666504 0.1776123 -0.20690918 -0.068603516 -0.1282959 -0.12988281 0.24987793
-0.12561035 0.89208984 -0.11206055 0.2824707 -0.32763672 -0.03768921 -0.060272217 -0.23803711
-0.04208374 0.11785889 -0.36938477 -0.14562988 -0.046325684 0.45263672 -0.15478516 -0.2475586
-0.09277344 -0.06097412 0.17700195 -0.18615723 -0.0027217865 -0.27172852 -0.14001465 0.47851562
0.1628418 -0.2861328 0.54785156 -0.068725586 -0.19921875 -0.1875 -0.010543823 0.76220703
-0.026809692 0.39257812 -0.09838867 -0.12487793 0.16809082 -0.28686523 -0.08276367 -0.10449219

cpu f4 [256]
00000000: 0000 57be 0060 173b 0060 fcbe 0040 a8be
00000010: 0020 1bbd 00e0 60be 0020 48be 0040 f2be
00000020: 0080 7ebd 00c0 3a3e 0060 e03b 0020 21be
00000030: 0040 f03b 0060 39bd 0020 84be 0020 bebe
00000040: 00e0 8c3c 0060 e8bd 00c0 ddbe 00e0 93be
00000050: 0040 26be 00c0 003c 0060 1fbe 0020 99be
00000060: 0060 b4be 00a0 34be 0020 df3d 00e0 82bd
00000070: 0020 e43d 0080 8fbe 00e0 3abd 00e0 023e
00000080: 0040 aebd 00c0 04bf 00c0 debd 0000 adbe
00000090: 00c0 e6be 00a0 873d 0040 78be 0080 9cbe
000000a0: 0060 5a3d 00e0 3d3d 0040 313d 00c0 173d
000000b0: 0060 123e 0080 50be 00a0 ce3d 0040 813d
000000c0: 0000 08bf 00e0 87bd 00e0 163c 00c0 f8b9
000000d0: 00a0 3dbe 00e0 3fbd 00c0 2ebe 0080 38be
000000e0: 0080 04bf 0000 c9bc 00c0 92be 0040 13bd
000000f0: 0060 12be 0040 61bd 0080 9dbd 0060 dabe
00000100: 00c0 bdbd 0000 28be 0060 5c3e 00e0 5e3e
00000110: 0060 f7bd 0060 fc3d 0000 853e 00e0 0e3e
00000120: 0000 94bd 0060 e0bc 0020 0d3e 0080 08bd
00000130: 0060 3dbe 00e0 a1be 00e0 4c3e 0040 473e
00000140: 00a0 773d 00a0 9ebc 0060 8e3e 0000 f93d
00000150: 0000 f63c 0080 3fbc 0000 ac3c 0040 8d3d
00000160: 0020 fe3d 0060 093e 0080 893d 0080 2b39
00000170: 0080 21be 0000 0d3e 00c0 ebbd 0040 a9bd
00000180: 0020 2f3d 00c0 b93e 00c0 173e 0000 143e
00000190: 00e0 a13e 0000 023e 0020 893e 0080 173e
000001a0: 00a0 c5bc 0060 9fbd 00c0 2abe 00c0 14be
000001b0: 0080 883d 0060 52bd 00c0 01be 0000 8dbc
000001c0: 00c0 913d 00a0 23be 0080 a1bb 0080 8d3d
000001d0: 0080 37bd 00c0 eb3d 0040 a23e 0000 cd3d
000001e0: 0000 193e 0020 8ebd 00a0 483e 0020 5d3d
000001f0: 0040 6d3e 0020 9bbd 0020 80bc 0000 a43e
00000200: 00a0 f7bd 00a0 0fbe 00e0 3a3e 0000 51bd
00000210: 0060 3fbd 0080 263e 00e0 5ebe 0000 0abe
00000220: 0040 34bc 00a0 29be 00c0 ae3d 00c0 44be
00000230: 00a0 423d 00c0 4dbe 0020 e03d 0080 2b3d
00000240: 0080 8b3d 00e0 79bd 0080 18be 0020 7e3d
00000250: 0080 3fbe 0000 efbd 0040 443e 0080 1d3e
00000260: 00c0 7e3d 0040 403e 0060 b4be 00a0 9ebd
00000270: 00a0 a13e 0060 813d 0060 c43b 00a0 8abe
00000280: 0040 d83d 0000 b5bd 0020 5c3d 00a0 fe3b
00000290: 00e0 70bb 0040 2b3c 0080 4b3d 00c0 aa39
000002a0: 00a0 27be 00e0 353e 00e0 833e 0060 d2bd
000002b0: 0060 e7bd 0060 663d 0080 d33d 0060 66bc
000002c0: 0060 883d 00a0 6fbe 0080 9a3e 00a0 97be
000002d0: 00c0 0f3d 0000 48bd 0040 653e 0080 693e
000002e0: 0040 89bd 0040 36bb 00c0 d9bc 00a0 ad3d
000002f0: 00e0 373e 00a0 6c3b 0000 95b9 0040 b5bd
00000300: 0060 9cbe 00e0 bdbd 0000 50be 00c0 3abe
00000310: 0060 5abd 0060 da3d 00e0 8f3e 00e0 0bbc
00000320: 0040 16bc 0000 5c3e 0000 b93d 0080 7abe
00000330: 0000 98bd 0040 4dbe 00a0 80bd 0060 9fbd
00000340: 00e0 f2bd 00e0 11be 00e0 abbe 00a0 7ebe
00000350: 00e0 d5bd 00e0 aabd 0040 67be 00e0 3abe
00000360: 0040 5abe 00e0 ccbd 0040 d63d 00c0 21bd
00000370: 0000 2cbe 0000 15be 0000 b4bc 0000 923e
00000380: 00c0 33be 0040 48be 00a0 d6bd 0060 74bd
00000390: 00e0 febd 00e0 afbd 0000 a4bc 00a0 80bd
000003a0: 0060 ea3c 00a0 483e 0060 ec3d 0080 26bd
000003b0: 0080 ae3d 00e0 17be 0040 6cbb 0040 dfbc
000003c0: 0060 23bd 00a0 3d3e 0040 9e3d 0020 183e
000003d0: 00e0 7fbe 00e0 b23d 0040 1fbe 0000 20be
000003e0: 0080 27be 0040 03be 00e0 24bd 00e0 123c
000003f0: 0060 96bd 0080 0ebe 00c0 adbc 00c0 49bd
-0.20996094 0.0023097992 -0.49291992 -0.32861328 -0.037872314 -0.21960449 -0.19543457 -0.47314453
-0.06213379 0.18237305 0.0068473816 -0.15734863 0.007331848 -0.04525757 -0.25805664 -0.3713379
0.017196655 -0.113464355 -0.43310547 -0.28881836 -0.16235352 0.007858276 -0.15563965 -0.29907227
-0.35229492 -0.1763916 0.108947754 -0.06390381 0.11138916 -0.28027344 -0.04562378 0.12780762
-0.08508301 -0.5185547 -0.10876465 -0.33789062 -0.4506836 0.066223145 -0.24243164 -0.30566406
0.05331421 0.0463562 0.043273926 0.03704834 0.14294434 -0.20361328 0.10089111 0.06311035
-0.53125 -0.066345215 0.009208679 -0.00047445297 -0.18518066 -0.046844482 -0.1706543 -0.18017578
-0.5175781 -0.024536133 -0.2866211 -0.035949707 -0.14294434 -0.054992676 -0.0769043 -0.42651367
-0.09265137 -0.1640625 0.21520996 0.21765137 -0.120788574 0.12322998 0.25976562 0.13952637
-0.072265625 -0.027389526 0.13781738 -0.033325195 -0.18493652 -0.3161621 0.20007324 0.19458008
0.060455322 -0.019363403 0.27807617 0.12158203 0.030029297 -0.011688232 0.020996094 0.06896973
0.12408447 0.13415527 0.06713867 0.00016355515 -0.15771484 0.13769531 -0.115112305 -0.0826416
0.042755127 0.36279297 0.14819336 0.14453125 0.3161621 0.12695312 0.26782227 0.14794922
-0.024124146 -0.077819824 -0.16674805 -0.14526367 0.06665039 -0.051361084 -0.12670898 -0.017211914
0.07116699 -0.15979004 -0.004928589 0.0690918 -0.044799805 0.115112305 0.31689453 0.100097656
0.14941406 -0.06939697 0.19592285 0.053985596 0.23168945 -0.07574463 -0.015640259 0.3203125
-0.120910645 -0.14025879 0.18249512 -0.05102539 -0.046722412 0.16259766 -0.21765137 -0.13476562
-0.011001587 -0.16564941 0.08532715 -0.19213867 0.04751587 -0.20092773 0.109436035 0.041870117
0.068115234 -0.06100464 -0.14892578 0.062042236 -0.18701172 -0.11669922 0.19165039 0.1538086
0.062194824 0.18774414 -0.35229492 -0.07745361 0.31567383 0.06317139 0.0059928894 -0.27075195
0.10559082 -0.088378906 0.053741455 0.0077705383 -0.0036754608 0.0104522705 0.049682617 0.00032567978
-0.16369629 0.1776123 0.25756836 -0.10272217 -0.112976074 0.056243896 0.103271484 -0.014060974
0.066589355 -0.23400879 0.3017578 -0.29614258 0.035095215 -0.048828125 0.22387695 0.22802734
-0.0670166 -0.0027809143 -0.02658081 0.08477783 0.17956543 0.003610611 -0.00028419495 -0.08850098
-0.30541992 -0.0927124 -0.203125 -0.18237305 -0.05331421 0.10662842 0.28100586 -0.0085372925
-0.009170532 0.21484375 0.09033203 -0.2446289 -0.07421875 -0.20043945 -0.062805176 -0.077819824
-0.11859131 -0.14245605 -0.33569336 -0.24865723 -0.10443115 -0.08343506 -0.22583008 -0.18249512
-0.21313477 -0.10003662 0.10461426 -0.039489746 -0.16796875 -0.14550781 -0.021972656 0.28515625
-0.17553711 -0.19555664 -0.10479736 -0.059661865 -0.12445068 -0.085876465 -0.020019531 -0.062805176
0.02861023 0.19592285 0.11541748 -0.040649414 0.08520508 -0.14831543 -0.003604889 -0.027252197
-0.039886475 0.18518066 0.07727051 0.14855957 -0.24987793 0.08734131 -0.15551758 -0.15625
-0.16357422 -0.12817383 -0.040252686 0.008964539 -0.07342529 -0.13916016 -0.021209717 -0.04925537

cpu f4 [256]
00000000: 0000 57be 0060 173b 0060 fcbe 0040 a8be
00000010: 0020 1bbd 00e0 60be 0020 48be 0040 f2be
00000020: 0080 7ebd 00c0 3a3e 0060 e03b 0020 21be
00000030: 0040 f03b 0060 39bd 0020 84be 0020 bebe
00000040: 00e0 8c3c 0060 e8bd 00c0 ddbe 00e0 93be
00000050: 0040 26be 00c0 003c 0060 1fbe 0020 99be
00000060: 0060 b4be 00a0 34be 0020 df3d 00e0 82bd
00000070: 0020 e43d 0080 8fbe 00e0 3abd 00e0 023e
00000080: 0040 aebd 00c0 04bf 00c0 debd 0000 adbe
00000090: 00c0 e6be 00a0 873d 0040 78be 0080 9cbe
000000a0: 0060 5a3d 00e0 3d3d 0040 313d 00c0 173d
000000b0: 0060 123e 0080 50be 00a0 ce3d 0040 813d
000000c0: 0000 08bf 00e0 87bd 00e0 163c 00c0 f8b9
000000d0: 00a0 3dbe 00e0 3fbd 00c0 2ebe 0080 38be
000000e0: 0080 04bf 0000 c9bc 00c0 92be 0040 13bd
000000f0: 0060 12be 0040 61bd 0080 9dbd 0060 dabe
00000100: 00c0 bdbd 0000 28be 0060 5c3e 00e0 5e3e
00000110: 0060 f7bd 0060 fc3d 0000 853e 00e0 0e3e
00000120: 0000 94bd 0060 e0bc 0020 0d3e 0080 08bd
00000130: 0060 3dbe 00e0 a1be 00e0 4c3e 0040 473e
00000140: 00a0 773d 00a0 9ebc 0060 8e3e 0000 f93d
00000150: 0000 f63c 0080 3fbc 0000 ac3c 0040 8d3d
00000160: 0020 fe3d 0060 093e 0080 893d 0080 2b39
00000170: 0080 21be 0000 0d3e 00c0 ebbd 0040 a9bd
00000180: 0020 2f3d 00c0 b93e 00c0 173e 0000 143e
00000190: 00e0 a13e 0000 023e 0020 893e 0080 173e
000001a0: 00a0 c5bc 0060 9fbd 00c0 2abe 00c0 14be
000001b0: 0080 883d 0060 52bd 00c0 01be 0000 8dbc
000001c0: 00c0 913d 00a0 23be 0080 a1bb 0080 8d3d
000001d0: 0080 37bd 00c0 eb3d 0040 a23e 0000 cd3d
000001e0: 0000 193e 0020 8ebd 00a0 483e 0020 5d3d
000001f0: 0040 6d3e 0020 9bbd 0020 80bc 0000 a43e
00000200: 00a0 f7bd 00a0 0fbe 00e0 3a3e 0000 51bd
00000210: 0060 3fbd 0080 263e 00e0 5ebe 0000 0abe
00000220: 0040 34bc 00a0 29be 00c0 ae3d 00c0 44be
00000230: 00a0 423d 00c0 4dbe 0020 e03d 0080 2b3d
00000240: 0080 8b3d 00e0 79bd 0080 18be 0020 7e3d
00000250: 0080 3fbe 0000 efbd 0040 443e 0080 1d3e
00000260: 00c0 7e3d 0040 403e 0060 b4be 00a0 9ebd
00000270: 00a0 a13e 0060 813d 0060 c43b 00a0 8abe
00000280: 0040 d83d 0000 b5bd 0020 5c3d 00a0 fe3b
00000290: 00e0 70bb 0040 2b3c 0080 4b3d 00c0 aa39
000002a0: 00a0 27be 00e0 353e 00e0 833e 0060 d2bd
000002b0: 0060 e7bd 0060 663d 0080 d33d 0060 66bc
000002c0: 0060 883d 00a0 6fbe 0080 9a3e 00a0 97be
000002d0: 00c0 0f3d 0000 48bd 0040 653e 0080 693e
000002e0: 0040 89bd 0040 36bb 00c0 d9bc 00a0 ad3d
000002f0: 00e0 373e 00a0 6c3b 0000 95b9 0040 b5bd
00000300: 0060 9cbe 00e0 bdbd 0000 50be 00c0 3abe
00000310: 0060 5abd 0060 da3d 00e0 8f3e 00e0 0bbc
00000320: 0040 16bc 0000 5c3e 0000 b93d 0080 7abe
00000330: 0000 98bd 0040 4dbe 00a0 80bd 0060 9fbd
00000340: 00e0 f2bd 00e0 11be 00e0 abbe 00a0 7ebe
00000350: 00e0 d5bd 00e0 aabd 0040 67be 00e0 3abe
00000360: 0040 5abe 00e0 ccbd 0040 d63d 00c0 21bd
00000370: 0000 2cbe 0000 15be 0000 b4bc 0000 923e
00000380: 00c0 33be 0040 48be 00a0 d6bd 0060 74bd
00000390: 00e0 febd 00e0 afbd 0000 a4bc 00a0 80bd
000003a0: 0060 ea3c 00a0 483e 0060 ec3d 0080 26bd
000003b0: 0080 ae3d 00e0 17be 0040 6cbb 0040 dfbc
000003c0: 0060 23bd 00a0 3d3e 0040 9e3d 0020 183e
000003d0: 00e0 7fbe 00e0 b23d 0040 1fbe 0000 20be
000003e0: 0080 27be 0040 03be 00e0 24bd 00e0 123c
000003f0: 0060 96bd 0080 0ebe 00c0 adbc 00c0 49bd
-0.20996094 0.0023097992 -0.49291992 -0.32861328 -0.037872314 -0.21960449 -0.19543457 -0.47314453
-0.06213379 0.18237305 0.0068473816 -0.15734863 0.007331848 -0.04525757 -0.25805664 -0.3713379
0.017196655 -0.113464355 -0.43310547 -0.28881836 -0.16235352 0.007858276 -0.15563965 -0.29907227
-0.35229492 -0.1763916 0.108947754 -0.06390381 0.11138916 -0.28027344 -0.04562378 0.12780762
-0.08508301 -0.5185547 -0.10876465 -0.33789062 -0.4506836 0.066223145 -0.24243164 -0.30566406
0.05331421 0.0463562 0.043273926 0.03704834 0.14294434 -0.20361328 0.10089111 0.06311035
-0.53125 -0.066345215 0.009208679 -0.00047445297 -0.18518066 -0.046844482 -0.1706543 -0.18017578
-0.5175781 -0.024536133 -0.2866211 -0.035949707 -0.14294434 -0.054992676 -0.0769043 -0.42651367
-0.09265137 -0.1640625 0.21520996 0.21765137 -0.120788574 0.12322998 0.25976562 0.13952637
-0.072265625 -0.027389526 0.13781738 -0.033325195 -0.18493652 -0.3161621 0.20007324 0.19458008
0.060455322 -0.019363403 0.27807617 0.12158203 0.030029297 -0.011688232 0.020996094 0.06896973
0.12408447 0.13415527 0.06713867 0.00016355515 -0.15771484 0.13769531 -0.115112305 -0.0826416
0.042755127 0.36279297 0.14819336 0.14453125 0.3161621 0.12695312 0.26782227 0.14794922
-0.024124146 -0.077819824 -0.16674805 -0.14526367 0.06665039 -0.051361084 -0.12670898 -0.017211914
0.07116699 -0.15979004 -0.004928589 0.0690918 -0.044799805 0.115112305 0.31689453 0.100097656
0.14941406 -0.06939697 0.19592285 0.053985596 0.23168945 -0.07574463 -0.015640259 0.3203125
-0.120910645 -0.14025879 0.18249512 -0.05102539 -0.046722412 0.16259766 -0.21765137 -0.13476562
-0.011001587 -0.16564941 0.08532715 -0.19213867 0.04751587 -0.20092773 0.109436035 0.041870117
0.068115234 -0.06100464 -0.14892578 0.062042236 -0.18701172 -0.11669922 0.19165039 0.1538086
0.062194824 0.18774414 -0.35229492 -0.07745361 0.31567383 0.06317139 0.0059928894 -0.27075195
0.10559082 -0.088378906 0.053741455 0.0077705383 -0.0036754608 0.0104522705 0.049682617 0.00032567978
-0.16369629 0.1776123 0.25756836 -0.10272217 -0.112976074 0.056243896 0.103271484 -0.014060974
0.066589355 -0.23400879 0.3017578 -0.29614258 0.035095215 -0.048828125 0.22387695 0.22802734
-0.0670166 -0.0027809143 -0.02658081 0.08477783 0.17956543 0.003610611 -0.00028419495 -0.08850098
-0.30541992 -0.0927124 -0.203125 -0.18237305 -0.05331421 0.10662842 0.28100586 -0.0085372925
-0.009170532 0.21484375 0.09033203 -0.2446289 -0.07421875 -0.20043945 -0.062805176 -0.077819824
-0.11859131 -0.14245605 -0.33569336 -0.24865723 -0.10443115 -0.08343506 -0.22583008 -0.18249512
-0.21313477 -0.10003662 0.10461426 -0.039489746 -0.16796875 -0.14550781 -0.021972656 0.28515625
-0.17553711 -0.19555664 -0.10479736 -0.059661865 -0.12445068 -0.085876465 -0.020019531 -0.062805176
0.02861023 0.19592285 0.11541748 -0.040649414 0.08520508 -0.14831543 -0.003604889 -0.027252197
-0.039886475 0.18518066 0.07727051 0.14855957 -0.24987793 0.08734131 -0.15551758 -0.15625
-0.16357422 -0.12817383 -0.040252686 0.008964539 -0.07342529 -0.13916016 -0.021209717 -0.04925537

cpu f4 [256]
00000000: 00c0 ccbd 0080 b0bd 0020 31bd 00c0 303d
00000010: 0000 0a3d 0000 a53e 0080 b13b 00a0 363d
00000020: 0060 eebd 0020 5bbc 0060 8fbe 00e0 39be
00000030: 0080 cbbd 0060 5b3d 0060 8ebe 0040 713c
00000040: 0000 27be 0000 c7bd 0040 a6be 00c0 44be
00000050: 0040 603e 00a0 b1be 0080 17be 00c0 a1be
00000060: 0060 bdbd 0000 893d 0020 b83d 00a0 12be
00000070: 00a0 7dbe 00c0 f9be 0000 0cbe 0020 72be
00000080: 0040 933e 0040 ae3d 00a0 cdbe 0000 08be
00000090: 0080 a0be 0080 aabd 0060 1b3e 00a0 06bf
000000a0: 0040 c6bd 00a0 86be 0020 e53d 0020 66bd
000000b0: 0020 c93d 0060 6b3e 0000 34be 00c0 b73d
000000c0: 00e0 7fbe 00e0 7abe 00c0 173e 0060 98be
000000d0: 0040 9fbe 00e0 ccbc 0040 4abe 0040 663d
000000e0: 0000 5c3d 00c0 91bd 00c0 56bc 0060 9fbe
000000f0: 0020 aabe 00e0 e03d 00e0 bdbd 0000 c3be
00000100: 0060 74be 0020 1c3e 0040 38bb 00e0 17bd
00000110: 0020 cbbd 0060 ca3e 0080 54bd 0020 78bd
00000120: 00e0 fabc 0020 3ebe 0040 58be 0080 593e
00000130: 00c0 1abe 00e0 753c 0020 7a3e 00a0 efbc
00000140: 00c0 a63d 0020 b03c 0080 41be 0000 cd3d
00000150: 00c0 5e3d 0000 493d 0040 4d3c 0080 b13e
00000160: 00c0 213e 00a0 00bd 00e0 cdbd 0060 d33d
00000170: 00c0 853d 00a0 353e 00c0 073d 0020 e53d
00000180: 0080 a43e 00a0 a1be 0060 943e 00a0 58be
00000190: 00e0 ff3d 0000 cf3c 0040 a7bd 00c0 823e
000001a0: 0000 90bd 00e0 cc3d 0060 843d 0080 57be
000001b0: 0000 b2bc 0020 58be 0080 b2bc 00e0 d7bd
000001c0: 00e0 563e 00a0 10bc 00e0 0fbe 0040 2f3e
000001d0: 0080 703e 0000 b3bd 00e0 983e 0040 ba3b
000001e0: 0080 9abd 00c0 473e 00e0 4dbd 00a0 a23d
000001f0: 00c0 643e 0000 623d 0000 5b3d 0020 663e
00000200: 00c0 4b3e 0060 92be 00c0 dc3d 00e0 75bb
00000210: 0000 783d 0040 01bf 0000 3ebc 0000 4a3e
00000220: 00a0 d4bd 0080 273c 0040 a6bd 0000 933d
00000230: 0060 073e 0020 313b 00e0 943c 0000 26bb
00000240: 00e0 8a3b 00e0 9b3e 00a0 e83d 0060 b7bd
00000250: 0060 7e3e 0080 6c3e 00a0 2ebd 00a0 1abe
00000260: 00a0 83bb 0020 56be 00e0 87be 0020 553e
00000270: 0000 723a 0040 243e 00a0 9c3d 00c0 90bd
00000280: 00a0 3abf 0000 5abe 0060 573d 0080 71be
00000290: 0080 a63d 00c0 bc3d 0080 5fbe 0020 733e
000002a0: 00c0 8b3d 0040 423e 0080 bd3e 0020 703e
000002b0: 00c0 123d 0000 f03c 00a0 0a3e 0080 d3bd
000002c0: 0020 4ebc 00c0 c03d 0000 cfbc 00e0 a1bd
000002d0: 00c0 3fbc 0020 54be 0080 a73d 0060 813e
000002e0: 00e0 8a3e 0040 cdbd 0000 163d 00c0 d6bd
000002f0: 00e0 2a3e 00a0 f0bd 0040 cbbd 0000 9ebc
00000300: 00a0 60be 00e0 503a 00c0 ecbd 00e0 1ebd
00000310: 0080 3abe 0080 9dbe 0000 383d 0060 5ebd
00000320: 0060 f53d 0040 54be 00c0 5fbe 0040 c1bc
00000330: 0080 ba3e 0080 0cbe 00a0 c23d 0020 c7bd
00000340: 00e0 4abe 00e0 f7bc 0020 abbe 00a0 dcbd
00000350: 00e0 1d3e 00e0 51be 00c0 ecbd 00e0 d0be
00000360: 00e0 7dbd 0000 da3d 0040 203e 00c0 1cbc
00000370: 00e0 e4bd 0040 b63d 0080 823d 0000 84be
00000380: 00c0 bbbd 00a0 aebe 00c0 82bd 0020 1ebe
00000390: 00a0 b93c 0060 11be 00e0 4d3e 0040 dcbd
000003a0: 0000 a7bc 0020 1cbe 0060 d33d 0060 79bd
000003b0: 0060 87bd 0080 4cbb 0000 2fbe 0020 173e
000003c0: 0040 24be 0080 c6bd 0080 edbd 0080 a8bd
000003d0: 00a0 a8bd 0000 6d3c 0080 cb3d 00e0 643d
000003e0: 0060 053e 00c0 853c 00c0 233c 00a0 66be
000003f0: 00c0 1abd 00c0 b1bd 00e0 2ebe 0040 eebd
-0.099975586 -0.08618164 -0.04324341 0.043151855 0.033691406 0.32226562 0.00541687 0.04458618
-0.11639404 -0.013374329 -0.2800293 -0.18151855 -0.099365234 0.05355835 -0.27807617 0.014724731
-0.16308594 -0.09716797 -0.32470703 -0.19213867 0.21899414 -0.34692383 -0.14794922 -0.31591797
-0.09246826 0.06689453 0.089904785 -0.14318848 -0.24768066 -0.48779297 -0.13671875 -0.2364502
0.28759766 0.08508301 -0.40161133 -0.1328125 -0.31347656 -0.08325195 0.1517334 -0.5258789
-0.09680176 -0.26293945 0.11187744 -0.05618286 0.09820557 0.2298584 -0.17578125 0.08972168
-0.24987793 -0.24499512 0.14819336 -0.29760742 -0.31103516 -0.025009155 -0.19750977 0.05621338
0.053710938 -0.07116699 -0.0131073 -0.3112793 -0.3322754 0.109802246 -0.0927124 -0.38085938
-0.23864746 0.15246582 -0.002811432 -0.037078857 -0.09918213 0.39526367 -0.051879883 -0.060577393
-0.03062439 -0.18566895 -0.21118164 0.21240234 -0.15112305 0.015007019 0.2442627 -0.029251099
0.0814209 0.021499634 -0.18896484 0.100097656 0.054382324 0.049072266 0.012527466 0.3466797
0.15795898 -0.031402588 -0.1005249 0.10321045 0.06530762 0.17736816 0.03314209 0.11187744
0.32128906 -0.31567383 0.28979492 -0.21154785 0.124938965 0.025268555 -0.08166504 0.2553711
-0.0703125 0.10003662 0.06463623 -0.21044922 -0.021728516 -0.21105957 -0.02178955 -0.105407715
0.20983887 -0.0088272095 -0.14050293 0.17114258 0.23486328 -0.087402344 0.29858398 0.005683899
-0.07543945 0.19506836 -0.05026245 0.07940674 0.22338867 0.05517578 0.053466797 0.22473145
0.19897461 -0.28588867 0.107788086 -0.0037517548 0.060546875 -0.5048828 -0.01159668 0.19726562
-0.1038208 0.010223389 -0.08117676 0.071777344 0.13220215 0.002702713 0.018173218 -0.002532959
0.0042381287 0.30444336 0.113586426 -0.089538574 0.24841309 0.23095703 -0.042633057 -0.15100098
-0.004016876 -0.20910645 -0.26538086 0.20812988 0.00092315674 0.16040039 0.07647705 -0.07067871
-0.7290039 -0.21289062 0.052581787 -0.23583984 0.08129883 0.092163086 -0.21826172 0.23742676
0.068237305 0.18969727 0.3701172 0.23449707 0.035827637 0.029296875 0.13537598 -0.103271484
-0.012580872 0.09411621 -0.025268555 -0.07904053 -0.011703491 -0.20715332 0.08178711 0.25268555
0.27124023 -0.10021973 0.036621094 -0.1048584 0.16687012 -0.117492676 -0.099243164 -0.01928711
-0.21936035 0.0007967949 -0.115600586 -0.03878784 -0.1821289 -0.3076172 0.044921875 -0.05429077
0.11981201 -0.20727539 -0.21850586 -0.023590088 0.3642578 -0.13720703 0.09503174 -0.097229004
-0.19812012 -0.030258179 -0.33422852 -0.10772705 0.1541748 -0.20495605 -0.115600586 -0.40795898
-0.0619812 0.10644531 0.15649414 -0.009567261 -0.11175537 0.08898926 0.0637207 -0.2578125
-0.091674805 -0.34106445 -0.06384277 -0.15441895 0.022659302 -0.14196777 0.2010498 -0.107543945
-0.020385742 -0.15246582 0.10321045 -0.06088257 -0.066101074 -0.0031204224 -0.17089844 0.14758301
-0.16040039 -0.09692383 -0.1159668 -0.08227539 -0.082336426 0.014465332 0.099365234 0.055877686
0.13024902 0.016326904 0.009994507 -0.22521973 -0.03778076 -0.08679199 -0.17077637 -0.11633301
