models/en/torchscript_cpu_model.pt (torch, 399413 bytes, 10 tensors)

weight f4 [256, 32]
000000 5e 4c f0 be 8a 39 b7 bf fe df ec be ea 1c 5f 3f
       -0.46933264 -1.4314435 -0.46264642 0.87153494
000010 0f 88 8a bc 2e 7b 6f bf cd 81 10 3e ed 14 84 bf
       -0.01691058 -0.9354733 0.14112015 -1.0318886
000020 86 b3 c5 bf 91 aa b8 3f 55 a6 c1 be b0 56 19 bf
       -1.5445411 1.4427053 -0.37822214 -0.598979
000030 d4 49 b7 3e f3 fb 45 bf f1 85 39 40 72 51 56 40
       0.35798514 -0.7733757 2.8988001 3.348721
000040 1b 7f 36 bf 6e ba 0b 40 54 e3 3c 3f a9 0c 7d 3d
       -0.712877 2.1832538 0.73784375 0.06177965
000050 d6 7c 0b 40 35 2c 13 3d c2 5b 33 bf ff 87 cb bf
       2.1794944 0.03593083 -0.70061886 -1.5900878
000060 4a 39 14 bf fe 92 09 40 cc 59 88 be 2b 25 15 40
       -0.57899916 2.1495967 -0.2663101 2.3303936
000070 c8 17 bb 3e 6a f7 ce bf e5 e5 de 3e 4f e0 0d 3f
       0.3654158 -1.6169255 0.4353477 0.5542039
000080 b4 7e dc 3e 20 4a f1 3f 41 57 0d bf cb 41 5a 3f
       0.43065417 1.8850746 -0.55211264 0.8525664
000090 16 d0 5f 3f 75 e0 da be 81 23 3d be 56 e1 93 bf
       0.8742689 -0.42749372 -0.18470575 -1.1553142
0000a0 2f ef 1c 3d 82 cd bd 3d a4 2d ed be f0 dd 1b c0
       0.03831404 0.09267713 -0.46323884 -2.435421
0000b0 72 ce c1 3e 98 51 9f bf 70 8c 1c bf 36 b8 38 bf
       0.37852818 -1.2446775 -0.6115179 -0.72156084
0000c0 36 1a 2a 3f 95 d7 cf be 8e af 90 bd 25 50 65 3f
       0.66446245 -0.40594164 -0.070647344 0.89575416
0000d0 7a 3a 65 bf e5 9f 58 3e 77 35 0e bf f3 25 8f bf
       -0.89542353 0.21154745 -0.5555033 -1.1183456
0000e0 64 55 79 3e cd 7b ae 3f ec d2 62 3f 41 24 60 3f
       0.2434898 1.3631531 0.8860309 0.8755532
0000f0 53 0f a2 3e e8 2a 9a 3f 3a 86 f0 bf 0e 43 34 3e
       0.31652316 1.2044344 -1.8790963 0.17603704
000100 b4 41 83 3e 52 80 8f bf a5 75 6a bf be f7 de be
       0.25636065 -1.1211035 -0.9158576 -0.43548387
000110 9e 36 1a bf dd 7a ea 3e a7 ab b5 3f b3 cb 03 3e
       -0.6023959 0.45796862 1.4193009 0.12870674
000120 32 02 f1 be 9c 51 a5 3f a0 a3 00 40 c4 9a bf 3e
       -0.47071987 1.291553 2.0099869 0.37422764
000130 5e 45 a9 3b 73 59 5a 3f c2 70 87 bf 7d 4f e3 bf
       0.00516574 0.8529274 -1.0581286 -1.7758633
000140 87 a2 ec bf 8b 32 5f 40 94 04 97 3f 5b 92 22 3e
       -1.84871 3.48746 1.1798272 0.15876143
000150 fe ed a1 bf d1 13 4e 3d 02 e6 49 3f b6 e4 30 3e
       -1.2650754 0.050311867 0.7886659 0.17274746
000160 a5 8e 86 3f aa c9 2c bf 5c 30 2b 3e d1 72 8e bf
       1.0512282 -0.67495215 0.16717666 -1.1128789
000170 af c7 23 bf 56 82 87 c0 3c 60 88 be b0 58 b2 3f
       -0.6397657 -4.23466 -0.2663592 1.3933315
000180 f3 f0 62 bf b1 10 15 bf fe 15 7c 3f 46 98 e8 be
       -0.8864891 -0.58228594 0.9847106 -0.45428675
000190 fe fd 1c be 9c 4c 01 3f c7 ea f2 bd 3c 61 04 c0
       -0.15331265 0.5050752 -0.118611865 -2.0684347
0001a0 70 05 5c 3f af 11 b5 3d f7 af 28 bf a7 26 30 bf
       0.85945797 0.088412635 -0.658935 -0.6880898
0001b0 04 4a 5b 3f 4f 63 ac bf 99 33 05 40 6d fa 06 3f
       0.85659814 -1.3467807 2.0812743 0.5272587
0001c0 ba 4e 93 bf 3b 73 84 bf a4 8c 37 bd 3d 5e 57 bf
       -1.15084 -1.0347666 -0.04481186 -0.8412817
0001d0 e7 e0 87 bf 29 f4 75 bf 83 88 cd be 58 6d 04 bf
       -1.061551 -0.96075684 -0.40143213 -0.51729345
0001e0 57 99 78 bf 3c 32 2e bf 10 05 3b be 2f ea d0 3e
       -0.9710898 -0.680454 -0.1826365 0.40803668
0001f0 8c 49 ce bf 49 28 f3 3e 66 bf 90 3f 1d 59 fd 3e
       -1.6116195 0.47491673 1.130841 0.4948205
000200 db 68 1f c0 07 79 bb 3f b0 ca 2c c0 04 ad 88 bf
       -2.4907749 1.464631 -2.699871 -1.06778
000210 2b 06 39 be 06 6f 3b bf 61 3f 07 3f 7f 0c 6d 3f
       -0.18068759 -0.73216283 0.52831084 0.9259719
000220 9d f0 74 3d c8 77 05 40 64 83 17 bf 0c 6f 87 bd
       0.05979978 2.0854359 -0.5918486 -0.066129774
000230 d4 58 02 bf 2a 9c 75 be 52 e0 54 be 2f 51 2a 3f
       -0.5091679 -0.23985353 -0.20788696 0.66530126
000240 d2 fc 21 bf b4 8e 00 c0 1c 7a 80 bf 80 4a a9 3e
       -0.632764 -2.00871 -1.0037265 0.3306465
000250 b5 cb ad 3f b8 39 49 bf 5d 5c 94 3f 8a f6 b6 bf
       1.3577791 -0.78603697 1.1590687 -1.4293988
000260 4d 2a b3 3e c6 fb 76 bf 9a e9 2a 3e 12 12 ea bf
       0.3499321 -0.96477926 0.16690674 -1.8286765
000270 01 d6 49 3e 37 88 41 3f 6d 11 b1 3f f8 70 ec 3e
       0.19710542 0.7559847 1.3833443 0.46179938
000280 d4 fc db 3e 10 f8 e4 3d f8 cb c3 be a8 ef c4 3e
       0.4296633 0.11180127 -0.38241553 0.38464093
000290 24 2f 0b 3f aa 44 86 bf 3f 6d 74 bf 46 be c4 bf
       0.54368806 -1.0489705 -0.95479196 -1.5370567
0002a0 c2 06 c4 bf 51 aa 1e 3f 25 3e f2 3e 8f 14 0b bf
       -1.5314562 0.6197863 0.47313038 -0.54328245
0002b0 90 9f d7 3d b2 de c0 bf 29 b8 87 3f 8a 64 0c bf
       0.10528481 -1.5067961 1.0603076 -0.5484091
0002c0 e5 07 c9 3e d6 a0 ab be 3b c4 c1 bf ef 46 5e bf
       0.39263836 -0.33521146 -1.513801 -0.86826986
0002d0 9d 5b d5 bf 23 93 3d 3e 59 2d 23 bf 3e 3b ed bf
       -1.6668583 0.1851316 -0.6374107 -1.8533704
0002e0 2e 3b 67 3e 8b 64 d4 3f 1b 46 af bd 5b 16 2f bf
       0.22581169 1.6593183 -0.085582934 -0.68393487
0002f0 15 b5 54 3f 16 e1 c5 3f da a6 5b 3f 57 b0 c4 3e
       0.8308881 1.5459316 0.8580147 0.38415787
000300 4b 26 0f c0 4b 05 a4 bf 54 73 38 3f 18 6f 8d be
       -2.2367122 -1.2814115 0.72050977 -0.2762382
000310 01 69 3c 3f 64 5a 17 3d 0a d5 fd bd cc f4 e6 3f
       0.73597723 0.036951438 -0.123941496 1.8043456
000320 98 81 ef 3c 52 ce 94 3f e9 74 ca 3e 6f fd 34 3f
       0.0292366 1.1625464 0.3954232 0.7069921
000330 2a 5c 04 3f 34 7e b8 3d 50 f1 6a be 67 80 3e bf
       0.5170313 0.09008446 -0.22943616 -0.74414676
000340 6d 91 ac bf 46 b8 d2 3f bd 3d b2 3f 46 7d 46 3f
       -1.348188 1.6462486 1.3925091 0.775349
000350 fc 01 4c bf 0e 6f 61 bf c6 b3 96 3e 0d 46 18 3e
       -0.7969053 -0.8806008 0.2943403 0.14870472
000360 6e f1 c3 bf 82 43 26 c0 1b d1 77 bf c4 59 83 3f
       -1.5308053 -2.5978703 -0.96803445 1.0261769
000370 1b 18 c1 3f 8d ce 79 be 1e 8c 62 3f 29 d3 58 3f
       1.5085481 -0.24395199 0.8849505 0.84697205
000380 d6 5a 1e 3f 7d e8 a7 bd ac c6 87 3e d9 65 8d bf
       0.61857355 -0.081986405 0.26518762 -1.1046706
000390 cc 75 3e bf 3b 02 3f be 8b e6 96 bd 9f 59 0b bf
       -0.74398494 -0.18653195 -0.07368191 -0.54433626
0003a0 5c 66 16 bf 7d 84 9d bf 61 fe 0b 3e 25 d3 71 3f
       -0.5874994 -1.2306057 0.13671257 0.94462806
0003b0 c6 27 ec bf f8 ef 00 3f 2c d4 ed 3e 21 89 cd be
       -1.8449638 0.50366163 0.46450937 -0.40143684
0003c0 ad 7a fc 3e a7 89 83 3f 8b 31 2b bf c2 1b 9c bc
       0.49312344 1.0276383 -0.6687247 -0.019056205
0003d0 ae 49 07 bf 1d c8 25 c0 6a f8 a7 bf 6e 94 a4 3f
       -0.528468 -2.590339 -1.3122685 1.2857797
0003e0 38 29 c7 3d 43 cd f4 3e de 1a 96 be 0a e8 4e bf
       0.09724659 0.47812852 -0.29317373 -0.80822814
0003f0 8a 5c 60 bf 04 f4 ec bf 1e 57 c3 be a6 1f 18 c0
       -0.87641203 -1.8511968 -0.38152403 -2.3769317

cpu f4 [512]
000000 09 b9 57 3d 5a 11 b9 3d fd b5 bf 3d 40 d7 47 bc
       0.052666698 0.09036513 0.093608834 -0.012197316
000010 80 37 1e bd 92 9a b3 b9 ab 0b 5b 3d e9 64 3a 3e
       -0.038627148 -0.00034256704 0.053477924 0.18202557
000020 4e 41 42 3e 0e af c6 3d 38 4d 39 3e 8a 92 7b 3d
       0.18970224 0.09701358 0.18095863 0.061419047
000030 fb 59 01 3d f3 99 f6 bc c4 5d 1f 3d 61 62 54 bd
       0.031579953 -0.030102706 0.03890778 -0.051851634
000040 7d 8a 36 bc 4d 5b 1e 3e f2 2a e9 3d 63 84 e3 3d
       -0.011141417 0.15464516 0.11385144 0.11109235
000050 34 22 96 3d 3b fc 14 bd d3 0f 80 3d 1e 0f 3b bd
       0.073307425 -0.03637336 0.06253018 -0.045668714
000060 41 0f e2 3d 5a 10 bf 3e 01 bd 9e 3e 11 8c 02 bd
       0.11038066 0.37317163 0.31003574 -0.03187186
000070 59 54 72 3d 0c f4 13 3e 68 73 f8 3d 71 89 0e 3e
       0.05916247 0.14448565 0.12131387 0.13919617
000080 73 ff 9a 3d a3 f2 6a 3d 85 ef 04 3e 89 07 b7 bc
       0.07568254 0.057360303 0.12981994 -0.02234246
000090 40 fc cc 3d cf a8 c5 3b 5d c8 51 3e ce f9 04 be
       0.1000905 0.0060320864 0.20486589 -0.12985918
0000a0 9f 2c 61 be 47 4a 0b 3c 19 7b e9 3d 5d 2c c0 3d
       -0.21989678 0.008501596 0.11400432 0.093834616
0000b0 91 29 67 3e 7a f9 0a bd 07 c8 1f 3d 9b 57 c2 3d
       0.2257445 -0.033929326 0.03900912 0.09489366
0000c0 ed ba 0e 3d a3 53 dc 3d 2f a1 16 3e da 54 9f 3e
       0.034846235 0.1075814 0.14709924 0.31119424
0000d0 ca 3e 1f 3e 6f a0 b5 3e 73 9f a2 bd 94 f3 aa 3d
       0.15551296 0.35473964 -0.07940569 0.0834724
0000e0 f7 03 27 3e ff 53 15 3e 4e 0d bf 3e 15 95 cd bd
       0.16310106 0.14582823 0.37314838 -0.10038201
0000f0 bd ea 56 3d 15 7b f9 3d c5 c7 1e 3e 3f 42 92 3e
       0.052469958 0.12181679 0.15505894 0.28566167
000100 ab 14 33 3d e5 96 37 3e 00 92 b6 bb 06 35 bf 3d
       0.043720882 0.17928655 -0.005571604 0.09336285
000110 b8 f1 78 3d 61 ab 68 3e 9f 5f ed 3c 40 81 02 3e
       0.060777396 0.22721626 0.02897626 0.12744617
000120 af d5 ba 3d fc 89 ca 3d ef b3 1c 3e 67 84 a4 3d
       0.09122788 0.098896 0.15303014 0.08033066
000130 4e 7b 5b 3e 6f 2d d8 bd 36 f7 a4 3d 29 da 33 3e
       0.21433756 -0.10555541 0.08054964 0.1756369
000140 3b a2 1a 3e 3b 7d 4e 3e 00 58 1b 3d 9e 69 e9 3c
       0.15100949 0.20164959 0.03792572 0.028492745
000150 b0 14 42 3d 37 69 ad 3c 0e 38 e1 3d ed 49 c9 3d
       0.04738301 0.021168334 0.1099702 0.09828553
000160 2f 97 06 3e a0 57 65 3d da f6 02 3e 1d ce b3 3d
       0.1314361 0.05599177 0.12789479 0.08779547
000170 41 ae db 3c c4 cd e2 3d 95 8a 47 3e be 8b 99 3d
       0.02681649 0.11074403 0.19486459 0.07497357
000180 a8 78 f9 3d 1b 67 63 3e 81 31 12 3e 8c 98 93 3e
       0.121812165 0.222073 0.14276697 0.28827322
000190 d3 f9 e4 3d 30 80 e3 3d 63 f7 84 3d e8 7f 74 3d
       0.11180463 0.11108434 0.06492498 0.059692293
0001a0 08 4b 88 3d e4 ab c7 bd eb 2f 11 3e 0a 4d 85 3d
       0.06654936 -0.097495824 0.14178436 0.06508835
0001b0 77 11 ff bc 8e 2c 35 3e d9 6f a7 3e 55 41 bc 3d
       -0.031136258 0.17692778 0.3270252 0.091921486
0001c0 c1 fd 20 3e c9 7a ed 3d 5a 0c 89 3e b8 a9 e1 3c
       0.157218 0.11595685 0.26767236 0.027546749
0001d0 02 be 18 3e c4 21 49 3e 2c d9 fc bc c7 e7 05 3e
       0.14916232 0.19641787 -0.030865274 0.13076697
0001e0 a0 d0 cc 3c 45 14 83 3d a2 68 63 be da 47 7e be
       0.025001824 0.064003505 -0.22207883 -0.24832097
0001f0 55 ec d9 3d 4e af ae 3d fd d3 ed 3d 12 3b e2 be
       0.1064078 0.085295305 0.11612699 -0.44185692
000200 de 20 d0 bd 34 03 ad bc 85 52 45 bc cd 8a c8 3d
       -0.10162519 -0.021119691 -0.0120436 0.09792099
000210 ab f0 5f 3d b7 e1 6e 3e 0c ed 6c bd a4 d0 0f 3d
       0.05467288 0.23328291 -0.057843253 0.035111085
000220 64 b1 9f bd ed b2 66 3c 31 71 22 bd 5f 5b d8 3d
       -0.077975065 0.014080745 -0.03965873 0.10564303
000230 5a 45 d5 bd 85 ef 4e bd 7e a6 e6 3c 3b 96 c4 3d
       -0.104136184 -0.050521392 0.028155562 0.09598967
000240 f1 96 b1 3d 8a b7 dd 3c 12 52 bc bb 02 d1 0c be
       0.08671368 0.027065057 -0.005747088 -0.13751605
000250 a3 37 02 be 79 c2 84 b8 74 c8 03 bd d1 67 de bc
       -0.12716536 -6.330474e-05 -0.03217359 -0.027149113
000260 3e 35 2c 3d 6e 0e 83 bb 32 83 5b bd aa 77 ac 3b
       0.042042963 -0.003999523 -0.053591914 0.0052632885
000270 9f 74 d0 3d 71 0e ae bd 3e 79 58 3c 7a 2b db bd
       0.10178494 -0.08498848 0.0132125 -0.10701652
000280 0e 94 8c bd 6c 54 7e be 37 8b bc bb ba ca 26 bc
       -0.06864177 -0.24836892 -0.0057539004 -0.01018017
000290 0e d8 21 be e0 1a 2e 3d 9c 2d 6e bd d2 93 39 bd
       -0.15805075 0.0425061 -0.058148965 -0.045306988
0002a0 0d d8 ab 3e e2 dd f6 bc 63 e0 98 3d b7 82 a5 3e
       0.3356327 -0.030135099 0.07464673 0.3232629
0002b0 70 bb d1 3d f0 73 b4 bd b1 37 a6 bd 47 37 d3 bd
       0.10240829 -0.08811176 -0.08116091 -0.10313278
0002c0 c1 81 a9 3c 0a 3c fd bd 97 73 b4 be cd 65 77 3e
       0.020691754 -0.12364967 -0.35244438 0.24159928
0002d0 11 d3 e0 bc 70 76 5c 3e 38 36 0f be 5e 07 73 be
       -0.027444394 0.21529555 -0.13985527 -0.23733279
0002e0 6c 1a e2 3d 0d 44 88 3b 63 7c 1d 3d 92 06 0e 3e
       0.11040196 0.004158503 0.038448703 0.13869694
0002f0 44 22 9e bc 3d 3a 3c bd c8 08 0e be e9 9f b3 3c
       -0.019303448 -0.045953978 -0.13870537 0.021926837
000300 80 02 87 3c 9f ce 8b bd c2 72 2a 3e 74 41 6e 3d
       0.016480684 -0.06826519 0.16645339 0.05816789
000310 ba 4c 1b be 44 23 75 be 22 2b 6d 3d 14 bd 90 3d
       -0.15165988 -0.23939234 0.057902463 0.07067314
000320 65 62 05 3e 27 b7 eb bc b5 67 27 3e 27 bf 87 bd
       0.13025816 -0.028773857 0.16348155 -0.06628256
000330 9c e9 25 3e 6a ed 48 3d 7b 79 08 bd a9 a8 e7 bd
       0.16202396 0.04905454 -0.033318978 -0.11311466
000340 4a 0f 7d bd c0 b2 96 be 91 2b d0 b9 09 fe e7 ba
       -0.06178216 -0.2943325 -0.0003970531 -0.001769961
000350 29 43 88 3d 0e c8 90 3d dd b8 a6 3c a7 98 4f 3c
       0.06653435 0.070694074 0.020351822 0.0126706725
000360 af 58 0d 3d c3 52 ac 3c 12 3d bb bd ea c4 40 3c
       0.034508403 0.021035558 -0.091425076 0.011765698
000370 9f 3d fa 3d e8 96 64 bd b0 bc 4e bd 83 ef 84 3d
       0.122187845 -0.055807978 -0.050472915 0.06490996
000380 0d 21 a4 3d a1 08 06 bd 95 f8 3d bd cd c2 68 3e
       0.080141164 -0.032723073 -0.046379644 0.2273056
000390 8b f2 1e 3e bc 84 93 3d cd 46 7f 3c 18 bd ba bd
       0.1552221 0.072030514 0.015580845 -0.09118098
0003a0 30 0e b9 bc 7a fe 3d 3e 6f 9b 22 3c 90 e2 e9 3c
       -0.022589773 0.18554106 0.009924754 0.028550416
0003b0 6f 38 bb 3d e8 7c 63 3c 13 92 2a bd 9a 1b 3b 3b
       0.09141623 0.01388476 -0.041643213 0.0028550387
0003c0 a4 30 1d 3d e5 96 12 bd 79 55 82 be 10 b1 3e bd
       0.038376465 -0.035788435 -0.25455835 -0.04655558
0003d0 57 16 c6 3d f8 94 0e be 5a d7 f1 3c 28 88 d4 bd
       0.0967223 -0.13924015 0.029521633 -0.10377532
0003e0 23 87 9c bd 47 29 ba 3c 72 30 c3 3d ba 7f 0f 3e
       -0.07642963 0.02272476 0.095307246 0.14013568
0003f0 ae f4 6b bd b3 e9 a4 bd 63 d1 2b be 0e 9e cc 3e
       -0.05760639 -0.08052387 -0.16779093 0.39964336

cpu f4 [512]
000000 dd dd 4e 3d 5e 1b 2a 3e c4 a1 6c 3e 27 09 4b 3d
       0.050504554 0.16612002 0.23108584 0.049569275
000010 3f c1 a0 3c 04 fd bc bc e6 8d 64 3d 80 c4 4e 3e
       0.019623397 -0.023069866 0.055799387 0.20192146
000020 e6 7c 47 3e 24 29 e6 3d dc 48 1d 3e 10 ba a6 3a
       0.19481239 0.11238316 0.15359825 0.0012720246
000030 8b 3b b4 3d f2 05 a3 bd 34 7e a0 3d 03 40 3e 3d
       0.088004194 -0.07960118 0.07836571 0.046447765
000040 fc b2 21 bd 4c d3 37 3e 62 32 da 3d 51 9c 49 3e
       -0.039477333 0.17951697 0.10654141 0.19688536
000050 bc ca 97 3d 46 32 98 3d 0a 0a a1 bc 33 03 58 bd
       0.074117154 0.07431464 -0.019658107 -0.052737426
000060 3d 6b 2f 3e f0 b4 f8 3e 40 3a 56 3e 7b 0e 81 3d
       0.17130752 0.48575544 0.20920658 0.0630159
000070 2d 45 b4 3d 84 b2 ee 3d e3 c3 6b 3c 8f 76 89 3e
       0.08802257 0.11655143 0.014389965 0.26848266
000080 92 ba e2 3d b9 61 1a 3e 71 a1 aa 3d 25 66 ee 3d
       0.11070742 0.1507634 0.08331574 0.11640576
000090 9e f5 af 3d c6 f5 24 3e 4d 3d 18 3e 54 6d 47 3b
       0.0859177 0.1610938 0.14867134 0.0030430155
0000a0 67 cf 1e be 06 fe 8e bd 1b e0 73 3d c0 65 75 3e
       -0.15508805 -0.06982045 0.059539896 0.23964596
0000b0 4a 96 69 3e cf 86 38 bc 78 a1 18 3d 15 83 fa bc
       0.22811237 -0.01126261 0.037263364 -0.030580083
0000c0 3c 00 11 bd 20 43 9e bb 9a 4e 72 3e 69 0b c4 3e
       -0.035400614 -0.0048297793 0.23662797 0.38289955
0000d0 70 67 0e 3e 81 0f a6 3e 63 80 75 bd 55 00 24 3e
       0.13906646 0.32433704 -0.059936892 0.16015752
0000e0 06 bb 19 3e 0c e4 b5 3d a3 89 99 3e 79 98 96 bd
       0.1501275 0.08881387 0.2998782 -0.073533006
0000f0 49 ae 2f 3d 45 b6 bc 3d 96 8a 1e 3e 37 54 7e 3e
       0.04289082 0.09214453 0.15482554 0.24836813
000100 8c a2 04 bd c5 83 9e 3e 89 2d 35 3c 7f 64 77 3e
       -0.03238158 0.30959907 0.01105822 0.2415943
000110 80 6e f2 3d 23 18 8a 3e 2a c0 7d 3c 9e af 87 3e
       0.118374825 0.2697154 0.01548771 0.26501173
000120 57 59 2a 3e 89 25 05 3e c3 c8 11 3d 36 01 e5 3c
       0.16635643 0.130026 0.035591852 0.027954679
000130 3d b1 ca 3d a2 fa 1c 3d 51 ac ac 3d 40 b2 9e 3d
       0.09897087 0.03832496 0.08431304 0.07748842
000140 8c a3 57 3e 94 a5 c5 3d 46 c4 80 3d 1c 67 1a 3d
       0.21058482 0.09650722 0.06287436 0.03769599
000150 a8 da b9 3d b9 09 9b 3d 68 7a b2 3d c0 df db 3d
       0.090749085 0.07570214 0.087147534 0.10736036
000160 cd 0f 07 3e 78 bb 33 3d a4 11 f0 3d ab bc 9d 3d
       0.13189621 0.043879956 0.11722115 0.07702001
000170 db 63 9c 3c 51 ed 18 3e 60 8e 4a 3e fa a6 ee 3c
       0.019090584 0.14934279 0.19780874 0.029132355
000180 4e d2 dc 3d 9b 4e 6b 3e b8 e0 43 3e d4 50 31 3e
       0.107823 0.22979204 0.19128692 0.1731599
000190 60 75 14 bd 23 e7 45 bd 6e 74 6c 3c f1 d3 c3 3d
       -0.03624475 -0.048316132 0.014432056 0.09561909
0001a0 16 0b 45 ba c2 0b 2d be 6b 11 02 3d 62 d4 af bd
       -0.00075166055 -0.16899016 0.031754892 -0.08585431
0001b0 e8 22 60 3d 64 11 5e 3e b9 e1 65 3e 4b 84 08 3d
       0.05472079 0.21686321 0.22449388 0.03332929
0001c0 89 c3 a0 3d 83 38 17 3e 30 e6 8b 3e c9 7e 9f 3d
       0.07849795 0.14767651 0.27324057 0.07787854
0001d0 9a 3e 71 3e fd 14 b0 3d da d8 3a bd 98 e6 80 3e
       0.23559037 0.08597753 -0.045616962 0.2517593
0001e0 45 80 08 3e ed 0f 8b 3d 84 5c f9 bd 4f 1e 58 be
       0.13330181 0.06790147 -0.12175849 -0.21105312
0001f0 29 c0 77 3e 5c 8e 38 3e b2 45 03 3e 15 4e a3 be
       0.24194397 0.18023056 0.12819555 -0.3189551
000200 10 a6 c3 bd 49 79 2f bd b6 d6 4a 3d e0 fb 83 bc
       -0.09553158 -0.042840276 0.04952117 -0.016111314
000210 bc 37 37 3d af fb 49 3e c2 79 e4 3c b7 4a 06 3d
       0.044730887 0.19724916 0.02789009 0.032786097
000220 d5 77 61 3d ef b3 ee 3d 14 19 ea bd 83 b0 9e 3d
       0.05504592 0.11655413 -0.114305645 0.07748511
000230 c8 c4 71 bb 0b 48 98 3c c9 ae 40 3d c2 a6 85 3d
       -0.0036890972 0.01858904 0.047041688 0.06525947
000240 ce fa 5d 3e d4 2a 84 bd 46 67 04 be 84 b1 14 be
       0.21677706 -0.06453481 -0.1293002 -0.14520842
000250 0d e4 00 3b 8a 62 b2 3c 0f 62 3b 3d fa a5 ea bc
       0.001966718 0.021775503 0.045747813 -0.028643597
000260 5d dc c1 3d f9 ea 21 bd b2 32 17 be 2d 3a 0b 3d
       0.09465859 -0.039530728 -0.14765432 0.033991028
000270 5a 19 87 3d 0c 8c a6 bd 45 5d bd 3d 77 8e 08 be
       0.06596632 -0.081321806 0.092463054 -0.13335596
000280 ff 9f 98 3c 18 d9 2c be 32 26 2d be e0 4b 02 be
       0.01863098 -0.1687969 -0.16909102 -0.12724257
000290 6c 43 a4 bd 16 82 b6 bb cf ed 19 be a3 7b ab bd
       -0.08020672 -0.0055697067 -0.15032123 -0.08373191
0002a0 4e be ad 3e 35 21 71 3c 45 61 82 bd 56 b5 9e 3e
       0.33934253 0.01471739 -0.06366209 0.30997723
0002b0 b7 6e 1f 3e f9 78 bd bd f7 20 99 3d b9 db 80 3d
       0.15569578 -0.09251589 0.07476991 0.06291909
0002c0 85 b1 89 bc 5f 5f 8b bc c8 a2 8f be 64 08 5e 3e
       -0.01680828 -0.01701325 -0.2805388 0.21682888
0002d0 eb 7b b0 3c 7f 62 20 3e 03 67 92 bd af e2 51 be
       0.021543464 0.15662573 -0.07148554 -0.20496629
0002e0 c9 01 a4 bb 81 20 78 3d d5 bc cd 3d 52 3f dd 3c
       -0.0050050956 0.060577873 0.100457825 0.027007733
0002f0 17 95 61 bd ba cf 8c bd c6 dc e0 bd 66 78 23 bd
       -0.055073824 -0.06875558 -0.10979609 -0.039909743
000300 06 4d 9f bc ef 7c a7 bd 96 4a 6a 3d 1c d5 aa 3d
       -0.019445907 -0.08178126 0.057200037 0.08341429
000310 77 a3 13 bd a3 f9 e4 bd 37 c6 bf 3d 13 96 11 3e
       -0.036044564 -0.11180427 0.09363978 0.14217405
000320 00 3a d0 3d 18 8d 5b bd 1f 4c 08 3e 72 d5 37 3c
       0.101673126 -0.053601354 0.13310288 0.011220323
000330 aa 59 7b 3d 83 83 b2 3d d9 f5 90 3c 10 f7 ff bd
       0.061364807 0.0871649 0.017695354 -0.12498295
000340 47 f2 06 be fd 76 8b be e6 ba 3f bd 22 d9 ab 3c
       -0.13178359 -0.27239218 -0.0468091 0.02097756
000350 1f e5 5b bd 04 a7 0a bd 4e ea 3e 3b 3e d4 7a 3d
       -0.053685304 -0.033850685 0.0029131356 0.061237566
000360 32 c7 c4 3c 7f 9e 8c bd 4b 00 9b bd 63 30 84 bd
       0.024020765 -0.06866168 -0.07568415 -0.064545415
000370 fc ef 59 3d bb 81 86 3c 2c ee 93 bd 0a d0 78 bd
       0.053207383 0.016419282 -0.07223162 -0.060745277
000380 3f 2f d0 3d 57 d6 ed 3c fd f6 ea bd a4 39 08 3e
       0.101652615 0.02903287 -0.114728905 0.13303238
000390 00 0a 2d 3d 27 cd e8 3d 1b ae 1e 3d 48 fe 6a bd
       0.042245865 0.11367255 0.03874026 -0.057371408
0003a0 04 dd ab bd 35 9d 7c 3d 54 c0 32 3c cf d8 8e bb
       -0.08391765 0.06167336 0.010910112 -0.0043593417
0003b0 e9 5b ce 3d 76 a6 88 3d c6 49 d0 bd 6a 48 95 3d
       0.10076124 0.06672375 -0.10170321 0.072892025
0003c0 85 84 46 3c 6a 5f 14 bd 3b c6 83 be d2 ca 82 bd
       0.012116556 -0.036223806 -0.25737175 -0.06386341
0003d0 b9 0c 6d 3d b2 76 20 be 4f 7b ad 3d fe ec f7 bc
       0.05787346 -0.15670279 0.08470785 -0.030264374
0003e0 8d 23 ee 3c b4 06 bb 3d b9 c2 2d 3e 87 66 d8 3d
       0.029069686 0.09132138 0.16968812 0.105664305
0003f0 02 28 99 ba 5e fd 24 bc 9b fb 7e bd 99 95 94 3e
       -0.0011684897 -0.010070173 -0.06225167 0.29020384

cpu f4 [512]
000000 53 60 d9 3d b8 34 fd 3d d1 e4 a8 3d a2 d5 0d 3e
       0.106140755 0.12363571 0.08246768 0.13851026
000010 e5 e8 26 3e f9 be 00 3e 3e 45 b3 3d d4 a8 07 bd
       0.1629978 0.1257285 0.08753441 -0.03311999
000020 8b 7f 93 bc be 14 13 3e 1f f9 d3 3d 0e 7d 52 3e
       -0.018005153 0.14363381 0.103502505 0.20555517
000030 4a f5 fa 3c 89 c0 dd 3d a2 c1 82 3d ea 1b 54 3e
       0.030634541 0.10827739 0.06384589 0.20713773
000040 51 46 10 3e 89 c7 a2 3d 83 ee 85 3c e0 9b 3c 3e
       0.14089324 0.079482146 0.016349083 0.18418837
000050 93 7a 84 3c 0f c7 be bc 78 2a 85 bc 1c 56 f2 3d
       0.01617173 -0.023288278 -0.016255602 0.1183283
000060 ae f8 89 3d 63 bb 48 3e 79 c6 e9 3d 04 20 91 bc
       0.06736885 0.19602732 0.11414809 -0.017715462
000070 a4 04 d6 3d b6 1a 21 3e fc 56 6b bc c8 23 e9 3d
       0.10450104 0.15732846 -0.014364 0.11383778
000080 36 c8 e2 3d c8 0a af 3d 71 22 f8 bc a8 48 ec 3d
       0.110733435 0.08546978 -0.03028986 0.115372956
000090 b7 4e 77 3d b3 c9 a4 3d 2c 0b cc bc 03 48 3c 3e
       0.060377803 0.080462836 -0.02490767 0.18386845
0000a0 23 bc 0e 3e fb 2c a1 3d 0b 9f 8e 3d 1f c0 2a 3e
       0.13938956 0.078699075 0.06963929 0.16674851
0000b0 58 a9 cd bd a6 b3 a7 3d 38 b2 9e 3d 36 c9 96 3b
       -0.100420654 0.08188562 0.07748836 0.004601623
0000c0 af 0e 96 be d6 b4 41 be 72 0a 45 be b0 12 10 3e
       -0.29308078 -0.1891664 -0.19242266 0.14069629
0000d0 e1 fd 47 3d 24 a5 45 bd c3 86 20 3e 1a de 9e 3e
       0.048826102 -0.048253193 0.15676408 0.31028825
0000e0 84 ee ab 3d 59 b0 ea 3d ba 8b bd 3d 17 76 02 3d
       0.083951026 0.11459417 0.09255166 0.0318509
0000f0 9c 7d 5c bd 11 06 84 3d ba c6 bb 3e 21 0a dd 3d
       -0.053830728 0.064464696 0.36675054 0.107929476
000100 a4 ec eb 3d 9d f6 bc 3d 32 90 86 3d 99 7e 25 bd
       0.11519745 0.09226725 0.06570472 -0.040403936
000110 93 d0 87 3d 4c b9 41 3d 96 7a 9e 3d ce 39 1a 3d
       0.06631579 0.047295853 0.07738225 0.037652783
000120 80 5d 38 3d 7b cb 8f 3d fb 8c 09 3e c0 d9 98 3d
       0.045011044 0.07021233 0.13432686 0.074634075
000130 55 94 6b 3d 9d b0 80 3c 8e 0e 4c 3d 86 2d 07 3d
       0.057514507 0.015709216 0.049818568 0.0330024
000140 35 f8 04 3e 83 b7 b8 3c fc d1 90 3c 4c d7 b7 3c
       0.12985308 0.022548443 0.017678253 0.022441529
000150 f6 7d 0c 3d bc 91 04 3e 92 97 7e 3b bc 6d 6c 3d
       0.034299813 0.12946218 0.0038847667 0.05772184
000160 d8 87 ee 3c 32 ca 0d bd d0 77 c0 3d 3f bf b0 3d
       0.02911751 -0.034616657 0.093978524 0.08630227
000170 84 3b 28 bd d2 b0 9a bd c6 9f 36 be 0e 0f f1 3d
       -0.041072384 -0.07553257 -0.17834386 0.117704496
000180 45 c8 63 3e 14 73 8d 3e ed 9a 8a 3e eb 35 f8 3c
       0.22244366 0.2762686 0.27071324 0.030299148
000190 f1 62 e3 bc 51 a4 40 3c d9 cb db 3e 25 fa aa 3d
       -0.02775714 0.011757926 0.4292896 0.083484925
0001a0 f2 08 78 3d a1 2b fe ba f3 27 37 bb 1f 92 f3 3e
       0.060555406 -0.0019391665 -0.0027947396 0.4757242
0001b0 c4 a2 08 3e 8e 5d bc bd 5e 8e 05 3d e8 d0 14 bd
       0.1334334 -0.09197532 0.032606475 -0.03633204
0001c0 54 46 da 3c c9 eb c8 3c 64 43 16 3e 82 67 80 3b
       0.026644863 0.024526494 0.14674145 0.003918589
0001d0 73 92 ad bc 0d 7b 65 3c ec f1 86 3e aa 30 c0 3d
       -0.021187996 0.014006388 0.26356447 0.09384282
0001e0 58 3c c8 3d 53 f7 0f 3d 9b 87 5d 3d 25 97 04 3e
       0.09777135 0.035147976 0.0540844 0.12948282
0001f0 a3 b0 04 3d d2 8c cc 3d 7f a3 fa 3c ff b3 34 3d
       0.032395016 0.09987797 0.03059554 0.04411697
000200 a0 b7 32 bd e7 6d b6 3d 1d c6 33 bd 4f 83 99 bd
       -0.04363215 0.08907681 -0.043890107 -0.07495748
000210 6a eb 60 be 48 03 e8 3d 37 21 90 bc cf 88 33 3c
       -0.21964803 0.11328751 -0.017593963 0.010957911
000220 f1 dd 23 bd cb 65 9a bd 4f d0 da bd 8b 86 ee bd
       -0.04000658 -0.07538947 -0.10684263 -0.11646756
000230 2f 47 58 bd 53 45 bf 3d 10 ce 1b be e5 b8 44 bd
       -0.05280226 0.093393944 -0.15215325 -0.04802789
000240 27 cd 94 bd 2f 2a 18 be e2 00 0d 3d ff 28 20 bd
       -0.07265692 -0.14859842 0.03442467 -0.039101597
000250 d8 84 39 3d 4f 29 8e bc 83 ef b2 3b ca f8 5a 3b
       0.045292705 -0.017353682 0.005460681 0.003341245
000260 10 ce a2 3d 1a 48 0c 3e c7 74 c0 3b 5b d7 25 3e
       0.079494596 0.1369938 0.005873296 0.16195433
000270 bd 01 31 bd 10 ce 86 3d 38 63 f4 3d bb 3a 11 3d
       -0.04321455 0.06582272 0.11932987 0.0354564
000280 28 5b 27 bb 68 92 24 bd 78 44 44 3d 22 02 17 be
       -0.002553651 -0.040178686 0.04791686 -0.14746907
000290 2c 8f 7e 3d 5a 61 ad 3d 42 13 2b bc 19 83 55 3d
       0.062148258 0.08465834 -0.010441603 0.052126978
0002a0 19 45 91 bc 3c 7e 28 3e 2a 3d 8b 3c bc 1c f1 3d
       -0.017733144 0.16454405 0.016996939 0.11773059
0002b0 51 c0 17 3e 26 3f a5 bc e7 0c 1d bd 69 46 84 3b
       0.14819457 -0.020171713 -0.038342383 0.004036714
0002c0 0d 9c 9a 3e 4c 10 39 3e 93 a4 80 3d 9f de 4d bd
       0.30197182 0.18072623 0.0628139 -0.050261136
0002d0 e7 e7 0c 3e f3 b8 7b 39 e1 1d 52 be ac 51 27 bd
       0.13760339 0.00024006124 -0.2051921 -0.040849373
0002e0 d3 05 56 3c 88 72 0b 3e c5 8c 68 3e 96 b7 0e be
       0.013062912 0.13617909 0.2270995 -0.1393722
0002f0 f8 67 41 3e 5e 91 9c bc 2b 95 ef 3d d0 62 37 bd
       0.18887317 -0.019112285 0.116983734 -0.04477197
000300 2e 07 80 bd 27 ed 01 3d f2 f8 34 3e 4f 1c 73 bd
       -0.062513694 0.031720307 0.1767309 -0.05935317
000310 f7 1d 70 bd 71 aa 16 3e 2e 51 f0 bb 10 24 2b bd
       -0.058622327 0.14713456 -0.007333896 -0.04178244
000320 df b0 e1 ba e1 1c 87 bc c8 80 66 bd f3 16 a5 bd
       -0.0017218849 -0.016493263 -0.05627516 -0.08061018
000330 2e 3f ae 3d 6f cc 2f 3a 21 db 0c be 73 13 7a 3d
       0.08508144 0.0006706183 -0.13755466 0.061053704
000340 fa b6 68 3d f7 7f c0 3d 42 3c 98 3c d9 70 48 bd
       0.056815125 0.09399407 0.01858342 -0.048935745
000350 b7 69 02 bd 08 12 d8 3c 21 17 e9 3b f1 fa 51 3d
       -0.0318391 0.026375785 0.007113353 0.051264707
000360 e2 08 b9 bd c8 55 2b bc cf d2 24 be 7e 7a b1 3d
       -0.090348974 -0.010457464 -0.16096042 0.08665942
000370 8e 5e 05 3d c9 e2 f3 3d 57 15 f9 bd 25 73 43 3d
       0.032560878 0.1190849 -0.121622734 0.047717232
000380 09 78 0e be d4 f7 da 3d ee 43 8b 3c b5 40 8b 3d
       -0.13912977 0.10691801 0.017000165 0.06799451
000390 75 04 a5 bd 36 da 9c bc 3e 09 c9 3d ae 0e 0c bd
       -0.08057491 -0.01914702 0.09816216 -0.034193687
0003a0 35 18 97 3d db cc 00 3d 07 30 d5 bd 98 c5 9b 3d
       0.07377664 0.031445365 -0.10409551 0.076060474
0003b0 ad 8e fc bc 2a 70 9d 3d 7a 29 38 3c 5f 8a 53 3d
       -0.030829752 0.07687409 0.0112403575 0.051645633
0003c0 fa 72 95 bc fe 62 e0 bd 1e 0e 59 3d 0c 53 9e bd
       -0.018243302 -0.10956381 0.05299198 -0.07730684
0003d0 6d 7c 1e 3c bd 5a 60 bd 81 32 1c 3e 79 a4 63 be
       0.00967322 -0.054774035 0.1525364 -0.2223071
0003e0 8f 19 57 3e 65 78 d7 bc 74 f2 f5 bc fb 9c fc bd
       0.21005844 -0.026302526 -0.030022837 -0.12334629
0003f0 b4 be 9c bd 7b 96 b4 3d 37 df 5b bd ea a4 e3 3c
       -0.07653561 0.08817764 -0.05367967 0.027788598

cpu f4 [512]
000000 8e f9 c9 3c c3 90 6b 3d e6 25 8d bc 6d 56 21 3e
       0.02465513 0.057511102 -0.017229985 0.15755625
000010 1a d9 0c 3e fd 78 5f 3d f9 a4 90 3d 37 1a fa ba
       0.13754693 0.054558743 0.07062716 -0.0019081299
000020 69 dc f5 3d 0d 63 54 3d c9 57 c3 3c 96 f0 39 3e
       0.120049305 0.051852275 0.02384557 0.18158183
000030 0c 1f 37 3b e1 06 2a 3e 72 32 65 3d 8e 72 8c 3e
       0.002794209 0.16604187 0.05595631 0.27431148
000040 82 ef 1f 3e b6 1c 9a 3d b5 52 2f 3e ad 54 f7 3d
       0.15618709 0.075250074 0.17121394 0.120766975
000050 65 af 00 3e 18 2a 9b bd 28 e9 8a bd 6a bc 1e 3e
       0.12566908 -0.07576388 -0.06782752 0.15501562
000060 c7 fc 9c 3d 7d 46 89 3e a4 05 07 3e 3a 1d 4c bd
       0.07665401 0.2681159 0.13185745 -0.04983256
000070 ce 14 05 3d 58 62 02 3e 0b f2 9b 3d 2b 7e cd 3d
       0.032490544 0.12732828 0.076145254 0.1003383
000080 e7 8a 5f 3d a5 de a5 3c cd 05 87 bd 52 ac 93 3d
       0.054575827 0.020247767 -0.06592903 0.07210602
000090 f7 15 13 3e a9 45 0f bc cf 3c bc 3d b1 c3 2f 3e
       0.14363848 -0.008744636 0.09191286 0.17164494
0000a0 7c e2 0f 3e 17 eb 33 3e b4 87 e2 bc 37 02 8e 3d
       0.1405124 0.17570148 -0.027652599 0.06934016
0000b0 38 07 08 be c0 14 d4 3d 86 08 cb 3d 30 0e ae bc
       -0.13284004 0.1035552 0.09913735 -0.021247
0000c0 71 2d 92 be 04 9d 23 be b0 b6 bd bd 6d 7d 24 3e
       -0.28550294 -0.15977865 -0.092633605 0.16063471
0000d0 d9 a2 a2 3d 87 c4 64 bd ad 3a 7e 3d a4 20 89 3e
       0.07941217 -0.055851486 0.062067676 0.26782715
0000e0 23 73 c4 bc 24 ab a3 bc 2a 04 93 3d 3b c4 99 3d
       -0.023980683 -0.019979067 0.071785286 0.07508131
0000f0 58 18 3c 3d e2 5a 8d 3d 72 f6 89 3e ed cb 8e 3d
       0.045921654 0.069021 0.26945835 0.069724895
000100 32 6f 36 3e 99 a9 84 3d 91 35 a3 bd bf c6 8d 3d
       0.17815855 0.06477661 -0.07969201 0.069226734
000110 ea 03 02 3d ad 6c 1d 3e 1a 6c 1e 3d e3 b6 53 3d
       0.031742014 0.15373488 0.038677312 0.051688086
000120 82 a1 d1 3d 3b b9 f7 3b b2 38 4a 3d 7d 72 b3 bc
       0.10235883 0.007559923 0.049370475 -0.021905178
000130 01 ca cb bc 06 01 74 3d 00 84 18 3e e4 bd 41 bb
       -0.024876596 0.05957129 0.14894104 -0.0029562647
000140 39 d1 3f 3e 29 4b 87 3d c8 46 a3 3d 78 65 84 bd
       0.18732156 0.066061325 0.07972485 -0.06464666
000150 a7 19 b7 3d 45 70 ff 3d 4b e3 79 3b 42 b4 b1 ba
       0.0894044 0.124725856 0.0038129862 -0.0013557749
000160 bc b8 e4 3c da 68 90 3d 36 33 fb 3d d7 a5 b5 3d
       0.02792012 0.07051249 0.12265627 0.08869522
000170 7f ba 89 3c 57 ae 88 bd 68 74 21 be 56 2b 97 3c
       0.016812561 -0.06673878 -0.15767062 0.018453281
000180 f3 e0 71 3e c1 68 5f 3e 07 77 55 3e a9 49 e3 bd
       0.23620968 0.21817304 0.20846187 -0.11098034
000190 01 6b ff bd fb 64 98 3d f3 96 d0 3e cf 87 3c 3d
       -0.12471581 0.074411355 0.40740165 0.046027955
0001a0 7f 18 73 3d 1c 7c aa 3d 71 61 2a bd 7e 40 a8 3e
       0.059349533 0.08324453 -0.041596834 0.32861704
0001b0 fc 20 8f 3d 48 0a 25 bd 35 f3 90 bc f4 22 08 bd
       0.06988713 -0.040293008 -0.017694095 -0.03323646
0001c0 56 16 c2 3d 8e b2 3d 3d b1 f7 43 3e 8f c8 a3 3d
       0.094769165 0.04631286 0.19137456 0.07997238
0001d0 3f 10 e6 3d 92 0a 64 3d 5c bc 81 3e 2a 51 3e 3d
       0.112335674 0.055674143 0.2533902 0.046464123
0001e0 64 39 50 3e 9f 87 25 3e e7 28 83 3d 99 75 32 3e
       0.20334393 0.16165017 0.06404286 0.17427672
0001f0 91 9f 8a bc 9c 4c 85 bc d6 34 05 bd 34 77 0c 3d
       -0.01692179 -0.016271882 -0.03252109 0.03429337
000200 b9 ff 6e bb 7c 82 89 bc d9 0b 64 3d 2a 65 68 bd
       -0.003646834 -0.016785853 0.05567536 -0.056737103
000210 1e 61 9a bd a2 81 21 3d b3 37 a1 bd 82 68 44 3d
       -0.07538055 0.039430268 -0.07871952 0.04795123
000220 72 5d 5a 3c d6 72 12 be 57 e1 aa bc 23 ec 23 be
       0.013327943 -0.14301619 -0.020859404 -0.16008048
000230 7e ac bc bd 9a f4 66 bd 7c 6b 23 be f9 98 40 be
       -0.09212588 -0.056385614 -0.15958971 -0.18808354
000240 4d 01 10 be d7 18 05 be b0 65 a0 bc 46 6c 8d bc
       -0.14062996 -0.12997757 -0.019579738 -0.017263543
000250 6e ef 23 bc 4a 5b aa bb 05 25 ab bd c7 ef e2 bc
       -0.010005815 -0.005198871 -0.0835667 -0.027702225
000260 51 ed d8 3c 7c b1 a1 3d 8e 0b d1 3d 9f a9 64 3e
       0.026480349 0.078951806 0.10207282 0.2233033
000270 e8 5a 15 3a 9c 08 50 3b bb 21 9a 3d a9 cf dd bd
       0.0005697445 0.0031743413 0.07525965 -0.10830624
000280 f9 3a b0 3d c8 d5 16 3d 13 9c 32 3e 8a 2f 7f be
       0.08604998 0.03682497 0.1744235 -0.24920478
000290 ab 79 18 bd b0 67 fa 3d 4c cb da 3d b6 b1 1e 3e
       -0.037225407 0.12226808 0.10683307 0.15497479
0002a0 58 d6 e4 bb c0 b3 c9 3d b5 c9 51 bd 76 ca de 3d
       -0.0069835596 0.09848738 -0.051217753 0.1087846
0002b0 11 35 55 3e 4a 39 60 bd 9f 92 46 bd b9 e5 99 3b
       0.20821024 -0.054742135 -0.048479673 0.0046965745
0002c0 62 5e 1b 3e 66 67 81 3e c8 bb 8f 3c 21 e6 d8 ba
       0.15172723 0.252742 0.017545596 -0.0016548076
0002d0 10 58 8e 3d 3f e5 29 3d b9 e2 da bd 31 60 f7 3d
       0.0695039 0.04147839 -0.10687775 0.12078894
0002e0 42 4f 3e bd 0d eb 81 3d 4e f7 f5 3d 7e bd 45 3c
       -0.046462305 0.063436605 0.1201006 0.012069104
0002f0 3f 32 6c 3e 90 d1 b1 bd 6a ad 1a 3e 50 1d 0d be
       0.23066042 -0.08682549 0.15105215 -0.13780713
000300 f4 a9 04 bd 8b a4 27 3d 47 1a c5 3d 5b 54 48 bd
       -0.032388642 0.040928405 0.09624153 -0.048908573
000310 2e aa ee bd fb 10 23 3e 6e 37 b0 bd db dc 18 3d
       -0.11653553 0.15924446 -0.086043224 0.03732
000320 ff 28 02 3e ad 64 4c bd 18 df bb bd 3e 6a 87 bd
       0.12710951 -0.0499007 -0.09173411 -0.06612061
000330 8d 1e 1a 3d 25 ff e5 bd 32 5a aa bd 4d ab 7f 3c
       0.03762679 -0.112303056 -0.08317985 0.015604806
000340 37 06 27 3e 53 24 3e 3d 5a a5 1a 3c 5c 59 46 bd
       0.16310965 0.04642136 0.009438837 -0.048425063
000350 50 82 11 bd 59 42 5c bd c1 7b b0 3d b0 83 33 bc
       -0.035524666 -0.05377421 0.08617354 -0.01095669
000360 74 47 4d bc b0 e2 e3 bc 84 bf d7 bd 33 81 d4 3d
       -0.012529243 -0.027818054 -0.105345756 0.10376205
000370 c6 6e bd bd 1f 09 b8 3d 37 a0 37 bd aa 3b 0d 3b
       -0.09249644 0.08986115 -0.044830527 0.0021550455
000380 9b 36 61 bd 03 2c 08 3e 64 3a 23 3e 40 a1 88 bd
       -0.054983716 0.13298039 0.15940243 -0.06671381
000390 91 7f 56 be 61 aa 59 3d a9 5f b5 3d a5 ca 92 bb
       -0.209471 0.053141 0.08856136 -0.0044797235
0003a0 da 45 26 3e 5b e8 12 3e 13 ba 77 bd 38 ef 9d 3d
       0.16237584 0.14346449 -0.06048019 0.07711643
0003b0 f2 7d 7c 3d 3e 41 a3 3d 52 1a a8 bd 4a 84 27 3e
       0.06164355 0.07971428 -0.08208145 0.16359058
0003c0 f9 9b 30 bd 91 73 cc bd 02 6e 07 3d bf 83 54 be
       -0.043117497 -0.0998298 0.033063896 -0.20753382
0003d0 67 6a 85 bd 19 35 3a bd 1d 64 62 3e 2e 4b 5b be
       -0.06514435 -0.045460794 0.22108503 -0.21415398
0003e0 42 1f 06 3e c6 e0 c5 3d d2 c4 41 bd 42 fe f8 bd
       0.13097861 0.09662013 -0.047306843 -0.12157871
0003f0 b5 45 0b bd 0b 32 d5 3d 6b ab e1 bd e2 5d a4 bd
       -0.034002025 0.104099356 -0.110190235 -0.08025719

cpu f4 [256]
000000 f8 0d b1 bc a1 3c 28 3e cb a4 3e 3e 11 fe 19 3d
       -0.021613106 0.16429378 0.18617551 0.037595812
000010 da b7 8c bc 6e d5 16 3e fd 7c bd 3d 91 3a e5 3d
       -0.017177511 0.14729854 0.09252355 0.11192811
000020 cf fe ee 3c a3 d0 96 3c 42 78 62 3d cc 52 5a 3d
       0.029174237 0.018410033 0.055290468 0.053301618
000030 14 53 2c 3e 76 8c 8b 3d 82 4a ff bb 41 3b 4d 3b
       0.16828567 0.068139 -0.0077908644 0.0031315836
000040 9a 4f 01 bd 51 7b 25 be f2 52 40 3e 05 5a c6 3d
       -0.031570055 -0.16160323 0.18781641 0.096851386
000050 e3 b2 cd 3e 21 c1 7b bb 64 21 24 38 b8 c4 1e 3e
       0.40175542 -0.0038414674 3.9131744e-05 0.1550473
000060 25 1a b3 3d c9 72 39 3e 3b 45 d7 bc 34 b7 1a 3e
       0.08745221 0.18110193 -0.026278129 0.15108949
000070 18 57 7e bd 25 cf 5c 3e 3b ed 84 3d 69 31 08 3e
       -0.062094778 0.21563394 0.064905606 0.13300098
000080 ff 92 13 3e 58 bc db 3d 9b a0 22 3e 5d 63 4e 3e
       0.14411543 0.10729283 0.15881579 0.20155092
000090 b1 57 3d bd cb f6 de 3d 93 65 94 3d 54 c7 5f 3d
       -0.046226207 0.10886916 0.07245936 0.054633453
0000a0 74 7e 71 3e 74 cd cb bc 90 38 f4 3d f8 ab 2a 3e
       0.23583394 -0.024878241 0.11924851 0.16667163
0000b0 82 56 ef bd 46 4d 38 bd ea cd bf 3d e2 92 eb 3d
       -0.11686422 -0.04499557 0.09365447 0.11502625
0000c0 4a 95 30 3e 7b 4f 1f 3e b2 13 29 3e 21 0d 30 3d
       0.1724445 0.15557663 0.1651142 0.04298127
0000d0 ef 26 cb 3c b2 b5 a9 bd a8 a5 e9 3d ba 62 8a 3d
       0.024798838 -0.08286609 0.114085495 0.06757112
0000e0 8e 93 f8 bc 35 72 cc bb 42 93 d1 3d 6e 3c 46 3e
       -0.030343797 -0.0062392005 0.10233165 0.1935899
0000f0 a9 08 37 3d b7 11 f9 3d 1c fb 1c 3e 74 a1 15 be
       0.044685993 0.12161582 0.15330166 -0.1461237
000100 73 14 a3 bd a0 a8 ea 3d 34 68 4e 3e 0f 20 db 3d
       -0.07962885 0.11457944 0.20156938 0.10699474
000110 76 b2 9c bd 1f 21 a7 bd 23 f5 d3 bd 0d 5c 82 bd
       -0.07651226 -0.08160614 -0.103494905 -0.063652135
000120 ad 87 72 3d 14 d6 06 bd cb 88 b1 3d cf aa b3 bc
       0.05921142 -0.032919005 0.08668669 -0.021932034
000130 0a 30 c1 bc 4d 2c d5 bd b4 ad bc bd 8d 09 2c bd
       -0.023582477 -0.1040884 -0.09212819 -0.042001296
000140 ba e2 c2 bd ea d0 ba bd 78 f7 de bd 61 92 20 3d
       -0.09515901 -0.091218784 -0.10887045 0.039202098
000150 ea d6 79 bd 9b e9 8d 3d 5e 80 eb 3c 8b de 95 3c
       -0.060995974 0.06929322 0.028747734 0.018294593
000160 3c cd f0 bd d7 6b 02 3e 8f 97 c2 bc 3e e8 6a bd
       -0.11757895 0.1273645 -0.02375391 -0.05735039
000170 14 bc bd 3d 09 0c f0 3d 6e ba ad 3d 29 77 01 3e
       0.09264389 0.117210455 0.08482824 0.12643112
000180 78 2e 00 be c8 3d 19 bd 6f c2 d4 bd cc d8 eb bd
       -0.12517726 -0.037412435 -0.10388648 -0.1151596
000190 e3 2d 68 bd 79 ab ab 3d 5c 1a f3 3d 54 5f 59 bc
       -0.056684386 0.08382315 0.11870262 -0.013267357
0001a0 bd a5 42 3d 1a 94 c2 3d c5 09 86 bd cd 16 d9 bd
       0.04752134 0.095009044 -0.06544832 -0.10600052
0001b0 bb 9f 47 bc 6f b8 d9 3d 54 85 7f bd 9e fa e1 3d
       -0.012184079 0.10630881 -0.06238301 0.110341296
0001c0 8d 09 f4 3c 22 37 d8 bd c8 22 ba bb 35 65 db bc
       0.02978971 -0.10557391 -0.005680416 -0.026781658
0001d0 e5 22 18 bd a4 70 bf 3d da 5a 80 bd a3 88 0d 3d
       -0.037142653 0.09347656 -0.062673286 0.034554135
0001e0 22 30 ce 3d e7 67 88 3c 14 46 19 be fd 99 89 3d
       0.10067774 0.016651107 -0.14968139 0.06718824
0001f0 84 d5 a3 bd 63 c6 d6 bd cc e6 da 3d 49 95 2f 3c
       -0.07999709 -0.10487058 0.10688552 0.010716745
000200 ce de bd bb 93 7f c0 3d 1d ab 5d bd b0 43 91 bd
       -0.0057943827 0.09399333 -0.054118264 -0.070929885
000210 ec 3e ef bc aa a9 11 bd 94 a4 68 bc d3 c4 11 3d
       -0.029204808 -0.035562195 -0.014199395 0.035588097
000220 13 03 17 3d 1c 60 11 be db 3a 2e 3b 08 10 f8 3c
       0.036868166 -0.14196819 0.0026585374 0.030281082
000230 6a 7b b9 bd 44 d4 6a bd b7 71 44 3d b6 1d 9f 3d
       -0.090567425 -0.05733134 0.04796001 0.07769339
000240 1d 1d cb bd da da a1 3d 22 3d 84 bb 4d 2c 25 3e
       -0.09917662 0.07903071 -0.004035608 0.1613018
000250 04 fb d6 3d dc 22 9c 3d ca 13 8b 3d f2 49 00 bd
       0.10497096 0.076238364 0.06790884 -0.03132052
000260 d3 8b 85 bd 21 4e 78 3c 47 45 9b 3d 14 f6 a5 3d
       -0.0652081 0.015155346 0.07581573 0.08103576
000270 c5 1d 04 bd b4 95 90 3d a9 21 05 be 8a da f9 bd
       -0.032254953 0.070598036 -0.13001122 -0.12199886
000280 88 e0 fa bd 02 a0 da bc a8 a9 e6 bc 22 97 c9 bd
       -0.12249857 -0.026687626 -0.02815707 -0.098432794
000290 74 08 e4 bb a5 98 83 bd fa 3a 3f bd c6 d3 90 bd
       -0.0069590155 -0.06425599 -0.046687104 -0.070716426
0002a0 8f ee d9 bc 43 eb 84 3d 53 76 7f 3d f0 55 b6 bd
       -0.026603011 0.06490185 0.062368702 -0.0890311
0002b0 09 e8 ba bc b6 0d c5 3d 6f ce a9 3d 2c b0 b4 3c
       -0.022815721 0.09621756 0.08291327 0.022056662
0002c0 7c d5 f4 3d a5 0f 95 3d 39 63 c6 bc 5e 68 55 3d
       0.119547814 0.072783746 -0.024217235 0.052101485
0002d0 cf be a6 bd e2 28 6e bd 95 60 72 3d e8 c3 98 3c
       -0.081418626 -0.058144458 0.05917414 0.018648103
0002e0 80 4f 01 be 70 c2 9d 3d 1a 88 0b be bd 9d 09 bd
       -0.12627983 0.07703102 -0.13626137 -0.033597697
0002f0 d2 3c b1 bd 1f da 1d bc 52 c3 b1 bd 7e 21 b4 3c
       -0.08654179 -0.009634524 -0.086798325 0.021988627
000300 a1 4b 90 3d 9a 35 b9 ba 7c 0e b9 3c 87 2e 6d 3c
       0.07045675 -0.0014130354 0.022589915 0.014476425
000310 99 35 3b 3e da c5 34 3e 93 83 6d 3e d1 12 7a 3d
       0.18282165 0.176536 0.23194723 0.0610531
000320 22 bd ef 3d 60 70 b3 3d 35 60 24 3e 71 38 17 3e
       0.11705996 0.08761668 0.16052325 0.14767624
000330 3f 2d 89 3d a2 48 9b bd c4 d8 70 3e 33 de 25 3b
       0.06698083 -0.07582213 0.2352019 0.0025309443
000340 9e 62 ea 3d da fa f4 3d 56 9e 03 3e 5b 3c c6 3d
       0.11444591 0.11961909 0.12853369 0.09679481
000350 23 07 30 3e 51 4c 1d 3d 75 43 e3 3d 90 18 27 3e
       0.17190222 0.03840286 0.11096851 0.16317964
000360 ea a0 db bd 17 21 6e 3d 87 d7 9c 3d 62 92 df 3d
       -0.10724051 0.058137026 0.07658296 0.10916592
000370 05 5e 08 3e d9 a5 5e bc 90 c5 e9 bd dd 99 b2 bd
       0.13317116 -0.013589346 -0.11414635 -0.08720753
000380 38 8e 31 3d b3 ae f9 3d 25 06 be 3d 53 e7 9a bd
       0.04334852 0.12191524 0.09278516 -0.07563653
000390 ec 0b af 3d 71 84 9b bc 6c c9 28 3e 86 63 10 bd
       0.08547196 -0.018984051 0.16483086 -0.035251163
0003a0 34 42 18 3e 42 9d d3 3c 6b 00 98 3d cc 7e 91 3c
       0.14869004 0.025831822 0.07421955 0.017760657
0003b0 39 16 e8 3d af 7a b5 3d 8c d9 e8 3d f6 92 60 3e
       0.11332364 0.08861291 0.11369619 0.21931061
0003c0 bb d5 33 3e 2d 74 0e 3e 6c 60 4e 3e a6 ab ea 3c
       0.17562 0.13911505 0.2015397 0.028646301
0003d0 a0 b4 21 3d ca 2f a3 3d c8 62 24 3c 44 e2 ba bd
       0.039478898 0.079680994 0.010033317 -0.09125188
0003e0 e0 da 4f bc 51 de 3c bc 29 6b 21 bd fd c1 a2 3d
       -0.012686461 -0.011527614 -0.039408837 0.079471566
0003f0 03 13 a5 bd 66 37 28 3e e1 3f 0a 3e 3a 0e 8d 3d
       -0.08060267 0.16427383 0.1350093 0.06887479

cpu f4 [256]
000000 ea f8 be bd 51 ce 8e bd 66 fb 43 bc 0f b4 56 3d
       -0.0932482 -0.069729455 -0.0119617935 0.05241781
000010 7a 20 f6 3d d6 94 cf 3d 90 07 8d 3d 5b 94 4f bb
       0.12017913 0.1013581 0.06886208 -0.003167412
000020 fc 0a 2b 3d 86 3e a2 3c cd 98 46 3e 87 ca 55 3d
       0.041758522 0.019805204 0.19394226 0.0521951
000030 44 22 2e 3e 7f 91 1d be 7f 52 1e 3e 1b 38 cf 3d
       0.17005259 -0.15387534 0.15461157 0.10118123
000040 91 a7 bf bd 6e ca 03 be c9 63 0c 3e 3c 00 c6 3c
       -0.09358133 -0.1287019 0.1370994 0.024170034
000050 e4 60 61 3e c1 1b e2 3d af 09 ef bd 02 29 94 bb
       0.22009617 0.1104045 -0.11671769 -0.00452149
000060 1b 2a b5 bd 43 5a 29 3d 2f 56 ea 3d ad e3 22 3c
       -0.088459216 0.041345846 0.114422195 0.009941977
000070 c7 a6 86 bb f6 8c 65 3e 96 fc e6 3d ac 95 ff bc
       -0.004109237 0.22417054 0.11278646 -0.031199299
000080 0e 81 a3 3c 97 9b 2b 3e 06 52 0d 3e 2a 54 39 3e
       0.019958999 0.16758572 0.1380082 0.18098512
000090 8c 9b 91 bd 93 33 33 3e 7d fd a8 bc e8 d9 f0 bd
       -0.07109746 0.17500143 -0.020628685 -0.11760312
0000a0 dc 7c bd 3d b5 9a 3d bd 18 e7 d5 bd f6 32 55 bb
       0.09252331 -0.04629012 -0.10444468 -0.0032531596
0000b0 b5 f5 c4 bd 73 3b 0d bd 84 47 f7 3d 4f 87 60 3e
       -0.096171774 -0.034480523 0.120741874 0.21926616
0000c0 19 14 b8 3d 5f 6c 35 3e f0 18 fc 3c 17 31 1e 3d
       0.08988208 0.17717122 0.03077361 0.038621034
0000d0 dc 9b 3d bb 01 b5 2a bc 88 68 52 bd 0f 2d 45 3c
       -0.002893201 -0.010419131 -0.05136922 0.012034669
0000e0 55 6f b0 3d cd 53 e1 3d 2a 3b 5f 3d fe a1 25 3d
       0.08614985 0.11002312 0.054499783 0.04043769
0000f0 33 b2 44 bb 77 81 c1 3c fc 96 61 bb a7 82 dd bd
       -0.0030013442 0.023621304 -0.003442227 -0.108159356
000100 f8 8e 05 3e cd 7f 75 bd e8 68 e9 3d 28 5d 55 3d
       0.1304282 -0.059936333 0.113969624 0.052090794
000110 95 d7 70 bd bd d6 d3 bd 52 52 07 be 99 7d 57 3d
       -0.058799345 -0.103436925 -0.13214996 0.052610014
000120 6a c3 87 bd f9 6c 94 bd a5 e1 8e 3c bf b2 1f 3d
       -0.06629069 -0.072473474 0.01744158 0.038988825
000130 9f 7f 81 bd 69 ed e9 3d b2 8a c1 bc c6 1a df 3b
       -0.0632317 0.114222355 -0.023625705 0.0068086116
000140 59 3d 7e 3d a3 8e cb bc c2 b0 91 bd e3 eb a4 bd
       0.062070224 -0.024848288 -0.07113792 -0.08052804
000150 09 2b 7c 3c b5 98 06 be 12 4f fb bc 91 6e 79 bd
       0.01539112 -0.1314419 -0.030677352 -0.06089646
000160 2b 0e b6 3d cb 5b 84 bd b6 56 a8 bc 82 f5 40 3d
       0.08889421 -0.064628206 -0.02054916 0.047109134
000170 41 83 34 3d 5e b7 00 3e 9e 0e d9 3d a9 16 0a 3e
       0.044070486 0.12569949 0.10598491 0.13485207
000180 61 7c ff bd e3 c9 da 3c 0f 89 c4 bd f8 0b 1c 3d
       -0.12474895 0.026707595 -0.09596454 0.03809735
000190 a8 2f 9a bc e6 af 36 bd 5f 4f 3b bc 01 9a e6 3d
       -0.018821552 -0.044601344 -0.011432498 0.11259843
0001a0 32 a1 02 be f3 e0 b8 3c b4 0b 24 3d b6 ef 82 bd
       -0.12756804 0.022568202 0.040050223 -0.063933775
0001b0 37 2c 82 3d 9a 13 33 3d ee 27 b9 3d b0 60 4a bc
       0.063560896 0.043719865 0.09040819 -0.012352154
0001c0 2b e5 17 3c 75 60 06 be d6 d9 5c 3d 56 50 bf bd
       0.0092709465 -0.13122733 0.053918682 -0.09341495
0001d0 7c 11 3f bd 38 d8 03 3d 0d 83 ae ba 2f 91 9c bc
       -0.046647534 0.032188624 -0.0013314203 -0.019112198
0001e0 54 c6 5d 3d 6f e6 d0 3d 15 ca 5e 3d ba d0 95 3d
       0.05414422 0.10200202 0.05439194 0.07315202
0001f0 ca e5 ea bd b3 af d1 bd 3c 11 01 3e 8b 53 a0 3d
       -0.1146961 -0.1023859 0.1260423 0.078284346
000200 02 6e 25 be 5f de 10 3e a2 fd 0e be 3a 4d b9 bc
       -0.16155246 0.14147328 -0.1396394 -0.022619832
000210 29 e7 cf bd cc 0e 1d be c5 c1 59 3d a1 e8 04 3e
       -0.10151512 -0.15337676 0.05316331 0.12979366
000220 a0 2e d8 bb ca 6a fe bd ac a2 92 3d 93 8e 09 3c
       -0.006597355 -0.12422712 0.071599334 0.008395809
000230 a2 52 2a 3d b5 fb ca bd b8 07 8d 3d a2 12 00 3e
       0.04158271 -0.099112906 0.06886238 0.12507108
000240 1d 30 4b 3b d5 43 7c 3d 12 c7 0a 3e e5 e0 6c bd
       0.003100402 0.061588127 0.13552502 -0.057831664
000250 88 61 cc 3d 0c 69 68 bd 16 d1 51 3d fa 46 02 3d
       0.0997954 -0.056740806 0.05122479 0.03180597
000260 18 6f 61 3c a3 f5 36 3d 84 3d f4 bb 47 85 43 3d
       0.013759397 0.04466785 -0.0074536223 0.047734525
000270 c8 db 26 be c4 27 02 be e4 42 5b 3d fb 07 9e bd
       -0.16294777 -0.12710482 0.05353059 -0.07716366
000280 25 4a 55 3d ef 1a aa 3d b2 50 88 b8 2e 66 c8 bd
       0.052072663 0.083059184 -6.500016e-05 -0.09785114
000290 e2 ce 6c 3d 11 b4 95 3b 41 62 b2 bd 69 c5 aa bd
       0.057814486 0.0045685847 -0.08710147 -0.08338434
0002a0 78 61 02 3d e7 4e ef 3d 64 c2 d0 3d 79 a5 a8 bb
       0.031831235 0.11684971 0.10193327 -0.005146679
0002b0 91 f8 19 be f5 00 71 3d b4 12 8c 3d b5 c0 ab bd
       -0.15036227 0.058838803 0.06839505 -0.08386365
0002c0 7d 34 8f bc f1 49 73 3d f2 e5 0a 3e ff f0 63 bd
       -0.017481083 0.059396688 0.1356428 -0.055649754
0002d0 d4 74 08 bd 3f 6c d3 bd 83 6e eb 3c 34 29 47 bd
       -0.03331454 -0.10323381 0.02873922 -0.04862328
0002e0 62 5e 23 be aa cf 08 3e 54 9e 1e bc 60 8d cc 3c
       -0.15953973 0.13360468 -0.009681303 0.024969757
0002f0 d4 b7 98 bd e4 3c 3a 3d 6e d4 c9 bd 1e 9b 24 be
       -0.074569374 0.045468226 -0.09854971 -0.16074798
000300 08 0d 9b bc 11 20 39 3e 3e 4f b2 bd 2e 1b 2b 3e
       -0.018927112 0.18078639 -0.087065205 0.16709587
000310 e1 c8 5f 3e 18 7d 70 3d 29 85 9f 3e 62 fc ca 3d
       0.21853973 0.05871305 0.3115628 0.099114195
000320 c8 02 f5 3d d6 bc 93 bd 91 f9 bb bc f7 9b 52 3d
       0.11963421 -0.07213752 -0.022946151 0.05141827
000330 4a c1 3a 3e 38 c3 ae 3c fa ae 18 3e a0 65 cc 3d
       0.18237796 0.021333322 0.14910498 0.09980321
000340 46 bf b9 bd 1b a0 e8 3d ab b3 34 3d 79 aa 99 bc
       -0.09069686 0.11358663 0.044116657 -0.018758046
000350 c2 a9 36 3e c8 19 ee bd 49 36 38 bc 65 45 07 3e
       0.17838195 -0.11626011 -0.011243411 0.13210066
000360 d4 23 d5 bd 9c 40 2e 3e cf d6 49 3e 5e d7 bf 3d
       -0.10407224 0.17016834 0.19710849 0.0936725
000370 3c 7e 57 bd fa 26 4b bd 36 91 bd 3b e5 b6 bc 3d
       -0.05261062 -0.049597718 0.0057851328 0.09214572
000380 a3 65 a1 bd 95 fb 43 3e 27 ba 39 3d 04 b5 60 bc
       -0.07880714 0.1913894 0.045343544 -0.0137150325
000390 17 68 0d 3e 10 1d 54 3e 73 d3 0e 3e 2c eb b5 3d
       0.13809238 0.20714211 0.13947849 0.08882746
0003a0 06 8a 07 3e 58 b0 41 3e 75 f6 0e 3e 7a 84 24 3d
       0.13236246 0.18914926 0.13961203 0.040165402
0003b0 78 78 b9 bd 8b cf 32 3e 4c 9f d7 3c ba 4d f7 3d
       -0.09056181 0.17461984 0.026321076 0.12075372
0003c0 d2 e0 52 3e 97 64 54 3e 6b 72 e4 3c 45 be 37 3d
       0.20593575 0.20741497 0.02788659 0.04485919
0003d0 cf c0 03 3e 73 d0 ad 3d bd f6 ab bc 55 b3 e4 bd
       0.1286652 0.08487024 -0.020991677 -0.11167017
0003e0 3b ae 00 bb 8c 2f 06 3e 22 c6 d4 bd 02 9b 81 3e
       -0.00196351 0.13104075 -0.10389353 0.25313574
0003f0 87 76 eb 3d 24 2f 2b 3d 3c ef 27 bd 32 43 1f 3e
       0.11497217 0.041793004 -0.040999636 0.15552977
