data/de.pt (torch, 385079 bytes, 11 tensors)

weight f4 [129, 25]
000000 9d f6 d8 3d 11 21 92 bf 0a a3 8b 3f f8 9d 9d bf
       0.10593913 -1.1416341 1.090913 -1.2313833
000010 ed 68 9a bf 55 26 47 3d 69 25 25 3f 9a 2a a2 3f
       -1.2063271 0.04862054 0.6451021 1.2669251
000020 6b f3 36 bf 0d 09 a4 bd 06 e9 94 3e 74 1c 38 bf
       -0.71465176 -0.08009539 0.29084033 -0.71918416
000030 08 f8 29 bf f1 53 39 bf fd a0 f9 be 62 02 0f bf
       -0.6639409 -0.7239371 -0.48755637 -0.5586301
000040 28 bd b0 3f d6 47 bc be bd a7 68 bf 58 5d 54 3f
       1.3807726 -0.36773556 -0.9088095 0.8295493
000050 91 a7 a7 3d e5 6a c8 be 9f 1c 68 3f 9f ee 4f bf
       0.08186258 -0.39144054 0.9066867 -0.8122348
000060 a5 47 b9 be 8c 91 56 be 11 af cb bc 72 14 30 bd
       -0.36187473 -0.20953959 -0.024863752 -0.04298825
000070 23 92 91 be 76 e2 c6 3d 61 be 10 be 7a 2a 85 be
       -0.28431806 0.09711163 -0.14135124 -0.2600897
000080 df 97 d1 3e 17 07 87 3f 90 22 0d be d8 1d 29 3f
       0.4093618 1.0549039 -0.13782716 0.6606116
000090 49 a8 16 bf 54 8f a5 bf 44 2e a6 3f 89 b4 6e 3e
       -0.5885053 -1.2934365 1.2982869 0.23311056
0000a0 8a f7 08 3f 7a 99 b3 3f 9e 8a 44 3f 3f f0 0c 3e
       0.53502715 1.4031212 0.76774013 0.13763522
0000b0 53 4a 06 bf 13 58 57 be 42 82 b5 3e ea 96 a7 be
       -0.5245716 -0.21029691 0.3545094 -0.32732326
0000c0 15 6c 04 bf ce 17 7f 3d 7f 87 b5 b7 eb 6a ac 37
       -0.5172742 0.06227856 -2.1639977e-05 2.0553785e-05
0000d0 e6 06 09 37 ad f0 41 37 a3 21 dd 37 ac 78 3d 38
       8.1674425e-06 1.1559733e-05 2.6360916e-05 4.5173496e-05
0000e0 a7 3f 4a 37 80 04 f0 37 2f 22 83 b7 c6 84 3c b8
       1.20549585e-05 2.8612325e-05 -1.5632335e-05 -4.4946348e-05
0000f0 90 49 af b7 83 c8 fb b7 3c 64 08 38 4f 21 41 35
       -2.089588e-05 -3.0014902e-05 3.2518277e-05 7.1946573e-07
000100 3e aa b1 b6 b9 20 c0 b6 e4 cc b6 36 fd fa e9 b6
       -5.29483e-06 -5.7258553e-06 5.447875e-06 -6.97316e-06
000110 e5 95 51 b7 c3 4c d6 37 58 b5 c0 37 a2 09 85 37
       -1.2492271e-05 2.5546533e-05 2.2972628e-05 1.5859321e-05
000120 41 f7 10 b8 d9 63 a3 37 47 5c 1a 38 e5 cb 15 b8
       -3.456255e-05 1.947761e-05 3.68024e-05 -3.571426e-05
000130 f4 c4 3a b8 b8 40 01 b7 1d 1d dc 37 4e cd c7 37
       -4.4529283e-05 -7.704068e-06 2.62396e-05 2.3818251e-05
000140 a7 27 d6 b7 ef 63 24 37 73 d3 0e b8 0e 25 c8 b7
       -2.5529253e-05 9.798429e-06 -3.4052366e-05 -2.3859113e-05
000150 71 31 d5 37 16 b3 d1 37 5a aa 80 37 14 74 5f b7
       2.5414602e-05 2.4998135e-05 1.5338115e-05 -1.3318862e-05
000160 51 8f e2 37 a8 36 dc 37 32 64 b1 37 61 17 9c 37
       2.7008036e-05 2.6251495e-05 2.1146701e-05 1.8607536e-05
000170 6c d9 19 38 1c fd 1c 38 9a 0a 0a 38 63 c0 8d 37
       3.6680533e-05 3.7429025e-05 3.2911637e-05 1.6898097e-05
000180 77 0e 12 38 5c b7 7f 36 25 e0 b0 35 31 ef 98 37
       3.4822584e-05 3.810469e-06 1.3178256e-06 1.8231194e-05
000190 f0 10 88 37 f2 73 8d 37 6b 5d 14 38 27 47 cf b6
       1.622035e-05 1.6862501e-05 3.5372952e-05 -6.177364e-06
0001a0 3c ca 0b 37 40 78 f1 37 56 70 49 37 a4 1e ef b7
       8.332132e-06 2.8785435e-05 1.2006689e-05 -2.8505288e-05
0001b0 22 6e 94 b7 12 cc 06 38 41 29 80 b7 ac 87 e0 b7
       -1.769426e-05 3.2138145e-05 -1.5278e-05 -2.6766058e-05
0001c0 a3 58 91 b7 d4 82 a3 35 52 38 7b b7 53 03 7b 37
       -1.7326622e-05 1.2182522e-06 -1.4973879e-05 1.496154e-05
0001d0 d6 eb d5 36 b9 8e 84 37 5f b2 89 b6 4c 44 43 38
       6.3753496e-06 1.5802087e-05 -4.1036833e-06 4.655523e-05
0001e0 c6 30 8e 37 c7 b7 d1 b7 d4 d7 7b b6 b1 bc 80 37
       1.6950431e-05 -2.500032e-05 -3.7527543e-06 1.5346655e-05
0001f0 8e 33 ba 37 fc fd 35 b8 5c c8 61 b7 17 99 f3 37
       2.2196935e-05 -4.3390304e-05 -1.3457695e-05 2.9039145e-05
000200 c0 73 8d 38 1d 8c 81 b7 5e 1b a9 35 e1 68 c2 b6
       6.744964e-05 -1.5443244e-05 1.2599446e-06 -5.79386e-06
000210 94 84 81 37 a2 0d e3 36 60 d0 85 36 b9 92 ac 35
       1.5439735e-05 6.7667143e-06 3.987967e-06 1.28577e-06
000220 9b 14 4c 37 3c 72 68 b7 4a 66 64 b7 93 a6 31 38
       1.2164145e-05 -1.3854875e-05 -1.3613675e-05 4.2355223e-05
000230 57 7b 13 38 f2 1b 7d b7 de 02 5b b8 74 15 9d 35
       3.51624e-05 -1.5086482e-05 -5.221634e-05 1.1703655e-06
000240 7e 04 07 b7 c9 bf ac 34 fe cf bb b7 ac ca dd b7
       -8.047673e-06 3.217704e-07 -2.2388991e-05 -2.643963e-05
000250 aa 3d f4 36 1b 3d 13 b6 d3 bd 43 38 29 b4 07 b8
       7.2789453e-06 -2.1940275e-06 4.666841e-05 -3.2354295e-05
000260 83 d6 a7 b7 49 97 4f 38 b1 c9 c3 35 a7 91 07 38
       -2.0007841e-05 4.949354e-05 1.4587332e-06 3.2322157e-05
000270 f1 94 6e 38 d1 9e 43 b8 2a 79 48 b8 c8 e4 af b5
       5.6882334e-05 -4.6639532e-05 -4.779656e-05 -1.31051e-06
000280 6e 09 74 b7 de da 75 37 27 92 65 37 f6 96 be 37
       -1.4545729e-05 1.4654097e-05 1.3683492e-05 2.2720062e-05
000290 4b 96 0a b8 3a f4 02 b7 9f 4b ef b5 2b 8c 16 b7
       -3.3041735e-05 -7.805467e-06 -1.7828896e-06 -8.973332e-06
0002a0 92 be 8a 37 89 61 ba 37 da 26 95 b7 ea 48 0a b5
       1.6539623e-05 2.2218346e-05 -1.7780276e-05 -5.151511e-07
0002b0 7f 47 a6 36 93 d2 99 37 50 94 30 b7 26 28 f7 37
       4.9555088e-06 1.8337078e-05 -1.0524949e-05 2.946339e-05
0002c0 da 59 27 b7 53 b3 8b 37 bd 10 d7 b7 a1 df 9e 37
       -9.974896e-06 1.6653596e-05 -2.5637792e-05 1.8939203e-05
0002d0 41 48 c4 37 a6 98 e0 b7 95 86 c6 35 b2 ce 09 b8
       2.3398667e-05 -2.6773963e-05 1.4791318e-06 -3.2855845e-05
0002e0 8a fb ea 35 cf ce 10 b8 f3 f1 18 b8 3b 05 8e b6
       1.7507566e-06 -3.452488e-05 -3.6464957e-05 -4.2325387e-06
0002f0 49 62 72 b6 24 97 e0 b6 1b bb 3e 37 05 ee 22 b8
       -3.611802e-06 -6.6933153e-06 1.1368446e-05 -3.8845483e-05
000300 5e f2 4b 38 84 ad df 36 5b 67 4b 38 4f 41 16 38
       4.8624694e-05 6.6661178e-06 4.849523e-05 3.582361e-05
000310 8c 13 60 37 19 7e d5 b7 23 96 07 37 18 ef 3f b6
       1.33559915e-05 -2.5450297e-05 8.0815835e-06 -2.8600389e-06
000320 c7 96 79 38 a5 74 55 37 ec d6 ee 37 ec 88 bf b7
       5.950665e-05 1.2722948e-05 2.8471892e-05 -2.2832734e-05
000330 3c 0a 3d b7 f9 a7 4c 37 f1 34 b6 36 7b bc 3d b6
       -1.1267661e-05 1.2198457e-05 5.430186e-06 -2.8272905e-06
000340 2b bd 37 38 03 5f 23 b7 a2 17 e0 b6 ce 9e 35 38
       4.3806776e-05 -9.737679e-06 -6.6784714e-06 4.330166e-05
000350 51 1f ae 36 81 20 86 37 b1 ab a6 37 a9 0b b0 b7
       5.18925e-06 1.598918e-05 1.9868692e-05 -2.0986265e-05
000360 13 19 60 34 9f a7 3e 37 bb 36 fe 37 2a f1 22 38
       2.0870748e-07 1.136391e-05 3.0304645e-05 3.884841e-05
000370 96 fb c4 37 4e b6 fb b6 85 ea 14 b8 44 00 0f 38
       2.3482175e-05 -7.501606e-06 -3.5504363e-05 3.4094104e-05
000380 aa 3d 8a 37 fb 39 84 37 63 09 7e b7 1c dc 0b b7
       1.6479597e-05 1.5762625e-05 -1.5141765e-05 -8.336294e-06
000390 ce 13 2b 37 d8 ea c0 b6 2b fe 46 b8 8a 4f 2b 36
       1.0197005e-05 -5.7493853e-06 -4.744359e-05 2.5527283e-06
0003a0 a0 79 a7 b8 46 b3 81 38 1c c7 ab b7 68 38 3e 36
       -7.985835e-05 6.1845916e-05 -2.0477506e-05 2.834504e-06
0003b0 81 ed e0 37 07 00 49 38 28 41 0c 38 e0 7f 05 b7
       2.6813477e-05 4.792216e-05 3.3439283e-05 -7.957191e-06
0003c0 ee cf 54 35 9f 4d c9 b7 5c 71 39 b8 50 b1 02 38
       7.927873e-07 -2.3997212e-05 -4.421301e-05 3.115955e-05
0003d0 ef 4a a6 37 7b 09 68 37 73 55 51 36 8a 92 86 b6
       1.9823636e-05 1.3830485e-05 3.1193165e-06 -4.0105706e-06
0003e0 33 3b 0f b7 9e 17 19 b7 bb c0 45 b7 99 44 29 b7
       -8.537248e-06 -9.1250095e-06 -1.1786989e-05 -1.0089157e-05
0003f0 65 5e 92 37 10 13 1c 37 e0 7f e9 37 60 37 81 b7
       1.7448512e-05 9.302763e-06 2.783531e-05 -1.5403784e-05

weight_hh_l0_reverse f4 [200, 50]
000000 40 ae 81 3e 26 57 00 3f 0b 0d 1b 3f 29 9b 63 3e
       0.25328255 0.5013298 0.60566777 0.22227158
000010 96 44 48 3e 17 5a 3c be 93 87 13 3e f8 90 e0 3d
       0.19557413 -0.18393742 0.14407186 0.109651506
000020 c5 58 35 bf 66 cd 8f 3e b7 c9 d9 bc dc c1 54 bf
       -0.70838577 0.28086394 -0.026585443 -0.83108306
000030 db 8e 6e bf c1 bf 3b 3f cd 41 cf bd 83 34 91 be
       -0.9318673 0.7333947 -0.101199724 -0.28360376
000040 21 a8 39 3f 6b a1 07 3f cb 44 a3 3e 7c 23 d7 be
       0.7252217 0.5298068 0.31888422 -0.4201926
000050 9a ce e1 3d 98 5c 43 be db c7 08 ba d6 5d 5b 3e
       0.11025734 -0.1907829 -0.0005217769 0.21422514
000060 62 2b dd 3b a8 6c 3d 3f eb 76 b5 be ae c5 59 3b
       0.0067495564 0.7399392 -0.3544229 0.0033229399
000070 0e fa 0d bf b0 15 99 3d 2a 2f 5d be 59 0c 87 bf
       -0.5545968 0.0747484 -0.21600023 -1.0550643
000080 6a 8b ed 3e 9f 9d 87 3d f5 4f d1 be 76 5b 02 bd
       0.46395427 0.06621861 -0.40881315 -0.031825505
000090 f6 01 44 3e a3 e5 8e be 75 70 85 be 5d c6 e4 be
       0.19141373 -0.27909574 -0.2606236 -0.4468259
0000a0 8b 1f 42 bf 89 01 1b be ca 2a 0a bf d5 cf 9d 3e
       -0.7582938 -0.15137304 -0.5397154 0.30822626
0000b0 dd 1f 35 3f 30 53 a9 3d 05 ed d9 bd af 26 04 bf
       0.70751745 0.0826782 -0.10640911 -0.51621526
0000c0 c1 96 8c 3e 84 87 ef 3d 32 d6 9c be 07 43 02 3f
       0.27458766 0.116957694 -0.30632168 0.50883526
0000d0 1e 18 66 3f 01 48 bf 3e 52 2e b8 3e bc 82 9c 3e
       0.8988055 0.37359622 0.3597284 0.30568492
0000e0 96 39 06 be f1 53 bd 3e be 14 be be 2a a1 33 3e
       -0.13107905 0.36978105 -0.371252 0.17541948
0000f0 72 b1 eb 3e 74 f3 49 be 64 bd 50 3f fe 89 e3 be
       0.46033818 -0.19721776 0.8153899 -0.44441217
000100 78 dd 59 be 1e 2b b7 3e 8a c7 b5 3e e8 9e 34 bf
       -0.2127589 0.35775083 0.355038 -0.7055497
000110 fa 22 dc 3e bc 93 65 be 07 9e 92 3f b6 ed 0c 3f
       0.42995435 -0.22419637 1.1454476 0.5505022
000120 eb 13 22 bf f6 16 22 3e 95 2d 01 3e ce fd 76 3e
       -0.6331164 0.15829071 0.12615044 0.24120256
000130 54 15 1d 3c 32 59 e7 3d e6 7b 7b 3d af dd 80 3e
       0.009587605 0.112963095 0.061397456 0.2516913
000140 fa 82 83 bf 5c e1 02 3f 25 4f 8d 3d df f2 1f be
       -1.0274346 0.5112512 0.06899861 -0.15619992
000150 63 77 60 bd 7f 29 f9 bd ff e6 bd 3e b9 f0 a8 3e
       -0.054801356 -0.12166118 0.370903 0.32996157
000160 eb 6b e1 3d d1 33 ef be a7 4a eb 3e 5f 34 b6 3e
       0.11006912 -0.4671922 0.45955393 0.3558683
000170 db ff 85 bc 0b 5f 0a 3d a3 a3 1e 3e 1f 13 a0 be
       -0.016357353 0.033782046 0.1549211 -0.31264588
000180 0b 2d b0 be 91 20 d6 3e 2f 9e ee be 85 77 0b 3e
       -0.34409365 0.4182172 -0.4660506 0.13619812
000190 d4 05 f7 3d 6e f6 fb 3d 50 86 14 3d 4e ef 91 3d
       0.120616585 0.12302862 0.036260903 0.07125722
0001a0 75 aa 9a be ee 10 90 be a0 93 0d 3e 61 38 04 bf
       -0.30208173 -0.28137916 0.13825846 -0.5164853
0001b0 be 96 e5 3d 04 ec 87 bd 1f 44 55 be fb 41 bc 3d
       0.112103924 -0.06636813 -0.20826767 0.09192272
0001c0 c7 0c 80 bb 67 ec 92 be 96 76 27 be 75 22 2d bf
       -0.003907773 -0.28695986 -0.1635383 -0.676307
0001d0 81 d4 c9 be 2f ed 4c 3f bd cc 01 3f d5 9b a7 be
       -0.3941994 0.80049413 0.5070303 -0.32736078
0001e0 23 0c eb 3e 2c f8 a2 3d 05 b0 bb 3c ea 58 3b 3e
       0.45907697 0.07957491 0.022911081 0.18295637
0001f0 b1 0b 81 be d5 27 07 3f e3 06 a3 bc e3 a6 b3 3d
       -0.25204232 0.52795154 -0.019900745 0.087720655
000200 8a 54 5e 3f 28 2a 59 3e ed e2 1f 3f d0 bb 11 be
       0.86847746 0.21207488 0.62455636 -0.14231801
000210 cb 65 b2 bd 0e 53 ad 3e 83 84 b7 bc d8 0d ce bc
       -0.08710822 0.33852428 -0.022402054 -0.025153086
000220 08 ca cc 3e d6 a5 b0 be 89 5d 38 3e 43 be 8c be
       0.39997888 -0.34501523 0.18004431 -0.27488908
000230 33 28 4c bf b8 1c bb 3c 5e 4b 89 bd c8 9e a0 3e
       -0.7974884 0.022840843 -0.06703828 0.3137114
000240 d9 de 20 bf 2a d1 bc 3d 06 6d 5b be b2 b3 8d bf
       -0.6284004 0.092195824 -0.21428308 -1.1070464
000250 5b b5 ab be 8e 08 4a 3c bb 1e 59 bd 12 b6 3d bd
       -0.335368 0.012331141 -0.053007822 -0.046316214
000260 b7 15 7d be fa 65 82 3e 54 f2 15 3e 97 25 2a bf
       -0.24715315 0.25468427 0.14643222 -0.6646361
000270 27 e0 11 be 23 84 20 bf 92 3b 4e be 65 6b 03 be
       -0.14245664 -0.62701625 -0.20139912 -0.12833937
000280 01 f6 bc be bb 7f 66 3e c7 d4 1a bf 50 f6 06 3e
       -0.36906436 0.22509663 -0.6048092 0.13179898
000290 e7 5f 86 be 7a 5a 78 3e 27 80 d3 3d e5 ce ad 3e
       -0.26245043 0.24253264 0.103271775 0.3394691
0002a0 da e9 26 3f 66 bb e0 3e 23 04 c3 be 33 e3 f1 be
       0.6520058 0.43892974 -0.38089094 -0.47243652
0002b0 21 39 9a be 1b 50 04 3d e7 24 71 3c 3f 95 6d 3e
       -0.3012171 0.032302957 0.014718271 0.23201464
0002c0 ec 0f 1a bf 30 8d c5 be 7e 85 15 be 96 2c 0d 3e
       -0.60180545 -0.3858428 -0.14601704 0.1378654
0002d0 3a 4a a0 be 90 e6 21 bf 86 74 10 bf f1 0c ab 3d
       -0.3130663 -0.63242435 -0.564278 0.08352078
0002e0 86 22 63 be 55 d7 38 bc d4 8e 24 3e 4c b2 71 bf
       -0.22181138 -0.011281808 0.1607011 -0.94412684
0002f0 78 3b c8 be 9f e1 8b 3d e5 1e 15 3e 92 aa 80 be
       -0.3910787 0.06830143 0.14562567 -0.25130135
000300 7b ab 58 be bc e5 00 be fc 67 c5 3d b8 7d 1f 3f
       -0.21159165 -0.12587637 0.09638974 0.62301207
000310 85 a8 28 3f 3d be 77 bd 81 d1 c3 be 69 a0 4c 3e
       0.6588214 -0.06048416 -0.38245776 0.19983067
000320 51 0d 55 3d ea ee ba 3e 5b 7d e0 3e c3 7d a6 3d
       0.052014653 0.36510402 0.4384564 0.08129456
000330 44 5f fb be 2b 93 69 bc 17 e3 02 be a0 ba f5 3d
       -0.4909612 -0.014256279 -0.1278194 0.119984865
000340 0f e0 0d 3d 98 58 73 bd a4 90 6d be 09 8e 80 3e
       0.034637507 -0.05941066 -0.23199707 0.25108364
000350 7c 1d c5 be 21 d9 2e bf 41 b8 8f 3e 4d 63 e5 bd
       -0.38499057 -0.6830006 0.28070262 -0.11200581
000360 26 28 a7 3e 79 a2 26 3f 86 dd 22 bd 8f be ed 3d
       0.32647818 0.65091664 -0.039762042 0.11608612
000370 5c 5c df 3d 2b cf 94 be 8c b7 24 be 7c e4 90 3e
       0.10906288 -0.29064307 -0.16085643 0.2829932
000380 a4 20 62 bc a4 51 2c 3d 0b dc 94 be 36 88 6f 3f
       -0.013801727 0.042070046 -0.2907413 0.93567216
000390 d8 9b 68 3d 49 27 4e 3e 50 b6 ec be 96 47 5f bd
       0.05678925 0.20132174 -0.46232843 -0.05451163
0003a0 01 d9 90 be 3f a4 06 be 98 43 4e be cb 3e 9a be
       -0.2829056 -0.13148592 -0.20142972 -0.30126032
0003b0 50 ee 6d 3e 44 63 9d 3d 87 8e 70 be 80 a7 2c 3f
       0.2323544 0.07684949 -0.2349187 0.67443085
0003c0 06 08 0c bb 23 41 e4 be 5e 28 b4 bd 52 56 97 3e
       -0.0021367087 -0.44580945 -0.08796762 0.29558045
0003d0 5f 36 ed 3e 62 3d d5 3d 96 f6 ec 3e 45 77 0b 3f
       0.46330544 0.104120985 0.4628188 0.54478866
0003e0 4d 71 57 bf 9e 49 a1 bd 3d f4 8e bd a1 65 46 3f
       -0.8415726 -0.078753695 -0.069801785 0.77498823
0003f0 34 d3 b1 be a3 64 0a bf 3f d3 15 3f a2 24 0d be
       -0.34731448 -0.5405981 0.5852546 -0.13783506

weight_ih_l0_reverse f4 [200, 25]
000000 19 ca 4d be a4 87 f5 be 26 20 35 bf d2 61 c3 be
       -0.20096625 -0.47955048 -0.7075218 -0.38160568
000010 03 e7 1d be bd 78 19 3e 11 f7 af 3e d2 44 bb bd
       -0.15420155 0.14987464 0.34368184 -0.09143986
000020 69 29 2b bf 8a 48 72 3e 00 91 64 3e ad ac 28 3f
       -0.6686006 0.23660484 0.22320938 0.6588848
000030 25 37 61 be 7f d3 66 3e b1 2f f6 bd ef 50 8e bc
       -0.21993692 0.22541617 -0.12020815 -0.017372577
000040 41 32 34 3e db 24 aa be 49 04 1a 3f 0c 19 8b be
       0.17597295 -0.33231243 0.6016279 -0.27167547
000050 99 fb fe bd d3 b4 a7 bd c0 20 c3 3e 95 36 56 3f
       -0.12450332 -0.08188786 0.38110924 0.83677036
000060 6c aa 15 bd 84 f9 d2 be da 02 d4 3e 2f b3 bd 3e
       -0.03653948 -0.4120599 0.41408426 0.3705077
000070 84 26 9c 3e aa 46 dc be b0 f3 8c 3d 18 36 5f be
       0.30498135 -0.43022662 0.06882417 -0.21797979
000080 5d e0 99 3e 8d 04 71 3e 9d 37 3e be 97 ad 52 bd
       0.30053988 0.23536892 -0.18575902 -0.05143508
000090 35 c4 a7 3d e7 bd 4a 3d 6a 2b fb be 17 95 49 bd
       0.081917204 0.04949751 -0.4905656 -0.04921445
0000a0 a8 57 17 bf 1c 22 da 3e 33 44 95 be e1 2c 2a be
       -0.5911813 0.42604148 -0.29153594 -0.16618682
0000b0 ca 55 aa be 5a 0a 02 3f 6d cb 4e be 3b 12 45 3e
       -0.33268577 0.50797045 -0.20194788 0.19245236
0000c0 ca 88 1d bf 47 5b af 3e 73 f4 80 3e ab 70 0a bf
       -0.6153685 0.34249327 0.251865 -0.5407817
0000d0 1c 61 2d bf 5b e2 08 bf bf 75 a1 be 66 78 f4 3d
       -0.677263 -0.5347039 -0.31535146 0.11937027
0000e0 77 70 90 bd e9 c8 3b be 35 c3 55 bf 12 be ad be
       -0.07052701 -0.1833836 -0.8350099 -0.33934075
0000f0 c9 eb ae bd e6 12 11 3f 10 10 03 3f fc f3 82 bf
       -0.08541066 0.5666946 0.51196384 -1.0230708
000100 8d 9d 08 3e de b5 04 be c6 7a ac 3e b3 01 7f 3e
       0.13341351 -0.12960002 0.3368742 0.24902992
000110 dc 3b 81 3d 6a 24 a5 be 09 7d b0 3d 4f a4 97 be
       0.063102454 -0.32254344 0.086175986 -0.29617545
000120 51 a2 e1 bd 45 dd a6 be 52 5f 34 bf 9e ef 2f 3c
       -0.110172875 -0.3259069 -0.7045795 0.0107382815
000130 fe a8 30 be 33 f9 5b be d0 f2 0a bf e1 b5 e1 3d
       -0.17251965 -0.2148178 -0.5427675 0.11021019
000140 31 08 9f bd 7c ef c4 bd 27 b3 78 be 22 67 7a 3e
       -0.07765234 -0.096159905 -0.24287091 0.24453405
000150 b7 f0 81 bd 10 7d ce 3e 90 e5 0d 3d 89 c7 08 bf
       -0.06344741 0.4032979 0.034642756 -0.53429466
000160 21 af f9 3e 18 c4 a0 be af ca 04 be ab 0c f5 3e
       0.48766425 -0.31399608 -0.12967943 0.47861227
000170 c4 60 d0 be 40 48 52 3d fb bf 30 bf c4 6f 7c be
       -0.40698826 0.051338434 -0.6904294 -0.2465201
000180 b3 4d 61 be 62 ae af bd 61 42 5c 3e 4d e7 c4 3e
       -0.22002296 -0.08578183 0.21509697 0.38457718
000190 65 8c 59 3f 75 73 8c bb de 3e 76 be f1 50 de 3d
       0.8497985 -0.0042862245 -0.2404742 0.10855282
0001a0 0f bd 8a be ac 61 83 be 1c 8b 72 3e 3c b9 b4 bd
       -0.27097365 -0.25660455 0.23685879 -0.08824393
0001b0 a1 3b c4 bd 70 07 8b 3a 82 93 b8 be ec 45 f4 bd
       -0.09581686 0.0010607075 -0.3605004 -0.11927399
0001c0 d9 f4 08 3e 1a 32 b5 3d 4a 40 8f 3e 12 98 b4 be
       0.13374652 0.08847447 0.27978736 -0.3527227
0001d0 1f 30 d4 3e 8a 90 a0 be 43 70 63 3e 7f c1 0e bd
       0.41442963 -0.31360275 0.22210793 -0.0348525
0001e0 f8 bb 82 be 9e 23 09 3f 20 70 5e 3d ab 74 f1 be
       -0.25534034 0.5356997 0.05430615 -0.47159323
0001f0 ba e4 63 be 05 78 a5 3e f9 54 98 bd 3c 10 81 be
       -0.22255221 0.3231813 -0.07438082 -0.25207698
000200 28 2d b7 bb 28 cb f5 3e 3c 97 57 3f 60 38 5f be
       -0.0055901 0.48006558 0.8421514 -0.21798849
000210 a9 15 11 3e f9 95 25 bd 03 38 c2 3e 5b 56 78 be
       0.14168419 -0.04042623 0.3793336 -0.24251692
000220 15 02 1b be 8e e5 d4 bc ab b9 bd 3e ca b1 b1 3e
       -0.15137513 -0.025988366 0.37055716 0.34705955
000230 45 b0 fb bd 09 d9 38 3e a9 a3 b6 3d f3 26 35 be
       -0.1228948 0.18051542 0.089179344 -0.17690639
000240 e0 9c 7d 3e da 83 a5 be 01 88 ef 3e 4d c4 29 be
       0.24766874 -0.32327157 0.4678345 -0.16578789
000250 b7 f0 f1 bd 82 30 a4 3e f9 99 12 bd e6 fd a0 bd
       -0.11813491 0.3206826 -0.03579137 -0.07860927
000260 0d 12 0f 3e 9b d7 39 be 4b 3e d7 bd 8d 8f f5 3e
       0.1397173 -0.18148653 -0.10509928 0.47961083
000270 28 9c e8 3e a0 81 c0 ba d3 d4 7d bc 69 a6 01 be
       0.45431638 -0.0014687069 -0.015492636 -0.12661137
000280 e6 03 0a 3e 43 78 f9 bd 0c a8 21 3e fb 33 2b 3d
       0.1347805 -0.12181141 0.15786761 0.04179762
000290 cd 1b 74 3e 52 ba 2d 3e 4f 09 93 be bd d6 ac 3d
       0.2383873 0.16965607 -0.2871804 0.084393956
0002a0 0c 1d ec 3d 3d b4 e1 3d aa 5a 18 3e 83 e6 dd 3e
       0.11528978 0.11020706 0.14878336 0.4333993
0002b0 50 c1 fe bd a2 0a d0 be 6f 3e 35 be 8c 46 b2 bd
       -0.12439215 -0.40633112 -0.17699598 -0.08704862
0002c0 a1 05 aa be a9 fb 6b be 65 32 92 3e 79 83 b0 bc
       -0.3320742 -0.2304522 0.28554073 -0.021547066
0002d0 e9 ef 2f 3f 41 b4 62 bf 3b 9c 3b 3f 0e c4 46 3e
       0.6872545 -0.88556296 0.73285264 0.19410726
0002e0 72 61 89 bd 77 97 7f 3e 81 e5 0e 3f 91 2d 8c be
       -0.06708039 0.24960123 0.55818945 -0.27378514
0002f0 bb 10 6f 3d 61 17 1b 3f 78 dc 0e bf 4c 4f 77 3c
       0.058365565 0.6058255 -0.5580516 0.015094589
000300 c4 41 16 3d 6c db 86 be 7a 1d 6c bd ab 68 97 3e
       0.036683813 -0.2633928 -0.0576453 0.29572043
000310 e0 bd b0 3e 9b f6 7e 3d 19 37 44 bd 0e 13 48 3e
       0.34519863 0.0622469 -0.047904108 0.19538519
000320 1f 93 b0 bd d0 38 93 3e 86 29 83 3e a7 e0 ab 3e
       -0.08621811 0.28754282 0.25617617 0.33569834
000330 24 28 be 3e b6 16 4b be 1a fe 5a be 67 43 fa 3c
       0.3714 -0.19832882 -0.21385995 0.030549718
000340 59 63 3e 3f 93 27 b4 3c a1 b9 12 3d ce 3b 2f be
       0.7437034 0.021991527 0.03582156 -0.17112657
000350 62 1b bb 3e 62 9f cb bd 1d e5 54 bf 85 99 c1 3c
       0.3654433 -0.09942509 -0.831621 0.023632774
000360 c5 83 ff 3c 37 de ad 3e 82 0a 73 bd 99 ab d6 bc
       0.031190762 0.339586 -0.059336193 -0.026204871
000370 cf 35 37 3e f6 55 a6 3e 71 ad f7 3e 97 67 92 be
       0.1789162 0.32487458 0.48374513 -0.28594658
000380 7c 41 46 3e 80 dc b6 3e 4e a2 6e be 38 a7 28 bd
       0.19360918 0.35715103 -0.23304102 -0.041175097
000390 38 22 2e bf 44 d0 3c 3e 41 13 29 be b4 b9 a1 3d
       -0.68020964 0.18438822 -0.16511251 0.07896748
0003a0 be 29 00 3f e3 6f 2e 3b 36 92 86 3e 34 cc 81 be
       0.50063694 0.0026616983 0.26283425 -0.25351107
0003b0 23 ee b3 bd 13 5b ba be 01 98 be 3d b0 76 36 bd
       -0.08785655 -0.3639761 0.09306336 -0.044546783
0003c0 34 57 43 be aa ca c1 3e 61 1a cf bd 11 e8 0b 3e
       -0.19076234 0.37849933 -0.10112453 0.13662745
0003d0 00 97 22 3f 8b f2 0c 3e 28 d8 c9 be 5a d3 2d 3f
       0.6351166 0.13764398 -0.39422727 0.6790062
0003e0 4e fb c3 3e 1c df 51 be 08 f5 53 bd 6a 63 c2 3b
       0.38277668 -0.20495266 -0.051747352 0.0059322612
0003f0 94 74 91 bd b3 16 08 3f fe 06 be 3e 36 33 8b 3e
       -0.07102314 0.53159636 0.3711471 0.27187508

weight_ih_l0 f4 [200, 25]
000000 e7 a1 6c bd 4d c8 0d bf e0 cf 04 3f 51 4c 55 3e
       -0.05777159 -0.5538376 0.5187969 0.20829894
000010 d3 dd b8 3d d3 ae 83 be 4b a8 dd be 5c 72 87 3e
       0.090266846 -0.25719318 -0.4329246 0.26454437
000020 7c be 28 3d 84 0b b7 be e4 72 ba 3e 41 2c 68 be
       0.041197285 -0.35750973 0.3641578 -0.22673132
000030 79 df 8b be 1b 02 e6 3e 83 fc 13 3f 4b b3 63 be
       -0.27318934 0.4492348 0.5780718 -0.22236364
000040 e7 44 34 3f 7d 12 9b 3e b0 dd 34 3f b0 2b b9 3d
       0.70417637 0.30287543 0.7065077 0.09041536
000050 29 5b c2 3e 37 46 b4 3e 26 9b a4 be 43 25 4a 3f
       0.37960175 0.3520982 -0.3214962 0.78963107
000060 07 0e f4 bc cb bf 21 be d9 bb 20 be 58 5d 9c bd
       -0.029791845 -0.1579582 -0.15696658 -0.076349914
000070 3f ac 61 3e c7 85 81 be 38 f5 eb 3e 1b 02 f6 3e
       0.22038363 -0.25297377 0.46085525 0.4804848
000080 3c 7a 1e 3d 05 8d e8 bd a9 d3 d6 3e d8 14 27 be
       0.03869079 -0.11355022 0.4195836 -0.16316545
000090 bb 18 c0 3e ab b0 06 3e cd 2b 3b be 42 19 e8 3e
       0.37518868 0.13153331 -0.18278427 0.4533177
0000a0 e1 40 f5 3e 71 72 90 3f 40 fa d1 be 93 10 cc 3e
       0.4790106 1.1284925 -0.41011238 0.39856395
0000b0 69 62 04 bf 4d a1 50 3f 20 62 9f bd d6 8b c7 be
       -0.5171266 0.81496125 -0.07782388 -0.38973874
0000c0 1c 8b bf be ec 09 0d 3f b3 70 e7 bd 6a 11 ce 3e
       -0.3741082 0.55093265 -0.113007925 0.4024766
0000d0 04 b3 35 bf 45 23 12 be 25 a6 d7 3e 14 44 39 be
       -0.7097628 -0.14271267 0.42118946 -0.18092376
0000e0 a8 b4 ea be 3e d3 ca 3d cc fe d7 be b5 39 09 3f
       -0.45840955 0.099035725 -0.42186582 0.5360368
0000f0 ca d9 88 be 58 5e a2 3e ca f3 35 bf 0c c8 00 3f
       -0.2672866 0.31712604 -0.7107512 0.5030525
000100 50 d1 9d 3d 3c 11 f6 bd e9 96 cc 3e e3 c0 8a be
       0.07705939 -0.12015006 0.39958885 -0.27100286
000110 c1 5e a9 be af 9f 17 3f fd e3 10 3e 2d f2 b2 be
       -0.33080104 0.5922803 0.1414947 -0.3495039
000120 ba 21 cf 3e 16 26 90 3e 22 0e ca 3d ed 8a 7d bc
       0.4045542 0.28154057 0.09865977 -0.015475017
000130 62 e3 c2 be 12 a4 b4 3d fd ee fe 3e 52 fe 15 be
       -0.38064104 0.088203564 0.4979171 -0.14647797
000140 5b 6b d7 be bf 14 98 3e 06 fd 11 bf 80 fc 56 bf
       -0.42074093 0.29703328 -0.5702671 -0.83979034
000150 3b 25 f4 3d 17 1d 45 3d 8a 61 37 3e a6 38 b7 3e
       0.11921164 0.048123445 0.17908302 0.35785407
000160 ce e1 37 bd a7 b7 77 bd 33 e8 bb 3d 64 49 10 3f
       -0.04489308 -0.06047788 0.09175148 0.56361985
000170 e4 a0 90 bd 3d aa 4e 3d a7 3e 14 3f a9 a7 1d be
       -0.070619375 0.05045532 0.579081 -0.15395989
000180 ac e2 80 be 14 86 97 be f7 d3 ef bd 07 bd ca be
       -0.25172937 -0.2959448 -0.11710351 -0.3959734
000190 a5 bd 58 bd 89 a7 34 3f 13 16 37 bb 1a 42 ca 3e
       -0.052915234 0.7056814 -0.0027936741 0.39503556
0001a0 d9 4e 98 be 64 98 8c be a3 8a 5a bf 39 58 b3 3e
       -0.29747656 -0.27460015 -0.8536779 0.35028246
0001b0 a7 6a 50 3f ad 05 67 be 4f 81 5b 3e 58 e8 9d bd
       0.8141274 -0.22560759 0.21436046 -0.07710332
0001c0 86 8c d9 3c 11 04 01 be 7c 01 a6 be ba 26 dc be
       0.026556265 -0.12599207 -0.32423007 -0.42998296
0001d0 aa a3 a2 be f9 f9 d9 3e 1b c5 dc be b8 11 26 be
       -0.3176549 0.42573527 -0.4311913 -0.16217697
0001e0 f1 b1 08 be ab 71 7b be 2c 91 4d 3e c2 79 90 3e
       -0.1334913 -0.2455508 0.2007491 0.28217894
0001f0 75 f6 29 3d a7 bf 19 3f 90 67 43 be 1e 94 c4 3e
       0.041494805 0.60058063 -0.19082475 0.38394254
000200 ff 4e 1b 3f 0b 54 4c 3c 3b 1f 9d 3d e2 7b b3 be
       0.60667413 0.012471209 0.07671972 -0.35055453
000210 90 20 c0 be f5 31 b2 3d 8d 67 0d 3e 44 f2 7b be
       -0.37524843 0.08700935 0.13809033 -0.24604136
000220 a3 22 8b 3e a0 16 ec 3d 15 f4 e4 be 47 9c a2 be
       0.27174863 0.11527753 -0.4471747 -0.31759855
000230 68 2d 72 be dd 36 6d 3f 2f b4 cd 3e 46 a4 54 3d
       -0.23650134 0.9266184 0.40176532 0.051914476
000240 d1 fc 4f 3e 63 b7 16 be 5e e2 5a 3e a4 31 c4 be
       0.20311286 -0.14718394 0.21375415 -0.38319123
000250 51 36 a6 3e 30 8f a1 bd 00 b0 b9 3d 76 24 36 bf
       0.32463315 -0.07888639 0.090667725 -0.71149385
000260 89 d5 16 be 20 fd 8f bc b3 1d 49 3e 0d 1b 1c 3f
       -0.14729895 -0.017576754 0.19640236 0.60978776
000270 ef 35 c5 be 6a 68 5f 3f da 50 cd bd 22 44 55 3e
       -0.3851771 0.872687 -0.10025187 0.20826772
000280 1b a7 9a 3e 7a 2e 2e 3f 41 6c 5c 3f 49 0f e9 bd
       0.30205616 0.6803967 0.8610268 -0.113798685
000290 40 c2 7e bc 11 db e0 3e 54 73 85 3e e4 24 a4 be
       -0.0155492425 0.43917134 0.2606455 -0.32059395
0002a0 0b 8f c1 be b4 ad 2b be 3c 15 8c be 18 35 2b 3e
       -0.37804446 -0.16765481 -0.2735995 0.16719472
0002b0 33 39 a9 be c1 4b 40 3e c0 4a 66 be bc f2 fc be
       -0.33051452 0.18778898 -0.22489452 -0.49403942
0002c0 14 58 9d 3c 83 c7 93 be 74 f1 98 3c ad 22 5a be
       0.019207038 -0.28863153 0.018669821 -0.2130229
0002d0 b1 be 3b be 8f d5 2d be 12 70 ec 3e cf 83 c5 3e
       -0.18334462 -0.16975997 0.46179253 0.38577124
0002e0 84 35 38 3f 90 e8 3f be d0 c1 ac bd af 7e 39 3e
       0.7195666 -0.1874106 -0.08435404 0.18114732
0002f0 38 8f 8b 3e 64 ce 14 3c 3e 48 37 3f d3 4a 03 3f
       0.27257705 0.0090824105 0.7159461 0.5128605
000300 fe 3e bf 3d 43 2d 49 3d 44 cf 0f be 4b 8c 00 bf
       0.09338187 0.04911543 -0.1404391 -0.5021407
000310 da 4e 1f 3e cd 07 49 3f 92 af 35 be b1 c4 3d 3e
       0.15557423 0.7852753 -0.17742756 0.18532063
000320 11 c9 dc be 1b 7c b6 3e b7 b3 3a 3e 62 25 1c 3f
       -0.43122151 0.3564156 0.18232618 0.6099454
000330 48 2d 95 3e 9a 40 64 be f0 39 41 be c3 2c 94 3e
       0.2913611 -0.22290269 -0.18869758 0.289404
000340 d0 19 25 3f 27 a6 3b bf c7 27 8e 3e b5 4c 0a 3f
       0.6449251 -0.73300403 0.27764723 0.54023296
000350 cd 33 3d bf f0 ac 04 be a3 a5 3b 3e eb 09 ee 3e
       -0.73907167 -0.12956595 0.18324904 0.46491942
000360 8a 3d b6 3d 76 7e 62 3e 82 7a c9 3e 3d b9 0d be
       0.088984564 0.22118554 0.3935128 -0.13840194
000370 af 2f 3e bf 14 49 7e 3d dd 4b 86 3d c6 fb 2b be
       -0.7429151 0.06208141 0.065574385 -0.16795263
000380 2a c4 48 3e 08 1c 19 3e f2 99 88 bc 5f 1c eb bd
       0.1960608 0.149521 -0.01667497 -0.11480021
000390 34 10 ff 3c 48 94 d5 be 43 43 d0 be 6a 5c 21 bf
       0.031135656 -0.41714692 -0.40676317 -0.6303164
0003a0 03 5a 52 3f 8d 19 ff 3e e9 56 c0 be 55 31 b7 be
       0.82168597 0.4982418 -0.37566307 -0.35779825
0003b0 0a c8 6d 3d aa ff 43 be 7c f1 4a 3e 69 40 05 3e
       0.0580521 -0.19140497 0.19818681 0.13012852
0003c0 c0 da b4 3d 0b 7b ab 3d 80 a7 0a 3e 31 d6 23 be
       0.08830786 0.08373078 0.13540459 -0.15999676
0003d0 e5 d8 ea bc 0a 56 0a 3e 9c 74 02 3f 93 40 0e bd
       -0.028667876 0.13509384 0.5095918 -0.03472955
0003e0 4d c9 ee be 9d 22 42 3f 08 f0 ae be 1f fe 84 be
       -0.46637955 0.75834066 -0.34167504 -0.2597513
0003f0 b3 d6 65 3d 36 91 44 3f ec 89 23 3e bd 11 90 3e
       0.056112956 0.76784074 0.15970582 0.28138533

weight_hh_l0 f4 [200, 50]
000000 4e 92 b2 be 22 86 93 3c b6 ee 03 bf cc f1 a6 3e
       -0.34877247 0.018008295 -0.5153612 0.3260635
000010 57 92 39 bf a3 e8 73 3f a0 45 82 be d6 69 d1 3e
       -0.7248892 0.9527685 -0.25443745 0.4090106
000020 8f aa 3a 3e c9 4d 0e bf ee 32 94 be e8 51 0a bf
       0.18229125 -0.5558744 -0.28945106 -0.5403123
000030 c7 92 27 bf 65 e6 ef 3e d5 7c 8b 3d 49 1d 08 bf
       -0.6545834 0.46855465 0.06810919 -0.53169686
000040 b0 70 b2 be d8 45 8b bd 4f 93 fd be 29 eb 04 3f
       -0.348516 -0.06800431 -0.4952645 0.51921326
000050 b8 ef 0c 3e da 3c af bc cc 0a cd 3e 36 ed c1 be
       0.1376332 -0.021391321 0.400473 -0.3787629
000060 1e 4d 5b 3b 5f 08 39 bf 7f a9 07 3f e1 44 88 be
       0.0033462713 -0.722784 0.52993006 -0.2661505
000070 ba b8 c6 3e e5 a7 bf be 6f d3 65 bd f0 27 89 be
       0.3881281 -0.3743278 -0.056109842 -0.26788282
000080 29 22 90 be b2 19 2f bf 3d b7 95 3e 1a c2 e2 bd
       -0.28151062 -0.6839858 0.29241362 -0.11072178
000090 d1 d0 76 bf af e1 35 be 1f 80 9b 3e 5f 2d f1 be
       -0.9641238 -0.17761873 0.30371186 -0.47104928
0000a0 f5 db 1f bf ec 11 24 bd a5 df 2c 3f 74 ee 1b bf
       -0.62445 -0.040056154 0.67528754 -0.60910726
0000b0 91 e7 3c 3d 01 02 00 be 1b 09 fc bc 14 54 ed 3d
       0.046119276 -0.12500764 -0.03076606 0.11588302
0000c0 1e 8d 6d be 31 7c 61 be fc 29 86 3f 04 16 82 bd
       -0.23198363 -0.22020032 1.0481563 -0.063518554
0000d0 c8 45 c7 3e b6 c2 cd be 3e c4 f1 be b3 e5 65 3d
       0.38920426 -0.40187615 -0.47220033 0.05612726
0000e0 d6 c9 ab 3e ff 5f 96 be 48 92 52 3d ab af 68 3f
       0.33552426 -0.29370114 0.051409036 0.9089305
0000f0 41 d0 14 bf 2d 85 50 3d 04 9a 39 3e e9 ac 8f be
       -0.5813027 0.050908256 0.18125159 -0.28061607
000100 ca 4e d3 bd 51 58 fb 3e 8c 52 d1 bd 47 fd d6 be
       -0.10317762 0.49090818 -0.10220823 -0.4199011
000110 9d 36 ad bd 62 8f 1e 3f 44 97 81 be e2 12 b5 be
       -0.08457682 0.61937535 -0.2531072 -0.3536597
000120 94 cf 8a be 8c 9a 1f bf d2 29 4c bf 4c 8b 10 3f
       -0.27111495 -0.62345195 -0.7975131 0.5646255
000130 4b 52 e6 be ca 1d 68 3e 0b 10 9a bd 0e c6 92 be
       -0.4498466 0.22667614 -0.07522591 -0.2866673
000140 18 eb b9 bd 3e 79 ec bd 60 5b 72 3e 00 94 0e bf
       -0.09078044 -0.115465626 0.2366767 -0.5569458
000150 d5 2e d4 3d 86 b8 1b be 29 ed 43 be 6e 88 12 bf
       0.10360495 -0.15207109 -0.19133438 -0.57239425
000160 64 98 86 3f fd 5e f0 be d0 89 2a bf 56 d4 0d 3f
       1.0515256 -0.4694747 -0.66616535 0.55402124
000170 58 39 30 3f 3a fb 81 bd 81 ea 69 3e fb 65 00 bf
       0.688375 -0.06346746 0.22843362 -0.5015561
000180 48 90 b5 be 32 5e 14 bd 08 9c 3e 3e 0e e5 56 bc
       -0.3546164 -0.036222644 0.18614209 -0.013116134
000190 c3 9e a6 3d 0f dd d2 3e 90 18 80 3f f4 48 ca 3e
       0.0813575 0.4118428 1.0007496 0.39508784
0001a0 ac fd 96 be d5 5b 43 3e 0d 88 ca be fa 1b ec bd
       -0.2949041 0.19078 -0.39556924 -0.115287736
0001b0 04 6c 5b 3e 8d 91 06 be a3 1c cc 3d 44 d5 50 be
       0.21427923 -0.1314146 0.099663995 -0.20393854
0001c0 41 1b dc bc d0 33 55 3f fb 1f 13 3f ab 76 2e 3f
       -0.026868464 0.83282185 0.57470673 0.6814982
0001d0 41 0c af be 42 12 71 be 91 f7 99 3e a1 c3 e7 3e
       -0.34189036 -0.23542121 0.3007169 0.4526644
0001e0 7a 2b 49 bd 2e f0 b0 be 81 35 be be 0d 3a 74 3e
       -0.049113728 -0.34558243 -0.37150195 0.2385027
0001f0 ad 79 ac be 91 0a 7b bd 84 7e 20 3f 04 7d 0b be
       -0.3368658 -0.061289374 0.6269305 -0.13621908
000200 19 d0 c3 be be c0 36 be d8 10 ce 3d c1 ba 24 bf
       -0.38244703 -0.17846963 0.100618064 -0.64347464
000210 86 a9 60 be 83 d3 5f bf 0e 55 c1 3e a6 b0 0c 3e
       -0.21939668 -0.87432116 0.37760204 0.13739261
000220 6f 1b bc 3e 8a 81 91 3d c1 50 a4 bd ab 64 f5 be
       0.3673968 0.07104786 -0.08023215 -0.47928366
000230 5f 40 fe be 0d 30 1b 3f 54 8b 17 bf 2b ed ec be
       -0.49658486 0.60620195 -0.5919697 -0.46274695
000240 7b fb 2e bf 35 43 bb 3e 53 ed 9d 3e 8c bc 12 bf
       -0.6835248 0.36574712 0.30845127 -0.5731895
000250 a9 0e 5b 3e 3c de 23 3e f8 57 ef bc b4 0e 0c 3f
       0.21392311 0.16002744 -0.029216751 0.54709935
000260 bc 30 ab be e6 2f 7a 3d 73 4f 54 be 11 3e f5 b8
       -0.3343562 0.061080836 -0.20733432 -0.00011694071
000270 aa d7 32 3c 4a 4e fc be 7f 10 d4 3e d9 a9 08 be
       0.010915676 -0.4927848 0.41418836 -0.13346042
000280 4f 1e fd 3e 49 df 00 be c8 33 9b be 32 80 84 3e
       0.49437186 -0.12585177 -0.30312943 0.25879055
000290 61 6e ba 3e f6 aa 0e be 2c 32 30 be f9 94 b0 be
       0.36412337 -0.13932404 -0.17206639 -0.34488657
0002a0 a7 c3 6c be cb 8a e9 3e 3c 58 82 3c e4 a0 7b be
       -0.2312151 0.45613703 0.015911214 -0.24573094
0002b0 f0 c6 90 bf 77 8b 8e be 23 3b 9c bd 75 4c 80 be
       -1.1310711 -0.27840778 -0.07628467 -0.25058332
0002c0 f4 bc 31 be cc fb f3 3e d2 71 dc 3d 5d e1 e5 3c
       -0.17357236 0.47653043 0.10763897 0.028061563
0002d0 e1 c5 9e 3e 5c 42 d2 bd c9 60 b8 bf ae 97 6c be
       0.31010345 -0.10266563 -1.4404536 -0.23104736
0002e0 4e 5a 9f 3e f1 c2 a2 3e 7b 68 b4 bd a7 f0 a7 3e
       0.31123585 0.31789353 -0.088089906 0.3280079
0002f0 22 20 35 3d aa 94 c1 bf 76 19 3f 3e 1a 31 d6 3e
       0.044220097 -1.5123494 0.18662056 0.41834337
000300 c2 61 5a bf e2 90 05 bf 72 b4 08 bf 72 25 3d be
       -0.85305417 -0.521742 -0.5340034 -0.18471316
000310 41 d8 a4 bd 5f 16 b3 3c 21 3c 37 bd e4 88 39 be
       -0.0804906 0.021861253 -0.044735078 -0.18118626
000320 d7 3d 2c be ab 33 84 bf fd f3 a2 3d 28 c0 d3 3d
       -0.16820465 -1.0328268 0.07956693 0.10339385
000330 3b fd cd be 61 a2 3a bd aa eb 84 3e 06 b1 13 3d
       -0.40232262 -0.045565013 0.25961047 0.036057495
000340 ce c8 40 3e 7d d6 85 3e 51 27 25 3f f7 4c 60 bf
       0.18826601 0.26140204 0.6451312 -0.8761744
000350 36 53 ec 3c 13 6b 37 3f 7d c0 99 3e 07 6b 58 3e
       0.028848272 0.7164776 0.3002967 0.21134578
000360 3e dc 08 bf 6d e8 61 be ea 0f 2b bf 89 5f 9f bc
       -0.5346106 -0.2206132 -0.6682116 -0.019454734
000370 4e 95 d2 be d6 a3 5a 3f 77 1a 11 be 42 a2 0e bf
       -0.41129535 0.85406244 -0.14170252 -0.55716336
000380 ed 5a 07 3f d1 2b 18 3f 50 2c 58 3f b5 d2 5e be
       0.52873117 0.5944186 0.84442616 -0.21760066
000390 b0 bd 05 be 22 1f bf be 7c 2b 3f 3f c1 b6 8d 3e
       -0.13060641 -0.3732844 0.74675727 0.27678493
0003a0 25 d5 35 bf c1 d8 d3 be c4 95 2f 3e e5 b4 b9 3e
       -0.7102836 -0.41376308 0.17146975 0.36270824
0003b0 e2 81 dc 3d 48 51 07 bf 17 9b 35 3c eb 9a 9b 3e
       0.10766961 -0.528584 0.01108434 0.3039163
0003c0 f9 15 4b 3d 2f 06 16 3e ca 80 85 be 51 08 50 bf
       0.0495815 0.14650796 -0.2607482 -0.8126269
0003d0 8c a9 86 bd 89 a5 f8 bc c3 b3 98 3f 03 0e e5 3c
       -0.06575307 -0.03035237 1.1929859 0.027960783
0003e0 f2 c9 47 3e bb e1 2a be 50 64 42 be 78 ad b3 3e
       0.1951063 -0.16687672 -0.18983579 0.35093284
0003f0 5b 80 82 3f 40 f5 04 3f 3e c8 1a bf 89 74 35 3f
       1.0195421 0.5193672 -0.60461795 0.70880944

weight_hh_l0_reverse f4 [200, 50]
000000 98 49 0b 3f 11 18 57 be 60 29 80 be 3f d1 70 be
       0.5440917 -0.21005274 -0.25031567 -0.23517321
000010 d0 4d 45 3f e2 8f 7e be ee 7b ef bd 53 58 32 3e
       0.7707186 -0.24859574 -0.116935596 0.17416506
000020 26 a6 18 3e 68 1e 8c 3d d0 71 78 be d7 81 20 3f
       0.1490713 0.06841737 -0.24262166 0.6269812
000030 3c 3c d8 3d b6 48 87 3e cf c6 ba 3d 71 49 29 3e
       0.10558364 0.26422662 0.09119951 0.16531922
000040 0b da 13 bf 30 f7 66 3e 6f 62 c6 3e 79 36 60 be
       -0.5775458 0.22555232 0.38746974 -0.2189578
000050 8e 32 26 bf b3 49 de 3d c0 8c 31 3e a5 a3 99 bd
       -0.6492089 0.10853901 0.17338848 -0.07501916
000060 7d 38 1a 3f 6c 82 61 be 74 b8 8e 3b 5d b1 c5 3e
       0.60242444 -0.22022408 0.0043554846 0.3861188
000070 2f 92 ac 3e be ab 1c bf 1e 23 31 be f6 0a a5 be
       0.3370528 -0.6119956 -0.17298552 -0.32234925
000080 ca 42 ff bd 87 4d b2 be 8b 06 d3 3e fa f4 a3 3f
       -0.12463911 -0.34824774 0.4121593 1.2809136
000090 bc 8f c3 bd 65 3b d9 3e 65 73 37 3f 6d 3f 0c bf
       -0.095488995 0.42428127 0.71660453 -0.5478428
0000a0 95 17 a6 be d1 f2 88 3e 9e 4b 45 bd 44 43 0c 3e
       -0.32439867 0.26747754 -0.048167817 0.13697535
0000b0 9d f2 92 be 03 88 9c be b3 ae 21 3e 78 4e fd bd
       -0.28700724 -0.3057252 0.15789299 -0.12368482
0000c0 f5 5d 46 3e 1d cf d0 3d fc 11 ab be c3 c8 24 bf
       0.1937178 0.10195754 -0.33412158 -0.6436884
0000d0 89 1e 35 3f b3 f3 c3 3e 31 2a 96 be 3a f6 4e be
       0.7074972 0.38271865 -0.29329064 -0.20211115
0000e0 3b f7 15 be cf 36 09 3f 8b a6 c1 be 60 e4 ae be
       -0.14645092 0.53599256 -0.37822375 -0.3415861
0000f0 10 84 18 3f 45 90 22 bf e3 97 ad 3e c6 0b cd be
       0.5957651 -0.6350139 0.33904943 -0.40048045
000100 20 83 2c 3f 4c f4 09 bf ee 67 fb 3e 97 99 5d bf
       0.6738758 -0.5388839 0.4910273 -0.86562485
000110 d6 45 f3 3d b9 34 74 3f 09 78 cd bd 8e ae 16 3f
       0.118785545 0.9539295 -0.100326605 0.588601
000120 55 1b b0 3e fa a4 aa bd 14 ae 80 3e fe e3 dc bd
       0.34395853 -0.08332248 0.2513281 -0.107856736
000130 ad 65 8a 3f 6e 01 8b 3e f8 47 96 bf 04 96 f1 3e
       1.0812279 0.27149528 -1.1740713 0.47184765
000140 a5 b0 5e be 8e a6 18 bf bb 7d 11 bf bf b3 b7 be
       -0.21747072 -0.5962914 -0.56832474 -0.35879323
000150 4a 88 91 be 53 7b 6b 3e 6a 9e 4d be 08 73 11 3f
       -0.28424293 0.22996263 -0.20079961 0.5681615
000160 8c 76 7d bf 27 16 c2 3e 7f 3e 91 be 41 93 25 3f
       -0.99009013 0.37907526 -0.28367993 0.64677817
000170 e3 40 c1 be 89 56 2b 3f 55 2e ba bf 69 0f 06 bd
       -0.37744817 0.6692892 -1.454539 -0.03272954
000180 33 15 32 3f f1 42 ca bd 7e 99 57 bf f9 77 54 3f
       0.695636 -0.09876049 -0.84218585 0.82995564
000190 45 54 a3 bc 1a 1f 70 3e b9 e0 30 bd 13 53 c8 be
       -0.019937644 0.23449364 -0.043183062 -0.3912588
0001a0 ec 68 8c be 84 1f 73 3e 6d 04 03 3f 29 53 26 3e
       -0.274238 0.23742491 0.5117863 0.1624266
0001b0 7a 44 f8 3e 72 25 da 3e d3 0a 0c 3d 04 21 fb bc
       0.48489743 0.42606694 0.03419001 -0.030655392
0001c0 82 84 63 be 1e 67 21 3d 02 34 47 be 31 98 05 3f
       -0.22218516 0.03940498 -0.19453433 0.5218535
0001d0 01 ba d7 be a1 fa 89 bb 2e 4c 29 be 6e dc ef 3c
       -0.42134097 -0.0042107855 -0.16532966 0.029279914
0001e0 f6 f5 a0 3e 25 d4 29 bd 45 12 68 3e 67 8d ef be
       0.31437653 -0.041462082 0.2266322 -0.4678757
0001f0 77 e3 22 3f c7 a4 08 3e 74 a2 62 3d 26 a8 fb 3d
       0.63628334 0.13344108 0.05533071 0.12287931
000200 32 17 fc 3d 10 9e c5 be f6 0c 06 be aa e7 37 be
       0.12309112 -0.38597155 -0.13090882 -0.17959467
000210 be fa ab be 5e 58 a5 be e9 45 51 bd c1 ee 5a bf
       -0.3358974 -0.3229398 -0.051092062 -0.8552056
000220 d6 f3 a0 3e 6d c2 8b 3d c4 ab d6 bd df 1d f1 be
       0.31436032 0.06824193 -0.104819804 -0.47093102
000230 60 97 1a 3f 16 3a ec 3e 99 af 82 3e 43 28 02 bf
       0.6038723 0.46138066 0.25524595 -0.50842685
000240 57 d8 af be e1 ec ff 3e cc 05 ad 3d a7 e6 fb 3e
       -0.34344742 0.49985412 0.08448371 0.4919941
000250 c6 72 58 be ba e1 df bd e1 92 db bd 2d de f1 3d
       -0.21137533 -0.10931726 -0.10721374 0.11809955
000260 b4 d1 bf 3e 2c e2 5e 3e 9d 08 0a 3f 40 47 75 3f
       0.37464678 0.21765965 0.5391939 0.95811844
000270 58 d2 03 be c6 da 39 3e 9a f8 e0 3d b1 07 1a bf
       -0.12873209 0.18149862 0.10984917 -0.60167986
000280 61 07 5d be e5 90 15 3e be 2f 83 be 53 59 ce bd
       -0.21584846 0.14606054 -0.25622362 -0.10075631
000290 bd 7a 09 3f 1d 20 25 3f 63 69 d0 be da 8a dc 3e
       0.5370291 0.64502126 -0.40705404 0.43074685
0002a0 6f ba a7 3e de 66 bf bd e2 10 b7 bd 9e 80 18 be
       0.32759425 -0.09345792 -0.08938767 -0.14892814
0002b0 4e c4 bf 3d e7 9c 93 be 80 86 aa 3e d7 77 9a be
       0.09363614 -0.28830644 0.3330574 -0.30169556
0002c0 f7 15 02 3f 35 ca 41 3e 62 db bc 3e 99 f6 06 bf
       0.50814766 0.18924792 0.36886126 -0.5272003
0002d0 d3 1a b0 be fa f2 25 bd 52 65 fc 3e 27 1e ce be
       -0.34395465 -0.040514924 0.4929605 -0.4025738
0002e0 b2 14 95 3e ba 8f 22 3f 06 00 7d be 7c c7 f1 bd
       0.29117352 0.6350056 -0.2470704 -0.11805627
0002f0 0f 81 e2 ba 3c ec 5d 3d 05 4f d5 3e f5 bb 3d 3f
       -0.0017280894 0.05418037 0.4166185 0.74114925
000300 52 78 f6 3e 9b 2f 49 3e 56 b9 9b be 25 d8 39 3e
       0.48138672 0.19647066 -0.30414838 0.18148859
000310 db e9 99 be ae 97 0c bb 65 43 b0 bc 9b 59 71 be
       -0.3006123 -0.0021452713 -0.021516511 -0.23569338
000320 a6 3c 05 3f 17 b7 68 be c1 b2 5b bf e4 9b 97 be
       0.5204567 -0.22726093 -0.8581963 -0.29611123
000330 84 23 9c 3e a3 78 28 3f 32 ef 00 3e 5b a2 f8 3e
       0.30495846 0.6580908 0.12591246 0.48561367
000340 66 46 0f be 23 16 ea be dd cf ac 3e db cc 6d 3e
       -0.13991699 -0.45720014 0.33752337 0.23222677
000350 36 4c 3c bd 28 11 59 be a2 81 d6 be 6f 96 2a 3f
       -0.045971118 -0.21197951 -0.41895777 0.66635793
000360 e6 72 0c be bc 24 a7 bb b2 41 5f bd 42 70 07 3d
       -0.13715705 -0.0051008146 -0.05450601 0.03306604
000370 39 92 46 be 1f 74 c3 bd 88 ff a5 3e ff c1 09 3d
       -0.19391717 -0.09543633 0.32421517 0.033632275
000380 d6 94 19 3e 0e 17 16 3c 37 5c 34 3f ac f9 00 3e
       0.14998183 0.00916077 0.7045321 0.12595242
000390 df f6 19 3e a2 37 59 bf c6 9b 2c 39 c8 6d 5f bd
       0.1503558 -0.84850514 0.00016461228 -0.054548055
0003a0 00 40 c1 3e 49 72 d3 3d 4b 4f a4 3d fa e3 b5 bc
       0.3774414 0.103245325 0.080229364 -0.022203434
0003b0 d8 27 b2 bd 37 ca f1 bd 3c 58 d0 3d 1d 9b 55 3e
       -0.08699006 -0.118061475 0.10173079 0.20859952
0003c0 de 21 f9 bb 54 87 7f 3d bb 5f 82 be 51 e7 83 3e
       -0.0076029142 0.06238492 -0.25463662 0.25762418
0003d0 ef e9 4e 3e 82 e8 70 3e 27 c4 86 3e d5 46 9b be
       0.20206426 0.23526195 0.26321527 -0.30327478
0003e0 6f b8 d7 3d 3b 27 6c 3e 8e 83 89 bd 1b 6e a4 be
       0.10533225 0.2306184 -0.06714545 -0.32115254
0003f0 89 71 b6 be 10 1f 98 3e f2 87 23 3e ba 4c 30 bf
       -0.35633495 0.297112 0.15969828 -0.68867075

weight_ih_l0_reverse f4 [200, 100]
000000 72 7b cd 3e 4f 5c 80 3d 29 0f 0b 3e ec 96 19 3e
       0.40133244 0.062676065 0.13580002 0.14998978
000010 34 05 1c 3e e4 77 27 3e d3 ab aa ba af 5e bd be
       0.1523636 0.16354328 -0.0013021178 -0.369863
000020 7c 1d 0f bf 36 0f ad 3d aa 36 1e 3e 32 93 b6 be
       -0.55904365 0.08450167 0.1545054 -0.35659176
000030 77 c2 6c 3e 66 4b 8e 3e 6f fa df bc c1 36 b5 be
       0.23121057 0.277919 -0.027341096 -0.35393336
000040 be 93 8e 3d da a3 04 bf a2 3c 68 bb 92 52 71 3d
       0.06961773 -0.5181252 -0.003543653 0.058916636
000050 20 9b 30 be c8 0a 21 3e 21 8d 35 3c e2 d0 9f be
       -0.17246675 0.15726769 0.011081011 -0.31214052
000060 8e a3 20 be 21 f3 8e be 09 66 29 bd ed 59 b2 be
       -0.15687391 -0.27919868 -0.041357074 -0.34834233
000070 51 91 d1 bc 1a 60 98 3e 36 8b cf 3e 3c 47 b8 3c
       -0.025581988 0.2976082 0.40535897 0.022494905
000080 01 ce 0a 3f d0 ab 9b 3e b7 c3 6e 3e dd e7 7f bf
       0.54220587 0.3040452 0.23316847 -0.9996317
000090 4e f5 c7 be f4 2d 2e bf 8b 5f 0c 3f d1 0e 87 be
       -0.3905434 -0.6803887 0.54833287 -0.26378492
0000a0 2e 07 24 be bd ec 62 3d 47 d5 03 3f c6 c6 43 be
       -0.16018364 0.055401552 0.5149731 -0.19118795
0000b0 18 e6 a1 bd d9 6f a7 bc f3 88 fb bd de bd 9e be
       -0.07905215 -0.020439075 -0.1228198 -0.31004232
0000c0 8a f0 14 3e 59 8a 67 be 84 73 c7 bc ee 78 85 3e
       0.14544883 -0.22611369 -0.024347074 0.26068825
0000d0 4d c5 1e bf b2 56 a7 be 17 7a b9 3e d9 37 1c bf
       -0.6201981 -0.3268333 0.3622596 -0.61022717
0000e0 63 ef 11 3e b3 2f 37 3e 64 7b 4b be 0b b4 88 3e
       0.14251475 0.1788929 -0.19871289 0.26699862
0000f0 01 26 db 3d 7b 1b a6 3d 68 a6 f6 3e 08 71 88 3e
       0.10700608 0.0811071 0.48173833 0.26648736
000100 8d dc 6d 3e 81 99 8c be 7e 6c 9b bc 09 4f b3 3e
       0.23228665 -0.27460864 -0.018972632 0.35021237
000110 6d 49 d0 3e fb a9 31 be c1 c1 f5 bd 54 6b dc 3e
       0.4068102 -0.17349999 -0.11999846 0.43050635
000120 24 8a 0e be 7d 8d e6 3c a9 01 71 3e 1f b6 38 3e
       -0.13919884 0.028143639 0.2353579 0.18038224
000130 41 35 65 3e a7 a8 ba 3e c1 27 94 bc ee 3e 7c 3d
       0.22383596 0.36456797 -0.018085362 0.061583452
000140 ca 47 5d bd 15 8e c6 bc bc 6f 0b 3d 3c 83 80 3d
       -0.05402354 -0.024237672 0.034042105 0.06275031
000150 0d 91 08 3f 79 e8 70 3e b4 e0 6a be 04 ec e8 3d
       0.5334633 0.23526181 -0.2293728 0.113731414
000160 57 c9 d0 3d cd 42 30 bd ed a8 05 3e a9 77 bb 3d
       0.101946525 -0.043032456 0.13052721 0.09153683
000170 32 69 18 bd b5 4a 07 bd 14 cb 00 bf ce 6c 9f bd
       -0.037209697 -0.03303023 -0.5030987 -0.07784425
000180 78 00 84 3d bc d8 43 be af 2f 80 3d dd 01 22 bf
       0.06445402 -0.19125646 0.06259095 -0.63284093
000190 8f a0 d5 3d 55 07 32 3d 39 51 31 3d 31 2e cb 3d
       0.10431015 0.043464024 0.04329035 0.0992092
0001a0 75 a1 a7 3e e6 33 83 3d 58 82 06 be bf 9c 34 3c
       0.3274037 0.06406383 -0.1313566 0.011023699
0001b0 50 54 fe 3d 9e 86 ed bc 9e df d2 bd e6 cd 97 3d
       0.12418425 -0.028994855 -0.10296558 0.07412319
0001c0 74 91 18 be 4b 8a c4 3d a3 a3 43 bd ad 57 11 be
       -0.14899236 0.0959669 -0.047763478 -0.14193602
0001d0 cc fd 7c bc c8 49 ad 3e 7d e2 83 3e fe e6 da be
       -0.015441369 0.33845353 0.25758734 -0.42754358
0001e0 58 71 cd be 43 6e 27 be 43 58 55 3e c2 f0 6f be
       -0.40125537 -0.16350655 0.2083445 -0.23431686
0001f0 ac 4a d1 bd 9d 03 40 3c 9b d6 8e bd 67 b9 85 be
       -0.10219321 0.0117196115 -0.069745265 -0.26118013
000200 8b d3 5c 3d cc 6f 65 3e 18 89 19 bc b5 a5 97 3e
       0.05391268 0.22405928 -0.009371065 0.29618612
000210 61 af 05 3f c3 d3 ef bd 9b 25 9c 3e 3c 6f 1d 3e
       0.5222073 -0.11710312 0.3049744 0.15374464
000220 85 18 08 bd ee 84 e0 bd 29 27 d3 3c ce 07 59 3d
       -0.03322651 -0.10962854 0.025775509 0.05298596
000230 f9 e1 46 bd b8 6a 3f be 92 e6 ba bd 62 54 58 be
       -0.048555348 -0.18693054 -0.09126009 -0.2112594
000240 f2 98 50 3e 22 57 e8 3d 0e a6 bc bd 81 9b 14 be
       0.20370844 0.11344744 -0.0921136 -0.14512445
000250 93 85 05 be 0f 6f 9b be 86 fc ae 3d 94 f1 4a 3e
       -0.13039236 -0.30358168 0.08544259 0.19818717
000260 0d a8 b5 be 11 f8 d5 bd 66 fe d7 3d 0d af 74 3e
       -0.35479775 -0.104477055 0.105465695 0.23894902
000270 5e 03 ba 3d 20 c8 61 bd 6b 7c 3d 3d db 02 cd bd
       0.090826735 -0.055122495 0.046261232 -0.1001031
000280 14 48 80 3d 2b 4b a7 bd f3 8e db 3e 70 79 8d 3d
       0.06263748 -0.08168634 0.428825 0.06907928
000290 c0 46 51 be c6 fc 23 3e 70 4f d9 3d 1b 8d 28 be
       -0.20437145 0.16014394 0.106108546 -0.16460077
0002a0 51 a9 17 be 21 da 8a 3b d4 fd 86 be 7a 43 f2 be
       -0.14810683 0.004237429 -0.2636553 -0.47317106
0002b0 71 00 f2 bc ac f1 f1 3d 04 51 60 3e 35 0a c5 be
       -0.029541226 0.118136734 0.21905905 -0.3848435
0002c0 94 b9 f3 3d c6 f3 87 3c 60 f0 89 bd ce 66 56 3e
       0.119006306 0.016595732 -0.06735301 0.20937654
0002d0 de ec 9d 3e d3 28 1f be 0e b0 8d bb 9a 98 83 3d
       0.30844778 -0.15542917 -0.004323966 0.06425591
0002e0 3a 18 ac 3d cb 50 8c 39 b9 13 c0 3d 1b cb 0e be
       0.08403058 0.00026763076 0.09378762 -0.13944666
0002f0 aa 1c 53 3e 18 c3 ef 3c ce 45 86 be 36 a4 d8 3d
       0.20616403 0.029267833 -0.26225132 0.10578196
000300 b3 9a d3 be 32 64 c5 3d 8c 31 0e bd e4 6f da 3d
       -0.41328964 0.09638251 -0.03471522 0.10665873
000310 63 39 aa 3d 42 f4 97 3d c4 f3 ad be 44 f6 ca 3d
       0.08311727 0.07419635 -0.3397504 0.09910253
000320 6a 5c 01 be 85 2e 19 bf ba 80 46 be ab e7 b6 bc
       -0.1263291 -0.5983661 -0.19385043 -0.022327265
000330 60 62 be bd 26 ff 9f 3e c1 ce 16 bf e1 48 c5 3d
       -0.09296107 0.3124935 -0.5890923 0.09633041
000340 fa cb 47 3f 2e be 0f bd 8d 8d 31 3e c3 b9 79 3e
       0.7804562 -0.03509348 0.17339154 0.24387269
000350 90 79 11 3e 2f 04 a3 3e 15 45 37 be 1a c8 16 3e
       0.14206529 0.3183913 -0.17897446 0.1472477
000360 5e c4 99 3e bd 7b ce be 29 3d bc bd 75 de 7a 3d
       0.3003263 -0.4032878 -0.09191353 0.061247308
000370 97 3a a9 bc 35 e1 1e 3f 4a bb 01 be 06 ed d1 3e
       -0.02065782 0.6206239 -0.12669101 0.41001147
000380 34 a2 d6 be e0 e4 d9 3e 72 0d 0f bf 44 46 03 3e
       -0.41920626 0.4255743 -0.5587989 0.12819773
000390 99 93 2e be 36 c2 04 3f 01 4f a2 3e d5 90 09 3f
       -0.17048492 0.5185884 0.317009 0.5373662
0003a0 41 8e 14 bd 01 14 01 3f 3e 4b a9 be df fd 64 be
       -0.036268476 0.5042115 -0.33065218 -0.22362469
0003b0 fd 5a d4 be 91 09 05 bf f5 7d 0e bc dc 52 3f be
       -0.4147567 -0.5196772 -0.008697023 -0.18683952
0003c0 54 87 8a bd 54 2f 9f bd 6a 1a 2e 3d 7b e4 1f 3e
       -0.06764093 -0.07772699 0.04250566 0.15614502
0003d0 bb cd 89 bd 5d 58 f3 3e 2b 98 df be 49 a2 af 3e
       -0.06728693 0.47528353 -0.43670782 0.343035
0003e0 71 fd 7b be 2c b4 11 be b8 6d bd 3e b8 d4 9c be
       -0.24608399 -0.14228886 0.3699777 -0.30631042
0003f0 42 30 20 bd 04 8f 44 be de 33 7c 3e a5 69 34 3f
       -0.039108522 -0.19195181 0.24629161 0.704737
