models/de/torchscript_cpu_model.pt (torch, 399541 bytes, 10 tensors)

weight f4 [256, 32]
0	0x3fb5662e	1.4171808
1	0x3e8177e8	0.25286794
2	0x3f7c89fd	0.98648053
3	0x3f7440f9	0.9541164
4	0x3f8ae065	1.084973
5	0xbfdec8c7	-1.7405022
6	0xc02b8937	-2.68025
7	0xbf593741	-0.84849936
8	0xbf2c89f3	-0.67397994
9	0xbf820a4f	-1.0159396
10	0x3fd196f9	1.6374198
11	0xbf26b530	-0.6512022
12	0xbf5d6b37	-0.8649172
13	0x3e985af0	0.2975688
14	0x3f5731cd	0.84060365
15	0xbf6ba19f	-0.9204349
16	0x3e8303da	0.25588876
17	0x3ef3b6ce	0.47600406
18	0x3f12b4f0	0.5730734
19	0x3d28078d	0.041022826
20	0xbfce2872	-1.6106093
21	0x3fd5f712	1.6716025
22	0xbf216dd9	-0.6305824
23	0xbf8163c3	-1.010857
24	0x3e838ac8	0.2569182
25	0xbe6b5f66	-0.2298561
26	0x3db88857	0.0901038
27	0x3f5e8cb1	0.8693343
28	0xbfde11dd	-1.7349201
29	0x3fa283f7	1.2696522
30	0xbf3799a5	-0.7171882
31	0xc00c8022	-2.1953206
32	0xbf15f840	-0.58581924
33	0x3d8f09ce	0.06984292
34	0xbfb76f4b	-1.4330839
35	0x3ef98165	0.48731533
36	0x3f96e4de	1.1788595
37	0x3f8d88d8	1.1057386
38	0xbe64505d	-0.22296281
39	0xbfa665c5	-1.2999808
40	0x3e868161	0.26270583
41	0x3f08a5ee	0.5337819
42	0xbfa996e2	-1.3249171
43	0x3fef6adc	1.8704486
44	0xbf6d5b99	-0.9271789
45	0x3f1ebb99	0.62005
46	0x3fcefce5	1.6170927
47	0x3fb8e7b8	1.4445715
48	0xbfa96651	-1.323435
49	0x3e85f402	0.26162726
50	0x3f84454a	1.0333645
51	0x3e91b15f	0.28455636
52	0xbf7deb00	-0.99186707
53	0x3f8977aa	1.0739644
54	0x3ef5f8ee	0.4804148
55	0x3da5f2ad	0.08102927
56	0x3fe8f8c3	1.8200916
57	0x3ee2fc25	0.44332996
58	0xbf14efcc	-0.581784
59	0x3f32ece9	0.69892746
60	0x3fd63b1c	1.6736789
61	0xbebbb7c0	-0.36663628
62	0xbf2ddbdd	-0.6791361
63	0xbe2d18b2	-0.16903952
64	0xbf64568b	-0.89194554
65	0xbd214acd	-0.039377976
66	0x4014fa46	2.3277755
67	0x3ef5d609	0.48014858
68	0xbfd9133c	-1.6958995
69	0xbe1875db	-0.14888708
70	0x3fa31683	1.2741245
71	0xbf19a0a5	-0.6001075
72	0x3edcf5c0	0.43156242
73	0x3d0ced19	0.0344058
74	0x3e831807	0.2560427
75	0x3cbb9d01	0.022902014
76	0x3fce54e8	1.6119661
77	0x3e7decc0	0.24797344
78	0xbf81cf88	-1.0141459
79	0x3f8b980d	1.0905777
80	0xbe930923	-0.28717908
81	0xbf020f4d	-0.508046
82	0xbf3dcb2b	-0.74138135
83	0x3f8a2c87	1.0794839
84	0xbfa84828	-1.314702
85	0xbf077015	-0.529054
86	0x3ee8d18b	0.4547237
87	0xbfbc93bb	-1.4732584
88	0x3eac965c	0.33708465
89	0x3f453752	0.7703754
90	0x3f386314	0.7202618
91	0x3ed15f51	0.40893033
92	0xbfa1c452	-1.2638037
93	0x4025a58a	2.5882287
94	0xbf2fcbd1	-0.68670374
95	0x3f9859dc	1.1902423
96	0xbe9c7cc6	-0.30563945
97	0x3d35f991	0.04442746
98	0xbdab061e	-0.08350776
99	0x3efc65f7	0.49296543
100	0xbf511399	-0.8167053
101	0x3e9805bd	0.29691878
102	0xbf8794a5	-1.0592238
103	0xbf377823	-0.7166769
104	0x3f427c69	0.75971085
105	0x3f9a1c81	1.2039949
106	0x3e411533	0.18855743
107	0x3ee3b4bf	0.44473836
108	0xbed30fdc	-0.41223037
109	0x3f4dfee3	0.8046705
110	0xbfb8492b	-1.4397329
111	0x3e7c8574	0.24660283
112	0xbce1089d	-0.027469927
113	0xbfdfee26	-1.7494552
114	0xbf5c5be0	-0.8607769
115	0xc0048c0c	-2.0710478
116	0x3f51c423	0.81939906
117	0xbee8cdb0	-0.45469427
118	0xbe965111	-0.29358724
119	0xbf547b9a	-0.830011
120	0xbd78d7c9	-0.060752664
121	0xbfa23ea6	-1.2675369
122	0xbde5210c	-0.11187944
123	0x3f75b636	0.95981157
124	0xbefff998	-0.49995112
125	0x3ff9a574	1.9503617
126	0x3f3c5354	0.7356465
127	0x3f4ed40a	0.80792296
128	0xbfa828f9	-1.3137504
129	0xbf0b92a8	-0.54520655
130	0xbf7b4245	-0.98147994
131	0x3f1e029c	0.6172273
132	0x3ef0c8ca	0.4702819
133	0xbf050122	-0.51954854
134	0x3f37e4ff	0.71833795
135	0xbf9f5f61	-1.2450982
136	0xc033afaa	-2.8075967
137	0x3f0bea44	0.54654336
138	0x3fb014be	1.375633
139	0x3db5a86e	0.08870016
140	0x400f89e3	2.242791
141	0x401c21cf	2.4395635
142	0xbf1ab1c0	-0.60427475
143	0xbf8ca98b	-1.098924
144	0x3fb01aea	1.3758214
145	0x3ed9fa18	0.4257362
146	0xbea34ec0	-0.3189602
147	0xbef8af78	-0.48571372
148	0xbf3fb98c	-0.748925
149	0x3f80e83d	1.0070873
150	0x3f979cab	1.1844686
151	0xbdaaac71	-0.08333672
152	0xbe644288	-0.22291005
153	0x40281ba4	2.626687
154	0x3f84fe14	1.0390038
155	0x3e670908	0.22562039
156	0xbea9380f	-0.33050582
157	0x3f1297b2	0.5726272
158	0xbfbc6edb	-1.472133
159	0xbf861f74	-1.0478349
160	0xbfb9d0c2	-1.4516833
161	0xbf8ac381	-1.0840913
162	0xbf427c02	-0.7597047
163	0xbda5e2ad	-0.080998756
164	0x3eaa7339	0.33291033
165	0xbf46075b	-0.77354974
166	0xbeeff4b4	-0.4686638
167	0x3f9a4602	1.2052615
168	0xbc3c510a	-0.011493931
169	0x3d80c4c1	0.06287528
170	0x3fc3442c	1.525518
171	0x3edcf62b	0.4315656
172	0x3d03719f	0.03209078
173	0x3fa99bfa	1.3250725
174	0x3f3eb1fc	0.7449033
175	0x3e7ac253	0.24488191
176	0x3c9a672d	0.018848026
177	0x3f3f1f98	0.74657583
178	0x3e91553d	0.28385344
179	0x3f939eb2	1.1532805
180	0x3f987ad8	1.1912489
181	0xbf8a2fdb	-1.0795854
182	0xbf7c1eee	-0.98484695
183	0xbf3b19db	-0.7308633
184	0x3fa56f16	1.2924526
185	0x3f4aa8d8	0.79163885
186	0xbf82a05b	-1.0205187
187	0xbe530e0a	-0.20610824
188	0x3fa87c65	1.3162962
189	0xbfab90b2	-1.3403533
190	0xbf8e74c3	-1.1129383
191	0x3ede0f87	0.4337122
192	0x3f74b94d	0.95595247
193	0xbee4f4c9	-0.44718006
194	0x3f05bfea	0.5224596
195	0x3e84f7ab	0.25970206
196	0x3f4da84d	0.8033493
197	0x3f286844	0.65784097
198	0x3f0d5ab9	0.55216557
199	0x3f4dd7cd	0.8040741
200	0x3f3bb05c	0.7331598
201	0xc01703e4	-2.3596125
202	0xbe87a727	-0.26494715
203	0xbfa7d210	-1.3110981
204	0x3f893f72	1.0722487
205	0xbf1b0b0c	-0.6056373
206	0xbfa71b57	-1.3055218
207	0x3f974dc2	1.1820605
208	0x3ea6c65b	0.32573208
209	0xbe7d2f11	-0.24724986
210	0x3e97553a	0.2955721
211	0xbfb14b3b	-1.3851084
212	0xbeba51d2	-0.3639055
213	0xbf069a43	-0.52579135
214	0xbdacfead	-0.08447013
215	0xbe9f77d9	-0.31146124
216	0xbf2bcdf2	-0.6711112
217	0x3ea50894	0.32233107
218	0xbd0f12fa	-0.034930207
219	0xbff6b28e	-1.927324
220	0x3f741f3c	0.9536016
221	0x3e23ced4	0.15996867
222	0x3f5925c7	0.8482327
223	0x3f4b6888	0.7945638
224	0xbed83b8d	-0.42232934
225	0xbf97e4f4	-1.1866746
226	0xbe3702fb	-0.1787223
227	0x3fc753b7	1.5572423
228	0xbfa8c007	-1.3183602
229	0x3fc9b8c8	1.5759516
230	0x3f849186	1.035691
231	0xbec58c76	-0.38583726
232	0xbf907c87	-1.1288003
233	0xbdd70bd5	-0.10500304
234	0xbf16fed3	-0.5898258
235	0x3ddfa385	0.10919861
236	0x3e04cd49	0.12968935
237	0x3fae4098	1.3613462
238	0x3e4e00ec	0.20117539
239	0x3f4e778f	0.8065118
240	0x3fdadefd	1.7099301
241	0x3f3378cd	0.701062
242	0x3f6a14d7	0.9143805
243	0x3e44852c	0.19191426
244	0x3e691595	0.22762139
245	0x3fd5bcdb	1.6698259
246	0xbea26023	-0.31713971
247	0x3f6e533e	0.9309577
248	0x3f8cbf9a	1.0995972
249	0xbd17f48c	-0.037098452
250	0x3d6bd928	0.057580143
251	0xbf2b70cb	-0.66968983
252	0x3e2d5677	0.16927515
253	0xbfcbe183	-1.5928196
254	0x3eac5a62	0.33662707
255	0xbf6e994c	-0.9320266

cpu f4 [512]
0	0x3d0d0abc	0.034434065
1	0x3c742e12	0.014903562
2	0x3e852428	0.26004148
3	0x3c82fa03	0.015988356
4	0x3e978e41	0.2960072
5	0x3df2d417	0.11856859
6	0x3e07f57e	0.13277242
7	0x3cb3ea1d	0.02196222
8	0xbd83ae89	-0.06429774
9	0xbdb176d5	-0.086652435
10	0xbccaa1ef	-0.02473542
11	0x3c88f09f	0.0167163
12	0x3e876b7d	0.26449195
13	0x3deb547b	0.11490723
14	0x3e6680d6	0.22510085
15	0x3e302316	0.17200884
16	0x3dba721d	0.09103797
17	0x3d32f148	0.043687135
18	0x3c4be5fe	0.012444971
19	0x3e196399	0.149794
20	0xbc1f9e83	-0.009742382
21	0x3c12e850	0.00896652
22	0x3d0c51fc	0.034257874
23	0xbd20edae	-0.03928917
24	0x3e7805f2	0.24221018
25	0xbd23b00d	-0.039962817
26	0xbe044843	-0.1291819
27	0x3d886ab8	0.0666098
28	0xbc0da2cd	-0.008644772
29	0x3d8c106a	0.06839068
30	0x3e4efce5	0.20213659
31	0xbe29b2be	-0.16572091
32	0x3d81b8d1	0.06334079
33	0x3e687879	0.22702207
34	0x3cedbbc5	0.0290202
35	0xba7fdad6	-0.0009760087
36	0x3e1acb66	0.15116653
37	0x3e1a9072	0.15094164
38	0x3e15ea57	0.14640175
39	0x3d384961	0.044991855
40	0x3ce83e4c	0.028350018
41	0x3e01ff1a	0.1269497
42	0x3ea2fafb	0.31832108
43	0x3e479ed0	0.19494176
44	0x3ca949ca	0.020665068
45	0x3d103c8d	0.035213996
46	0x3db1b0ae	0.08676277
47	0x3e35c0cd	0.17749329
48	0x3cfd8fc8	0.03095235
49	0x3e22c077	0.15893732
50	0x3e320109	0.17383207
51	0x3d97ea3e	0.07417725
52	0x3c77b8e2	0.015119763
53	0x3e300732	0.17190245
54	0x3b17486d	0.002308394
55	0x3e8ed27c	0.27894962
56	0xbc470c20	-0.012148887
57	0xbda4705b	-0.080292426
58	0x3e3b7b29	0.183087
59	0x3e5d349f	0.21602105
60	0x3d88e2ae	0.06683861
61	0xbd3778e7	-0.044793036
62	0x3ea4c021	0.32177833
63	0x3c7cf7aa	0.015439907
64	0xbf0937ef	-0.5360097
65	0x3e461597	0.19344173
66	0x3dfbefde	0.123016104
67	0x3bb46c2b	0.0055060587
68	0x3e5ef675	0.21773703
69	0x3e137b63	0.14402537
70	0x3dc72005	0.09722904
71	0xbee1d907	-0.4411089
72	0x3e05211d	0.13000913
73	0xbd429c29	-0.047512207
74	0x3da2f0ad	0.079560615
75	0x3dfd0f25	0.12356404
76	0xbd5afb03	-0.05346204
77	0xbcf43973	-0.02981255
78	0x3ca56a62	0.020192329
79	0x3d802b46	0.06258254
80	0xbbd7344a	-0.0065675126
81	0x3e3cd0f0	0.18439078
82	0x3da88e8c	0.08230314
83	0x3d09891e	0.03357803
84	0x3cb8d874	0.02256415
85	0x3d8795de	0.06620382
86	0x3e092c9c	0.13395923
87	0xbdd7928b	-0.10525998
88	0x3e2d2c0f	0.16911338
89	0x3d944a01	0.072406776
90	0x3dfdf062	0.12399365
91	0x3d8f5f37	0.07000583
92	0xbe1fa998	-0.15592039
93	0x3e4a69f4	0.1976698
94	0x3cd341cc	0.02578821
95	0xbd5df902	-0.05419255
96	0xbe3fabcb	-0.18717878
97	0x3dc67f45	0.096922435
98	0x3e255681	0.1614628
99	0x3dc5c7e2	0.09657265
100	0x3e68ce13	0.22734861
101	0x3d07d76f	0.033164438
102	0x3e1ffb13	0.15623121
103	0x3e3fe28e	0.18738768
104	0x3eb4920d	0.35267678
105	0x3de2014a	0.11035402
106	0xbe647273	-0.22309284
107	0x3cbaa39f	0.022783099
108	0x3d2483c6	0.04016473
109	0x3d959c6c	0.07305226
110	0x3ce18b53	0.027532255
111	0x3d94d136	0.07266466
112	0x3e1d1ff3	0.15344219
113	0x3cf18eda	0.029487062
114	0x3e59c7a7	0.21267568
115	0x3c9a3b4e	0.018827107
116	0x3e16ea73	0.14737873
117	0x3dbbed50	0.09176123
118	0xbd708b21	-0.058726434
119	0x3e7b1fbd	0.24523826
120	0x3e68567f	0.22689246
121	0x3eb4e42c	0.3533033
122	0x3dc17273	0.094456576
123	0xbd5d5a44	-0.054041162
124	0xbd6c3846	-0.057670854
125	0xbbd8894d	-0.0066081644
126	0x3d394063	0.04522742
127	0xbce34951	-0.02774492
128	0x3d5f61c8	0.05453661
129	0x3d6e476b	0.05817358
130	0xbd7a2c6a	-0.061077513
131	0x3cd17e28	0.025572851
132	0x3e24234a	0.16029087
133	0x3d100373	0.03515954
134	0xbd08cc19	-0.033397768
135	0xbce34d36	-0.027746778
136	0x3e66a805	0.22525032
137	0x3e60c31a	0.21949425
138	0x3e06bd06	0.13158044
139	0xbd96ecb4	-0.07369366
140	0xbe166c94	-0.14689857
141	0xbd507ae2	-0.05089844
142	0xbd99f34f	-0.075171106
143	0xbe2b289c	-0.1671471
144	0xbe0cb04d	-0.13739128
145	0x3e3263ad	0.17420836
146	0x3d9cb90b	0.07652482
147	0xbcc24456	-0.023714226
148	0x3c7baa24	0.015360389
149	0x3d78a4c8	0.060704023
150	0xbc5d4fcd	-0.0135077955
151	0xbe152277	-0.14563929
152	0xbd922bdd	-0.071372725
153	0x3d9d82c2	0.07690956
154	0x3ddf9981	0.109179504
155	0xbe41d0c2	-0.18927291
156	0x3d8bec66	0.06832199
157	0x3de494cb	0.111611925
158	0xbd6a47c2	-0.05719734
159	0x3e5464f8	0.20741642
160	0xbdd9df79	-0.10638327
161	0x3c0680f2	0.008209454
162	0x3d37d31c	0.044879064
163	0x3d435849	0.047691617
164	0x3d65f5fe	0.0561428
165	0xbb3e2f12	-0.0029019755
166	0xbc1d2242	-0.009590687
167	0x3b99dcca	0.0046955096
168	0xbd80b967	-0.06285363
169	0x3c826b97	0.015920443
170	0x3d665764	0.056235686
171	0xbe19c4d7	-0.15016495
172	0xbd91b1e7	-0.0711401
173	0xbdc8581a	-0.09782429
174	0x3cc7023b	0.024293056
175	0xbd80d4eb	-0.06290611
176	0xbdfce6e6	-0.12348728
177	0xbba67ef3	-0.0050810515
178	0xbdd2f122	-0.10299899
179	0xbe440fd5	-0.19146664
180	0x3cfc44b1	0.030794473
181	0xbdd05b55	-0.1017367
182	0xbe05a5f1	-0.13051583
183	0xbdceb09a	-0.10092278
184	0x3d5cd870	0.05391735
185	0x3e069c9d	0.1314568
186	0xbd391162	-0.045182593
187	0xbe4d2e33	-0.20037155
188	0xbe1f97fd	-0.15585323
189	0x3c6dfe3f	0.014525949
190	0xba40e34a	-0.00073580875
191	0xbe451169	-0.19244923
192	0x3efac9d6	0.48982114
193	0x3ea85768	0.32879186
194	0x3d78c596	0.060735308
195	0xbdb92b20	-0.090414286
196	0xbc6d5dcc	-0.014487695
197	0x3b602fad	0.0034208104
198	0xbd577597	-0.052602377
199	0x3ed11fa6	0.40844458
200	0x3e0fc860	0.14041281
201	0x3d81a8a6	0.06330995
202	0xbca4afe3	-0.0201034
203	0x3ce2e6e6	0.027697992
204	0x3b9a44df	0.004707917
205	0x3d00eb86	0.031474613
206	0xbdf7b9e4	-0.12096003
207	0xbcf48319	-0.029847668
208	0x3d8cbcbd	0.068719365
209	0x3cafba16	0.021451037
210	0xbd600c49	-0.054699216
211	0xbcd8040c	-0.026369117
212	0x3da6d289	0.08145625
213	0xbd6fcbd2	-0.058543988
214	0xbd384bff	-0.04499435
215	0xbddc1a70	-0.1074723
216	0xbd214e83	-0.039381515
217	0xbc6a4418	-0.014298461
218	0xbd8417df	-0.064498655
219	0x3dd3230a	0.103094175
220	0x3e164584	0.14674956
221	0x3cb91528	0.022593096
222	0xbd1663a9	-0.036716137
223	0xbe4b3e63	-0.19848017
224	0x3c72a4d5	0.014809807
225	0x3d6a04d8	0.057133526
226	0xbbf28fda	-0.0074024023
227	0xbe1ccbbb	-0.15312092
228	0xbcf07c74	-0.029356219
229	0xbc133e92	-0.008987086
230	0x3e624ece	0.22100374
231	0x3d991f33	0.07476654
232	0x3dc85faa	0.097838715
233	0xbc3120fc	-0.010811087
234	0x3eec61ed	0.4616846
235	0xbdaf66fe	-0.08564566
236	0x3cd65241	0.026162269
237	0x3e2325e5	0.15932424
238	0xbd6c085c	-0.05762516
239	0x3c97e1f6	0.018540364
240	0xbd854cb9	-0.06508774
241	0x3d7c533a	0.06160281
242	0x3d5d9fc3	0.05410744
243	0x3d42450d	0.047429133
244	0xbe41b579	-0.18916883
245	0xbe20fe7c	-0.15722078
246	0xbc3b1716	-0.011419078
247	0xbce7a520	-0.02827698
248	0xbe667ee0	-0.22509336
249	0x3d092617	0.03348359
250	0xbe3d2407	-0.18470775
251	0xbdb5f62d	-0.08884845
252	0x3d06a7bf	0.03287482
253	0xbdaa7494	-0.08323017
254	0xbdaad8f5	-0.083421625
255	0xbd2a99c7	-0.04165056

cpu f4 [512]
0	0xbd477c16	-0.048702322
1	0x3c613c25	0.01374725
2	0x3eb6841d	0.3564767
3	0x3d7f788d	0.062370826
4	0x3e0fb636	0.14034352
5	0x3dcc78c1	0.099839695
6	0x3d020ce5	0.03175058
7	0x3d0cf7c5	0.03441598
8	0xbd708e8a	-0.058729686
9	0xbdde4d9a	-0.10854645
10	0x3ddb68ed	0.107133724
11	0x3d0fd047	0.035110738
12	0x3e6025f8	0.21889484
13	0x3dd1b039	0.1023869
14	0x3e3108dd	0.17288537
15	0x3e124135	0.14282687
16	0x3dab312c	0.08358988
17	0xba6c4b21	-0.00090138806
18	0xbd6575f4	-0.056020692
19	0x3d415769	0.0472025
20	0xbc457432	-0.012051629
21	0xbdafa55e	-0.08576463
22	0x3da33332	0.07968749
23	0xbc3fb46d	-0.011700732
24	0x3e3e5b99	0.18589629
25	0xbde6babc	-0.112660855
26	0xbcf75c70	-0.030195445
27	0x3d9d6f58	0.07687253
28	0x3d3dfd5e	0.046384208
29	0x3e19d6a7	0.1502329
30	0x3e1444a4	0.1447931
31	0xbbe34949	-0.0069362265
32	0x3d4b2842	0.04959894
33	0x3e2c292c	0.16812581
34	0x3e277479	0.16353025
35	0x3d28b20e	0.04118543
36	0x3d0a80be	0.033814184
37	0x3dcf6bf4	0.10128012
38	0x3e3ccbd4	0.1843713
39	0xbc1f832b	-0.009735863
40	0x3d164225	0.036684174
41	0x3e695af3	0.227886
42	0x3eba364d	0.36369553
43	0x3e3fae58	0.1871885
44	0x3c4e4e4f	0.012591912
45	0x3b470881	0.003037006
46	0x3dd6c6bd	0.10487125
47	0x3e84c021	0.25927833
48	0xbd1df2e0	-0.0385617
49	0x3dd092af	0.10184228
50	0x3e36a8b1	0.17837788
51	0xba215517	-0.0006154342
52	0x3d942dee	0.07235323
53	0x3e6d51c6	0.23175725
54	0x3d0327e6	0.032020472
55	0x3e7624a0	0.24037409
56	0xbbbdc3cf	-0.0057911645
57	0xbd2f99b8	-0.042871207
58	0x3df7efe3	0.12106302
59	0x3e37a434	0.17933732
60	0x3de11a3b	0.10991331
61	0x3d32a80c	0.043617293
62	0x3e3c7a8b	0.18406121
63	0xbdb21648	-0.08695656
64	0xbeea2c1b	-0.45736775
65	0x3e91e63c	0.28495967
66	0x3e0452a3	0.12922148
67	0x3dda04f3	0.10645475
68	0x3e0fc366	0.14039382
69	0x3df4b947	0.11949401
70	0x3cc815a4	0.024424382
71	0xbee392a3	-0.44447812
72	0x3d74ea99	0.059794042
73	0xbd98c86b	-0.07460102
74	0x3d324913	0.04352672
75	0xbd3bd97b	-0.045861702
76	0x3d8e26f7	0.06941026
77	0xbd5c83f4	-0.053836778
78	0x3c8801a8	0.016602352
79	0x3cd33084	0.02577997
80	0xbd8ed7c4	-0.06974748
81	0x3e1390cc	0.14410704
82	0x3e099f83	0.13439755
83	0x3e3bb933	0.18332367
84	0xb9d5a8cf	-0.00040752298
85	0x3d6c75d2	0.05772955
86	0x3de016b2	0.10941829
87	0xbddc8905	-0.10768322
88	0x3df37c4b	0.118889414
89	0x3cb40202	0.021973614
90	0x3cfa946c	0.030588351
91	0x3cf15b94	0.029462613
92	0xbde127d7	-0.10993927
93	0x3e84baae	0.25923675
94	0x3dcecc2f	0.10097539
95	0x3d8756b1	0.06608332
96	0xbe1f6cf1	-0.15568902
97	0x3db88420	0.09009576
98	0x3d72b01c	0.059249982
99	0x3bba26cf	0.005680896
100	0x3e8181c5	0.2529432
101	0x3d0dff84	0.034667507
102	0x3e7f69c2	0.24942687
103	0x3e3112a1	0.17292263
104	0x3e8bd7d9	0.27313116
105	0x3e2be386	0.16786012
106	0xbe3dc6b1	-0.18532826
107	0x3d6b1311	0.05739123
108	0x3da17fc0	0.078856945
109	0x3e48553f	0.19563769
110	0x3e2476b8	0.16060913
111	0x3db1319c	0.0865204
112	0x3e18d4cd	0.14924927
113	0x3d0f5bea	0.034999765
114	0x3e53eead	0.20696516
115	0x3dad2aab	0.08455404
116	0x3e621be9	0.2208096
117	0x3ddf9d89	0.10918719
118	0xbe00151a	-0.1250805
119	0x3e1dee62	0.15422967
120	0x3ea45eb1	0.32103494
121	0x3eb02b6d	0.3440813
122	0x3df23470	0.11826408
123	0x3dd56a78	0.10420698
124	0xbd79a3ce	-0.060947232
125	0x3de1babc	0.11021945
126	0x3e54e6fc	0.20791239
127	0x3ced153b	0.028940788
128	0x3caf864a	0.021426339
129	0x3d3a06f9	0.045416806
130	0xbd03aa3a	-0.032144763
131	0x3e0a1783	0.13485532
132	0x3d6d3d7e	0.05791997
133	0xbc0bf929	-0.008543291
134	0x3d4ba69c	0.049719438
135	0xbd860d20	-0.06545472
136	0x3e71b250	0.23603177
137	0x3e19ab97	0.15006863
138	0xbc0dce5b	-0.008655156
139	0xbcd4e809	-0.02598955
140	0xbdb0ed3d	-0.086389996
141	0x3cac79f7	0.021054251
142	0xbe4b2e2f	-0.19841836
143	0xbe4589c7	-0.19290839
144	0xbdd71da2	-0.10503699
145	0x3d36bfec	0.044616625
146	0xbc8c4607	-0.017123235
147	0x3d2a260b	0.041540187
148	0x3c38d6bd	0.011281666
149	0xbc9e7518	-0.019342944
150	0xbe034f4c	-0.12823218
151	0x3c37ac8a	0.01121057
152	0xbde14601	-0.1099968
153	0x3e0b7d8c	0.13622111
154	0x3e0549b3	0.13016395
155	0xbd5c8140	-0.0538342
156	0x3d883576	0.06650822
157	0x3d81976a	0.06327708
158	0xbdfcb3a6	-0.12338953
159	0x3e605f4e	0.21911356
160	0xbe256a30	-0.16153789
161	0x3d80438b	0.06262883
162	0xbdaa0a08	-0.083026946
163	0x3d0035a1	0.031301145
164	0x3ba0eb25	0.004910844
165	0xbd820b25	-0.06349782
166	0xbd634ff2	-0.055496164
167	0x3e224c18	0.1584934
168	0xbd098484	-0.033573642
169	0xbc26b944	-0.010176007
170	0x3e11f3a1	0.14253093
171	0xbe6588a0	-0.224154
172	0xbcb48fa9	-0.022041159
173	0x3d50166f	0.050802644
174	0x3d486714	0.048926428
175	0xbd6f08f7	-0.05835816
176	0xbe2add9e	-0.16686103
177	0x3c7a752f	0.015286728
178	0xbd7e7921	-0.062127236
179	0xbd8d98d7	-0.069139175
180	0x3d87d9c3	0.066333316
181	0xbda923f8	-0.082588136
182	0xbe087f32	-0.13329771
183	0xbe3bc0aa	-0.18335214
184	0xbd2901cb	-0.041261476
185	0x3e7361ec	0.23767823
186	0xbdb672e9	-0.08908636
187	0xbe61b26a	-0.22040716
188	0xbe3e1530	-0.1856277
189	0x3c8b4922	0.017002646
190	0xbd809f44	-0.062803775
191	0xbe292f3c	-0.16521925
192	0x3f04ccee	0.518752
193	0x3ebe5e83	0.37181482
194	0xbd62bab1	-0.055353824
195	0xbd1c3440	-0.038135767
196	0xbb84eff5	-0.0040569254
197	0xbe095db5	-0.13414653
198	0x3d22bf49	0.039733205
199	0x3ee0e58b	0.43925127
200	0x3e07cd51	0.13261916
201	0x3d868e55	0.065701164
202	0x3db16764	0.08662298
203	0xbd0a1618	-0.033712476
204	0x3dd2a897	0.10286062
205	0x3c59e492	0.013299124
206	0x3cdbde9b	0.026839545
207	0x3d71f70b	0.05907349
208	0x3c9ce022	0.019149844
209	0xbd3dff78	-0.046386212
210	0xbe192ba7	-0.14958058
211	0xbca43f6b	-0.020049771
212	0x3d82a2e8	0.06378728
213	0xbcdd8f00	-0.027045727
214	0xbe0788de	-0.13235804
215	0xbde175dc	-0.11008808
216	0xbdc65cc4	-0.096856624
217	0x3dd938da	0.10606547
218	0x3cc6c164	0.024262138
219	0x3d82ffab	0.06396421
220	0x3e1a8e8b	0.15093438
221	0x39b0a507	0.0003369229
222	0xbe19fe78	-0.15038478
223	0xbd530944	-0.05152251
224	0xbd1cedb8	-0.038312644
225	0xbd873731	-0.06602324
226	0xbe19309b	-0.14959948
227	0xbe3429f2	-0.17594126
228	0xbdfd2782	-0.12361051
229	0xbd054dc3	-0.032544862
230	0x3e36f547	0.17867003
231	0xbd036fbf	-0.03208899
232	0x3db5a999	0.08870239
233	0x3d84c12e	0.064821586
234	0x3f0038a3	0.5008642
235	0xbe6e0aed	-0.23246355
236	0x3d319845	0.043358106
237	0x3ddbd90a	0.10734756
238	0xbd24ae46	-0.040205263
239	0xbbbc4380	-0.0057453513
240	0x3d54acee	0.05192273
241	0xbcd95701	-0.026530745
242	0x3c47deb8	0.012199096
243	0x3d8bb6c3	0.068219684
244	0xbe6465f3	-0.22304516
245	0xbd476290	-0.04867798
246	0xbd4ea391	-0.050448958
247	0xbd61323d	-0.05497955
248	0xbe3764ca	-0.17909542
249	0x3cf761d4	0.030198015
250	0xbe45a83d	-0.19302459
251	0xbdc525eb	-0.09626373
252	0x3de75954	0.11296335
253	0x3d0060b3	0.03134222
254	0xbdec524d	-0.11539135
255	0xbe1a6877	-0.15078913

cpu f4 [512]
0	0x3d3b4209	0.045717273
1	0x3ea72327	0.32644007
2	0x3dc8aefb	0.09799
3	0x3db91707	0.09037595
4	0xbd179335	-0.037005622
5	0xbdec93b8	-0.115516126
6	0x3c88d2e8	0.01670213
7	0x3dbf1468	0.09330064
8	0x3da00093	0.078126095
9	0xbe25cf8e	-0.16192457
10	0x3d3d6ff1	0.046249334
11	0x3da38db4	0.07986012
12	0xbcb015af	-0.021494715
13	0x3e706a32	0.2347801
14	0x3d51ce63	0.051222216
15	0x3e47ed64	0.19524151
16	0x3e08e7f8	0.13369739
17	0xbc1636c8	-0.009168334
18	0x3d6d0a60	0.057871222
19	0x3cddd5b1	0.027079435
20	0xbe79aec8	-0.2438308
21	0x3dc5ddd8	0.09661454
22	0x3e32b6cc	0.17452544
23	0x3e0c61e2	0.13709214
24	0x3e243f10	0.16039681
25	0xbda9ad3b	-0.08284994
26	0x3de734b3	0.112893485
27	0x3e7cb352	0.2467778
28	0x3d3525ac	0.04422538
29	0xbc1447c7	-0.009050316
30	0x3e5d2a36	0.21598133
31	0x3dfc14e8	0.12308675
32	0x3df4873d	0.11939857
33	0x3b5c679f	0.00336311
34	0x3bf9ca3b	0.0076229847
35	0x3dd566f5	0.10420028
36	0xbdf4c757	-0.119520836
37	0x3d2f5622	0.042806752
38	0x3dfe545c	0.12418434
39	0x3e19cf97	0.15020595
40	0xbc9efec8	-0.019408599
41	0xbd3c464f	-0.04596549
42	0x3b7d640b	0.0038664367
43	0xbd31204f	-0.043243703
44	0x3d67fe18	0.056638807
45	0xbcd25ccd	-0.025679016
46	0xbcb43ba6	-0.022001099
47	0x3c2ff9cc	0.010740709
48	0xbb0e64ab	-0.0021727483
49	0x3d815343	0.06314709
50	0x3de6344b	0.11240443
51	0x3cc51e05	0.024062166
52	0x3df36b64	0.118857175
53	0x3ccc3211	0.024926217
54	0x3f115747	0.567738
55	0x3e038988	0.12845433
56	0x3e2b85fd	0.16750331
57	0x3e777079	0.24163999
58	0x3e4e087d	0.20120426
59	0x3db614da	0.08890696
60	0xbcf4bbff	-0.0298748
61	0x3e1df2fb	0.15424721
62	0x3e09dc96	0.13463053
63	0x3d1ff10d	0.039048243
64	0x3e3661fc	0.17810816
65	0xbd0180ac	-0.03161685
66	0xbd42ce2e	-0.04755991
67	0x3db7f130	0.0898155
68	0x3d57068e	0.052496485
69	0xbc8de7df	-0.017322479
70	0x3cd42bcf	0.025899796
71	0x3e1585e3	0.14601855
72	0xbcea959e	-0.028635796
73	0x3d2ad7d5	0.04170974
74	0x3da873fe	0.08225249
75	0xbd0c0d9e	-0.034192674
76	0x3e52bf78	0.20580852
77	0x3e842574	0.25809824
78	0x3d919eac	0.071103424
79	0x3dcf7005	0.10128788
80	0x3de7af4c	0.11312732
81	0x3d10e19f	0.03537142
82	0xbd46ad67	-0.048505213
83	0x3d47951f	0.048726197
84	0x3e1f7ef1	0.15575768
85	0x3e1947b6	0.14968762
86	0xbd04304c	-0.032272622
87	0x3d81ed80	0.06344128
88	0x3e109b70	0.14121795
89	0x3d840fa0	0.06448293
90	0x3df4bc6b	0.119500004
91	0x3d1d0f39	0.038344596
92	0x3dbad11b	0.09121915
93	0x3e15ef06	0.14641961
94	0x3e0f9d43	0.14024834
95	0x3cee901f	0.029121457
96	0x3d1070fa	0.035263993
97	0x3c2a4f7c	0.010394927
98	0xbb08c550	-0.002086956
99	0x3de5675d	0.112013556
100	0x3dab725e	0.08371423
101	0x3e5d2252	0.21595123
102	0x3dbe4748	0.092909396
103	0x3d9e0bd2	0.07717098
104	0x3f1e6c68	0.61884165
105	0x3e3d930a	0.18513122
106	0x3b7f3728	0.0038942788
107	0x3c309457	0.0107775545
108	0x3db7ca12	0.08974089
109	0x3e120daf	0.14263032
110	0xbd2141ad	-0.039369274
111	0x3dc57bf0	0.0964278
112	0xbcd4dffa	-0.025985707
113	0x3e0e372f	0.13888238
114	0x3e13a97c	0.14420122
115	0x3f4874ba	0.7830311
116	0xbe8a1055	-0.26965585
117	0xbe752fe0	-0.23944044
118	0x3e56cf8b	0.20977609
119	0xbcd02883	-0.025409942
120	0x3de72a74	0.11287394
121	0xbdb78d91	-0.089625485
122	0xbd3ec6a2	-0.04657615
123	0x3de7ef58	0.11324948
124	0x3daad80c	0.08341989
125	0x3e1e02ef	0.15430807
126	0x3d9185a4	0.07105568
127	0x3da3c9be	0.07997464
128	0xbd867669	-0.06565554
129	0x3dbbabb6	0.09163611
130	0xbd2d4519	-0.042302225
131	0xbdb12e79	-0.08651442
132	0x3d2afe34	0.041746333
133	0x3d92bdb0	0.07165086
134	0xbcb00273	-0.021485543
135	0x3d35fb1f	0.04442894
136	0xbd71ed01	-0.059063915
137	0x3d9fbb6e	0.07799421
138	0xbcba046f	-0.022707192
139	0xbdfa4dd2	-0.12221874
140	0x3e1094e9	0.14119305
141	0x3e1708f1	0.14749505
142	0xbb768546	-0.0037616058
143	0x3ce46779	0.02788137
144	0x3bc4caa8	0.006005604
145	0x3b0a14f3	0.0021069616
146	0x3dde63cd	0.10858879
147	0xbcc19848	-0.023632184
148	0x3e2ae610	0.16689324
149	0x3db291e8	0.08719236
150	0x3ceb58f8	0.028728947
151	0x3d183b6c	0.037166044
152	0x3d218631	0.039434616
153	0x3e2ec338	0.17066658
154	0x3d1577df	0.03649127
155	0x3e527b3d	0.20554824
156	0xbd98bfbb	-0.07458445
157	0xbcac8103	-0.021057611
158	0x3e1d31a7	0.15350972
159	0xbe5bfd1f	-0.21483277
160	0xbe1af063	-0.15130763
161	0x3d203073	0.039108705
162	0xbd60c0e4	-0.054871455
163	0x3d1fcb62	0.03901232
164	0x3e51d0d4	0.20489818
165	0x3e17c800	0.14822388
166	0x3d50ed77	0.051007714
167	0x3b4ca49b	0.0031226042
168	0x3d6073c1	0.05479789
169	0x3d5ffc5a	0.05468402
170	0x3db2f2dc	0.08737728
171	0x3da3f229	0.08005173
172	0x3e525e19	0.20543708
173	0x3e039869	0.12851109
174	0x3de0ebc7	0.10982471
175	0x3dd0f845	0.10203604
176	0xbd11cd60	-0.03559625
177	0x3daba79f	0.083815806
178	0xbdd46702	-0.1037121
179	0xbdaf7610	-0.085674405
180	0xbdf7ce83	-0.12099936
181	0x3d8d33ae	0.06894623
182	0x3e6b7422	0.2299352
183	0x3de05fbb	0.10955759
184	0xbc1ee698	-0.0096985325
185	0xbe1455f4	-0.14485914
186	0x3e20a8c6	0.15689382
187	0xbe13cd34	-0.14433748
188	0x3de18826	0.110122964
189	0xbd9a6d28	-0.07540351
190	0x3d917057	0.07101505
191	0xbde1a28f	-0.11017334
192	0xbd24c773	-0.040229272
193	0xbdd3dda4	-0.10345009
194	0x3c82f5c5	0.015986333
195	0xbdb1680e	-0.08662425
196	0x3dd78c08	0.10524756
197	0xbd1e774f	-0.038688
198	0xbd807c8e	-0.06273757
199	0x3c95d7a7	0.018291308
200	0x3df9299d	0.1216614
201	0xbcfa156a	-0.03052779
202	0xbdc50281	-0.09619618
203	0x3d8462ca	0.06464155
204	0xbdb2fd5b	-0.0873973
205	0xbd5dc94e	-0.054147057
206	0x3d149921	0.036278848
207	0xbdd9a510	-0.10627186
208	0xbd563310	-0.05229479
209	0xbccf1167	-0.025276853
210	0x3e0089a3	0.12552504
211	0xbde62475	-0.112374224
212	0x3dfd8d10	0.12380421
213	0xbdfd738b	-0.12375554
214	0x3dedba59	0.116078086
215	0xbd92fd68	-0.0717724
216	0xbdb18ed9	-0.08669824
217	0x3c82e824	0.015979834
218	0xbd0b2284	-0.033968464
219	0xbc99a93a	-0.018757451
220	0xbdb15e60	-0.08660579
221	0x3d086318	0.03329763
222	0x3e346822	0.17617849
223	0xbe130175	-0.14356025
224	0x3d527b94	0.051387385
225	0xbd215f8a	-0.039397754
226	0x3d24144b	0.040058415
227	0x3ba484dc	0.005020721
228	0xbba3f82d	-0.00500395
229	0x3d36952e	0.044575863
230	0xbd9c9ad4	-0.076467186
231	0x3d68badb	0.056818824
232	0x3e010235	0.12598498
233	0xbc19cb93	-0.009386915
234	0x3d39d3d0	0.045368016
235	0xbcd8841b	-0.02643018
236	0xbe02ef09	-0.12786497
237	0x3d566676	0.052343808
238	0xbd1a2b71	-0.037639085
239	0xbda43cdc	-0.080194205
240	0xbe07f0d1	-0.13275458
241	0xbdad8920	-0.0847342
242	0xbc252ef9	-0.010082
243	0x3df1dc72	0.11809625
244	0x3dbfbf8e	0.09362708
245	0x3dd75f26	0.10516195
246	0xbd81b550	-0.06333411
247	0x3bf1a872	0.0073748166
248	0x3b578992	0.0032888395
249	0x3df155e1	0.11783958
250	0x3ccce65f	0.025012193
251	0x3e5c550d	0.2151682
252	0xbbab8ef5	-0.0052355477
253	0xbe265896	-0.1624473
254	0x3dc2d8eb	0.0951403
255	0xbcaa3b9a	-0.020780373

cpu f4 [512]
0	0x3cfaa21a	0.030594874
1	0x3ec190d6	0.37805814
2	0x3df8abd6	0.1214215
3	0x3e619cbc	0.22032446
4	0x3da65f63	0.08123662
5	0xbd878228	-0.06616622
6	0x3e0701c6	0.1318427
7	0x3d56dedd	0.052458633
8	0x3d82fd20	0.06395936
9	0xbe305c2d	-0.17222662
10	0x3dba4ce1	0.09096695
11	0x3db219d9	0.08696336
12	0xbdfcdccb	-0.123468004
13	0x3dacccc4	0.084374934
14	0x3dc8ad14	0.09798637
15	0x3e4114f4	0.18855649
16	0x3d36f149	0.0446637
17	0x3d7f94dc	0.062397823
18	0x3e255969	0.16147389
19	0xbcda3e9b	-0.02664118
20	0xbe842af0	-0.2581401
21	0x3e687872	0.22702196
22	0x3e25a080	0.16174507
23	0x3d844765	0.0645893
24	0x3e975616	0.29557866
25	0xbb8a5da3	-0.004222588
26	0x3d0485d2	0.032354183
27	0x3eba1b96	0.3634917
28	0x3db01f2f	0.08599698
29	0xbd1480df	-0.036255714
30	0x3e0f9c86	0.14024553
31	0x3e83eb14	0.25765288
32	0x3de3da56	0.11125629
33	0xbb8cded7	-0.0042990255
34	0x3d934038	0.07189983
35	0x3e1b56ce	0.15169832
36	0xbd7f9d33	-0.062405776
37	0x3dddc7a0	0.10829091
38	0x3d75adeb	0.059980314
39	0x3e8e8f9e	0.27843946
40	0x3d34c48c	0.044132754
41	0x3d62ca57	0.055368748
42	0xbce3a8c5	-0.027790437
43	0xbd40e8b1	-0.04709691
44	0x3d6e89d6	0.05823692
45	0xbcb57467	-0.022150232
46	0xbcb02063	-0.021499818
47	0x3d9b76d6	0.075910255
48	0x3bb1c59a	0.0054251673
49	0xbd8548db	-0.06508037
50	0x3e1b39c4	0.15158755
51	0x3de0177c	0.10941979
52	0x3d5c467e	0.053778164
53	0x3dc4d458	0.09610814
54	0x3f26ce56	0.65158594
55	0x3d2a0e90	0.041517794
56	0x3e404107	0.18774806
57	0x3e5e09f6	0.21683487
58	0x3e8f8edc	0.2803868
59	0x3dd52305	0.1040707
60	0x3d75842b	0.0599405
61	0x3dd69ca3	0.10479095
62	0x3e384098	0.1799339
63	0x3d9f31c8	0.07773167
64	0x3d751da5	0.059842724
65	0x3c9318a4	0.017956086
66	0xbccbfabf	-0.024899838
67	0xbc457804	-0.01205254
68	0x3dcb31b3	0.09921589
69	0xbcd7d8ba	-0.02634846
70	0x3e25eb78	0.16203105
71	0x3c4dba6c	0.0125566535
72	0x3acfa2f4	0.001584141
73	0x3dd23e53	0.10265794
74	0x3d2067a4	0.03916134
75	0xbd2d9932	-0.042382427
76	0x3e6d54af	0.23176835
77	0x3e7d8c65	0.24760588
78	0x3dd7ef7c	0.10543725
79	0x3d761638	0.060079783
80	0x3d1d24da	0.038365223
81	0xbc1f665b	-0.009728993
82	0xbddedc2f	-0.108818404
83	0x3c4a045b	0.01233014
84	0x3e48a4b5	0.19594081
85	0x3d6f6a79	0.05845115
86	0xbd0323bd	-0.032016505
87	0x3e3645dc	0.17800087
88	0x3e10a994	0.14127189
89	0x3dbc4216	0.091922924
90	0x3d64ab97	0.055827703
91	0x3dbcbc64	0.0921562
92	0x3e649bf8	0.22325122
93	0x3cfa9439	0.030588256
94	0x3df9e100	0.122011185
95	0x3d8e11ff	0.06937026
96	0xbd802a3b	-0.06258055
97	0x3a88b980	0.001043126
98	0x3dd848b5	0.10560743
99	0x39fdc974	0.00048406015
100	0x3dfe9c7d	0.124321915
101	0x3e5e4bb2	0.21708563
102	0x3d029e92	0.031889506
103	0x3d974a39	0.07387204
104	0x3f2c90e9	0.67408615
105	0x3d9c58a0	0.076340914
106	0xbd301d06	-0.04299643
107	0x3e03d179	0.12872876
108	0x3db465c6	0.08808474
109	0x3e04b350	0.12959027
110	0xbd985e8b	-0.07439908
111	0xbc4122bc	-0.0117880665
112	0xbd456a0d	-0.04819684
113	0x3e539b35	0.20664676
114	0x3dd78abd	0.10524509
115	0x3f205981	0.6263657
116	0xbe167ebc	-0.14696783
117	0xbd88a536	-0.066721365
118	0x3e10435f	0.140882
119	0xbc830285	-0.015992412
120	0x3cb23a3b	0.021756282
121	0xbaec1ccc	-0.0018013953
122	0xbd943f80	-0.07238674
123	0x3dd3cb8b	0.10341557
124	0x3e4c211b	0.19934504
125	0x3d7a888f	0.06116539
126	0x3df03f88	0.117308676
127	0x3db3e8bd	0.08784626
128	0xbc607704	-0.013700251
129	0x3d6ac8d3	0.057320427
130	0x3d7f5e90	0.06234604
131	0xbd0418c0	-0.032250166
132	0x3d54963a	0.05190108
133	0x3e3c8ab9	0.18412293
134	0xbb3a990a	-0.0028472566
135	0x3c9fdb12	0.01951364
136	0xbbd2755d	-0.006422682
137	0x3e25c21d	0.1618733
138	0xba7c2280	-0.0009618178
139	0xbccf0d5e	-0.025274929
140	0x3e146d82	0.14494899
141	0x3ded732c	0.11594233
142	0x3da88f59	0.082304664
143	0xbd71bfc5	-0.059020776
144	0x3d54e6f1	0.051978055
145	0x3d365e48	0.044523507
146	0x3ce4e14f	0.027939467
147	0xbc605690	-0.013692513
148	0x3e69294c	0.2276966
149	0x3c9159cf	0.01774302
150	0x3cdf66f7	0.027270777
151	0x3d63bcea	0.055600084
152	0x3de91a9b	0.11382028
153	0x3d198a9c	0.037485704
154	0x3d87d99e	0.06633304
155	0x3e60b7a6	0.21945056
156	0x3d39a304	0.04532148
157	0xbd98d17c	-0.07461831
158	0x3ddbb0fc	0.107271165
159	0xbe38143d	-0.1797647
160	0xbe5522b8	-0.20814025
161	0xbd71e7a5	-0.059058804
162	0xbd50d828	-0.050987393
163	0xbd7bb076	-0.061447583
164	0x3e61e6a8	0.22060645
165	0x3b45fd7e	0.0030210908
166	0x3cfb3351	0.030664118
167	0xbd96c5fe	-0.07361983
168	0xbda8464a	-0.082165316
169	0x3e11efc2	0.14251617
170	0xbda40d81	-0.08010388
171	0x3cddf9e7	0.027096702
172	0x3e601f2c	0.21886891
173	0x3ce66692	0.028125081
174	0x3e190aab	0.14945476
175	0x3d8489bd	0.06471584
176	0x3c98ebcb	0.018667122
177	0x3e0ef03d	0.13958831
178	0xbb858833	-0.004075074
179	0x3d697290	0.05699402
180	0xbe0754f0	-0.13215995
181	0xbc4dcc3d	-0.012560901
182	0x3e9e45ce	0.30912632
183	0x3d820620	0.063488245
184	0xbd83fabf	-0.064443104
185	0xbe07b4a1	-0.13252498
186	0x3da07d52	0.07836403
187	0xbde3940d	-0.11112223
188	0x3cb661ee	0.022263493
189	0xbdc272c3	-0.09494545
190	0x3d9db0a4	0.07699707
191	0xbe178643	-0.1479731
192	0x3d938022	0.07202174
193	0xbdc7fb1f	-0.097646944
194	0x3df98669	0.1218384
195	0x3cef1ada	0.029187609
196	0x3c4efad6	0.012633046
197	0xbd699fe0	-0.057037234
198	0x3c764c18	0.015032791
199	0xbb12cb2e	-0.0022398937
200	0x3c8d6dc4	0.017264254
201	0xbd823401	-0.06357575
202	0xbda5f280	-0.08102894
203	0x3d6b102c	0.05738847
204	0xbe24f96d	-0.16110773
205	0xbdd5cc63	-0.10439374
206	0x3e2fe131	0.17175747
207	0xbd8b690d	-0.06807146
208	0xbd1cc408	-0.038272887
209	0xbd8c4b4b	-0.068502985
210	0x3e344fb4	0.1760853
211	0xbe4cc052	-0.1999524
212	0x3e16ea5f	0.14737843
213	0xbd2800fe	-0.04101657
214	0x3d997aee	0.0749415
215	0xbd9d1698	-0.07670325
216	0xbca81c29	-0.02052124
217	0x3e08aa3b	0.13346188
218	0x3cd6b99d	0.026211554
219	0xbda2f9ca	-0.079578
220	0xbe1fe8db	-0.15616171
221	0x3ca5588c	0.020183824
222	0x3e1d2a56	0.15348181
223	0xbdc5399c	-0.09630129
224	0x3e49bd26	0.1970106
225	0xbd45ee2b	-0.048322838
226	0x3d23d59b	0.039998632
227	0x3dc13a62	0.09434964
228	0x3d659e26	0.056059025
229	0x3d8972d4	0.06711355
230	0xbd9db724	-0.07700947
231	0x3c8132fe	0.015771385
232	0x3e120f26	0.14263591
233	0x3d4f64d6	0.050633274
234	0x3d54ae5b	0.05192409
235	0x3d863720	0.06553483
236	0xbdbd1964	-0.092333585
237	0xbd24ba32	-0.040216632
238	0xbdb1e604	-0.0868645
239	0x3da3016f	0.07959258
240	0xbe280062	-0.16406396
241	0xbe14b777	-0.14523111
242	0xbdfb4b9d	-0.122702815
243	0x3daecc6d	0.08535085
244	0x3e558136	0.20850071
245	0x3e621814	0.22079498
246	0xbdeb155a	-0.11478682
247	0x3dd1d588	0.10245806
248	0x3ccffe13	0.025389707
249	0x3e18cb22	0.14921239
250	0xbce7ce2f	-0.028296558
251	0x3d385de6	0.045011424
252	0x3d44ea47	0.048074987
253	0xbe328ffd	-0.1743774
254	0x3e35284d	0.17691155
255	0x3d96e3a0	0.07367635

cpu f4 [256]
0	0x3dd0b5d7	0.10190933
1	0xbda55643	-0.08073094
2	0x3c9f3ea6	0.019439053
3	0x3e0f8d46	0.14018735
4	0xbbf6cb8c	-0.007531589
5	0x3d066eb4	0.03282042
6	0x3e28ee6b	0.16497199
7	0xbd396140	-0.04525876
8	0xbcdb083d	-0.026737327
9	0xbca08b45	-0.019597659
10	0x3dde54dd	0.1085603
11	0x3df140a7	0.117799096
12	0x3d3a07fc	0.04541777
13	0xbc918528	-0.01776369
14	0x3db45bf5	0.08806602
15	0x3e2c51ec	0.16828126
16	0x3e331d5b	0.17491667
17	0x3caf7d60	0.021422088
18	0xbd23d06d	-0.039993692
19	0x3ce14eeb	0.027503451
20	0x3e38e715	0.18056901
21	0x3dc08695	0.094006695
22	0xbd8d6131	-0.069033034
23	0xbd2e07f9	-0.042488072
24	0x3d98615a	0.07440443
25	0x3e14fdb9	0.14549913
26	0x3e0bb365	0.13642652
27	0x3e426f9e	0.18987891
28	0x3e2ba485	0.16761978
29	0x3e5a320d	0.21308155
30	0x3e506432	0.20350721
31	0xbd81a330	-0.06329954
32	0x3d8dfc3c	0.069328755
33	0xbcf62649	-0.030047553
34	0x3d203894	0.039116457
35	0x3c8162ed	0.015794242
36	0xbd8ec9fd	-0.0697212
37	0x3e3df948	0.18552125
38	0x3e330f5f	0.17486332
39	0xbccf37fb	-0.025295248
40	0x3e154f76	0.14581093
41	0xbcd98ea2	-0.02655727
42	0x3e5937ae	0.21212646
43	0x3abad0c7	0.0014252894
44	0x3cdadb59	0.026715921
45	0xbd255feb	-0.040374678
46	0x3de467c8	0.11152607
47	0x3dbadac8	0.091237605
48	0x3e0a4604	0.13503271
49	0x3e5bf90e	0.21481726
50	0x3e085d75	0.13316901
51	0x3daf6bac	0.08565459
52	0x3e332f65	0.17498548
53	0x3e0c756f	0.13716672
54	0x3dcdb563	0.100443624
55	0x3e38d8c9	0.18051447
56	0x3b9895ec	0.004656544
57	0x3db1a7a9	0.08674557
58	0x3db0ff68	0.08642465
59	0x3bb65d3b	0.005565313
60	0x3bd30b25	0.0064405375
61	0x3ddbab56	0.10726039
62	0x3dda4948	0.106585085
63	0x3e06527a	0.131174
64	0x3d4ba9ba	0.04972241
65	0x3dba1090	0.0908519
66	0x3e0003dd	0.12501474
67	0xbb0a22ca	-0.0021077865
68	0x3d5074d6	0.050892673
69	0xba94b25a	-0.0011344657
70	0xbd5e0406	-0.054203056
71	0x3d333fd5	0.043762047
72	0xbc7de9ae	-0.015497608
73	0x3d4b5204	0.049638763
74	0x3d57621c	0.0525838
75	0x3cecfe8e	0.028929975
76	0x3dfa8623	0.12232616
77	0xbd66a019	-0.056305025
78	0x3def02e7	0.116704755
79	0xbe0d7578	-0.13814342
80	0x3d477b33	0.048701476
81	0x3daf3c5c	0.085564345
82	0xbd2968a3	-0.041359555
83	0x3d94b819	0.07261676
84	0xb97a9ef2	-0.0002390107
85	0x3d3d6763	0.046241175
86	0xbcf3b20f	-0.02974799
87	0x3dbcb290	0.092137456
88	0xbd6d48d5	-0.057930786
89	0x3d576be4	0.052593127
90	0x3d94eb4d	0.072714426
91	0xbbd03746	-0.0063542454
92	0x3cbcafe3	0.023033088
93	0xbd4d2bca	-0.05009059
94	0x3defa72b	0.11701807
95	0xbdf0ada5	-0.1175187
96	0xbd455ee0	-0.048186183
97	0x3ddc15f1	0.107463725
98	0x3dba057d	0.09083078
99	0x3cd4413c	0.025910012
100	0xbb8c6d4d	-0.0042854906
101	0x3de3d0e2	0.111238256
102	0xbda88272	-0.082280055
103	0x3d95d101	0.07315255
104	0x3dd7b8d8	0.10533303
105	0xbd0015f9	-0.031270955
106	0x3df1ffea	0.1181639
107	0xbd1e90f6	-0.038712464
108	0x3d576e37	0.052595343
109	0xbdb47b06	-0.08812527
110	0x3e1ddbcf	0.15415882
111	0x3d68a3de	0.0567969
112	0x3cc0413d	0.023468608
113	0xbde8fcf9	-0.11376376
114	0x3d8da3a2	0.06915976
115	0xbd1744ae	-0.036930732
116	0x3c9df9d0	0.019284159
117	0x3c1f3d75	0.009719242
118	0x3cef6d72	0.029226992
119	0x3d82449c	0.063607424
120	0xbe07432e	-0.13209221
121	0xbe08c783	-0.13357358
122	0xbd5fd6c6	-0.054648183
123	0x3d8e5309	0.069494314
124	0xbb594689	-0.0033153614
125	0xbe2e3de9	-0.17015804
126	0x3d96d9c7	0.073657565
127	0xbd5f7632	-0.05455608
128	0xbe01b1e4	-0.12665516
129	0x3d3fdab1	0.04683942
130	0x3d6a60ad	0.057221103
131	0x3d814adb	0.06313106
132	0x3d9062c0	0.07050085
133	0xba822ef0	-0.0009932201
134	0xbe1b3098	-0.15155256
135	0xbd4086ac	-0.047003433
136	0x3d8ffd8a	0.070307806
137	0xbe13031f	-0.1435666
138	0xbdb13219	-0.086521335
139	0xbc82a518	-0.015947863
140	0xbb8cde9b	-0.0042989976
141	0xbd49f759	-0.049308155
142	0xbe1c9226	-0.15290126
143	0xbccae8ea	-0.024769265
144	0x3d27e916	0.040993772
145	0xbe206c28	-0.15666258
146	0x3cde264e	0.027117874
147	0xbd5390da	-0.051651813
148	0x3c96520b	0.018349668
149	0x3db8c1c9	0.090213366
150	0xbe088761	-0.13332893
151	0xbcae4367	-0.021272374
152	0x3d9f1f67	0.077696614
153	0xbda3ba51	-0.079945214
154	0xbd29c8c9	-0.04145125
155	0xbd932e80	-0.071866035
156	0x3d367ab4	0.044550613
157	0xbd33bb02	-0.043879516
158	0x3ddd6787	0.10810762
159	0x3d1786f8	0.03699395
160	0x3b03742b	0.0020058255
161	0xbda68d28	-0.08132392
162	0xbe1603c9	-0.14649881
163	0x3ded79ad	0.115954734
164	0x3dc6841b	0.09693166
165	0x3d6499d8	0.05581078
166	0x3e28b2ec	0.16474503
167	0x3d9b8ca2	0.07595183
168	0x3cbb3d00	0.022856236
169	0xbcc0e5ff	-0.02354717
170	0xbdbc98f9	-0.09208865
171	0xbd93eef1	-0.07223309
172	0x3c4ac762	0.012376638
173	0x3d27fb60	0.041011214
174	0x3e22539d	0.15852208
175	0x3dec1edf	0.11529326
176	0xbe06f663	-0.13179927
177	0x3dab3d14	0.08361259
178	0x3dbbba08	0.09166342
179	0x3de59c96	0.11211507
180	0x3d89a91f	0.067217104
181	0xbdce5e36	-0.10076563
182	0xbdd08d0e	-0.10183154
183	0x3d0a734e	0.03380137
184	0xbd553e8a	-0.052061595
185	0x3d62bc62	0.055355437
186	0xbd4ba0d6	-0.049713932
187	0x3d271659	0.040792797
188	0x3d7de2b7	0.06198379
189	0xbd9703df	-0.07373785
190	0x3dbd63da	0.09247561
191	0x3d499437	0.049213614
192	0x3e4acba5	0.19804247
193	0x3de064c4	0.109567195
194	0x3dae6520	0.08515382
195	0xbc7bac0f	-0.015360846
196	0x3b912b43	0.004430206
197	0x3e2f9af2	0.1714895
198	0x3e341a4e	0.1758816
199	0x3e141be7	0.14463769
200	0x3ccefc9b	0.025266936
201	0x3d11dae2	0.035609134
202	0xbd3fdafa	-0.04683969
203	0xbc28473e	-0.010270892
204	0x3e37eebf	0.17962168
205	0x3c99854a	0.018740315
206	0xbcb6c5dd	-0.022311145
207	0xbde09c14	-0.109672695
208	0x3e374172	0.17896059
209	0x3d18332b	0.037158173
210	0x3d3eb66a	0.046560682
211	0x3df69e6f	0.120419376
212	0x3d9ec796	0.07752912
213	0x3e4a82d7	0.19776474
214	0xbd6cb5be	-0.05779051
215	0x3dcdcee3	0.10049226
216	0x3da3a2b9	0.07990021
217	0x3e0ab115	0.13544114
218	0x3e4799af	0.1949222
219	0x3ddab46e	0.106789455
220	0xbcf99f02	-0.030471329
221	0x3e31d55a	0.17366543
222	0x3cea929c	0.028634362
223	0xbd11a51b	-0.035557847
224	0x3c92f4ee	0.017939057
225	0x3e3d3199	0.18475951
226	0x3e26fcd7	0.16307388
227	0x3ce21ee2	0.027602617
228	0x3d82089c	0.06349298
229	0x3e3c1ba4	0.18369919
230	0x3d82a4ba	0.06379075
231	0xbd2de20a	-0.042451896
232	0x3e5a673d	0.21328445
233	0x3e644aea	0.22294202
234	0xbd08fd6e	-0.033444814
235	0x3e20b26d	0.15693064
236	0x3e28c444	0.1648112
237	0x3e286bce	0.16447374
238	0x3c4e9eb2	0.012611078
239	0x3cca24d0	0.024675757
240	0x3e291c2e	0.16514656
241	0x3e94f69b	0.29094395
242	0x3d8708c5	0.065934695
243	0x3ca2e99b	0.019886782
244	0x3d7fd32d	0.062457252
245	0x3e5e82de	0.2172961
246	0x3b8f9907	0.004382256
247	0xbd9283c1	-0.07154036
248	0x3d4aced2	0.049513645
249	0xbce9b6e8	-0.0285296
250	0xbd3cbff1	-0.046081487
251	0x3e33ca03	0.1755753
252	0x3d267c3d	0.040645827
253	0x3e9382f0	0.28810835
254	0x3a227f5a	0.00061987864
255	0xbb8597be	-0.004076927

cpu f4 [256]
0	0x3df21e15	0.11822144
1	0x3dae23f5	0.08502952
2	0x3e00b62f	0.12569498
3	0x3e2b7e0f	0.16747306
4	0x3ddf4da4	0.10903481
5	0x3cc3b330	0.023889154
6	0x3db0e259	0.086369224
7	0xbc1718ad	-0.009222192
8	0x3d060ef7	0.032729115
9	0x3d7eff6d	0.06225531
10	0x3dab9177	0.083773546
11	0x3dd657c8	0.10465962
12	0x3c9ab717	0.018886132
13	0xbd998b47	-0.07497268
14	0x3e2d0d30	0.16899562
15	0xbc74ca47	-0.014940805
16	0x3e027a6a	0.1274201
17	0x3e12aa7e	0.1432285
18	0xbdd8b47d	-0.105813004
19	0x3e59a909	0.21255888
20	0x3e8f6eaf	0.28014132
21	0x3e4ec8f9	0.20193852
22	0xbe3812b9	-0.17975892
23	0x3e21a482	0.15785411
24	0x3e0ce8d6	0.13760695
25	0x3d5f3eb6	0.054503165
26	0x3e75232d	0.239392
27	0x3e548e5a	0.20757428
28	0x3d69ba7c	0.05706261
29	0x3e476e4a	0.19475666
30	0x3df959b5	0.121753134
31	0xba0aa821	-0.00052893354
32	0x3b4f26ef	0.00316089
33	0x3dfdbe41	0.12389804
34	0x3e127e8b	0.14306085
35	0x3d6b34e6	0.057423495
36	0x3dabf13b	0.083956204
37	0x3c897e37	0.016783817
38	0x3ea1c864	0.31598198
39	0x3d657ebc	0.056029066
40	0x3e5b95e3	0.21443896
41	0x3e4028d7	0.18765579
42	0x3daa3767	0.083113484
43	0x3dd25fbe	0.102721676
44	0x3c3238a0	0.010877758
45	0xbc87f826	-0.016597819
46	0xbdbe9f22	-0.09307696
47	0xbcbab2be	-0.022790309
48	0x3e1c597b	0.15268509
49	0x3e21f9f3	0.15818004
50	0xbcb3fdd4	-0.02197162
51	0x3e159932	0.1460922
52	0x3e587ada	0.21140614
53	0x3d979104	0.074007064
54	0x3d4cdde4	0.0500163
55	0x3d632114	0.055451468
56	0x3daab4c1	0.08335257
57	0x3dc9caae	0.09853111
58	0x3e391211	0.18073298
59	0x3da2734f	0.079321496
60	0x3d54b25f	0.05192792
61	0x3e8204b6	0.2539422
62	0x3e4d4fca	0.20049968
63	0x3e35afc3	0.17742829
64	0x3d5a2799	0.05326042
65	0xbbc5ad1c	-0.006032599
66	0x3d3a03b9	0.045413706
67	0x3d5f54f6	0.054524384
68	0x3cda1f67	0.026626302
69	0xbdef789a	-0.11692925
70	0x3d475720	0.048667073
71	0xbd02df03	-0.03195096
72	0x3dfc9eef	0.12335002
73	0x3d918479	0.07105345
74	0x3cfe5f91	0.031051429
75	0x3dcc72da	0.09982844
76	0xbda31460	-0.079628706
77	0xbc072f39	-0.008251005
78	0x3c8b1764	0.016978927
79	0x3d9e9e8f	0.077450864
80	0x3b309669	0.002694512
81	0xbdfef054	-0.12448183
82	0x3e09ea1f	0.13468216
83	0x3d2463eb	0.04013435
84	0x3d94363c	0.07236907
85	0xbd61a61b	-0.05509005
86	0x3e1b59c3	0.1517096
87	0x3cde3e7c	0.027129404
88	0x3da1f9fa	0.07909007
89	0x3d0b5c33	0.034023475
90	0xbe1ab228	-0.15107024
91	0x3da7b140	0.08188105
92	0x3ca1a942	0.019734029
93	0xbd9ad907	-0.07560926
94	0xbd9aae80	-0.075528145
95	0x3d23b929	0.039971504
96	0x3bc47987	0.0059959325
97	0x3daeb5be	0.08530758
98	0xbd4cb448	-0.049976617
99	0x3e1844bc	0.1486997
100	0x3d65fbe9	0.056148443
101	0x3c700f7c	0.014652129
102	0x3ced5883	0.02897287
103	0x3c9cb9dd	0.019131595
104	0x3d2ea035	0.042633254
105	0xbcfdae28	-0.030966833
106	0x3dac482a	0.08412202
107	0x3d862804	0.06550601
108	0x3d86de6c	0.06585392
109	0x3d3d69cb	0.04624347
110	0x3e1edad5	0.15513165
111	0xbda779d3	-0.08177533
112	0x3d9c5e74	0.07635203
113	0xbdc5f3d1	-0.09665645
114	0xbdb2b469	-0.08725817
115	0x3a42d99e	0.000743294
116	0xbde1a1d5	-0.11017195
117	0xbd349bb6	-0.04409381
118	0x3ddbf0db	0.10739299
119	0x3c8dd9e5	0.017315814
120	0x3d828124	0.06372288
121	0x3dc2d351	0.09512962
122	0xbdc62068	-0.0967415
123	0xbdac6b6b	-0.08418926
124	0xbd359aba	-0.044337012
125	0x3c2f4440	0.010697424
126	0x3de6f406	0.112770125
127	0x3b26b9b1	0.002544027
128	0x3b4ae886	0.0030961349
129	0x3dfe1abb	0.12407442
130	0x3e10f8fd	0.14157481
131	0x3dfe706d	0.12423787
132	0x3dd374f0	0.103250384
133	0x3d8955aa	0.06705792
134	0x3d428a09	0.04749492
135	0xbd8b6dfe	-0.06808089
136	0x3e1cd517	0.15315662
137	0xbdd03cdd	-0.10167859
138	0xbd915b0a	-0.070974424
139	0x3d9ecf18	0.07754344
140	0x3d70e209	0.058809314
141	0x3d1ea4b9	0.03873131
142	0xbe18610b	-0.14880769
143	0x3e03cce6	0.12871131
144	0xbde3fd49	-0.11132295
145	0xbda1f932	-0.07908858
146	0x3dc28a5b	0.094990455
147	0x3d03fb43	0.032222044
148	0x3d8f7f1e	0.070066676
149	0xbd41d23d	-0.04731964
150	0xbd5616fe	-0.05226802
151	0x3da23bb4	0.07921544
152	0x3db9d867	0.090744786
153	0x3d9fcc71	0.07802666
154	0xbc086fa0	-0.008327395
155	0xbcae6682	-0.021289114
156	0x3baf2347	0.0053447816
157	0xbcaa2efa	-0.020774353
158	0xbd97128b	-0.07376584
159	0xbafcee41	-0.0019297079
160	0x3db11366	0.08646278
161	0xbd710423	-0.058841836
162	0xbd969d5f	-0.07354235
163	0xbd143a93	-0.036188673
164	0xbd68db4d	-0.056849767
165	0xb9931d02	-0.00028059637
166	0xbd2618a9	-0.04055086
167	0xbce1a871	-0.02754614
168	0x3bd454fe	0.0064798584
169	0x3e188268	0.14893496
170	0xba674668	-0.0008822442
171	0x3e1c5dab	0.15270106
172	0x3df5f819	0.120102115
173	0xbd12c347	-0.035830762
174	0xbc49ae22	-0.012309583
175	0x3db85c66	0.090019986
176	0xbd83c924	-0.06434849
177	0xbda4a012	-0.080383435
178	0xbce62c52	-0.028097305
179	0xbcb21c7f	-0.021742104
180	0xbe073405	-0.13203438
181	0xbd25d81a	-0.040489294
182	0xbda41390	-0.08011544
183	0x3d0b036d	0.033938814
184	0x3d84e25a	0.06488486
185	0xbcdce7cd	-0.026966
186	0x3dc398f4	0.09550658
187	0x3d57bb0a	0.05266861
188	0x3c0f3a90	0.00874199
189	0x3d81a897	0.06330984
190	0xbd79954e	-0.060933404
191	0xbb6204b0	-0.0034487657
192	0x3e7231bb	0.23651783
193	0x3aba6859	0.0014221772
194	0x3b81d586	0.0039622216
195	0xbc8ef0fe	-0.017448898
196	0xbdeed8a7	-0.11662417
197	0x3e1ff1c2	0.15619567
198	0x3e102a97	0.14078747
199	0xbc81872e	-0.015811529
200	0x3db3ec3e	0.08785294
201	0x3db16a35	0.086628355
202	0x3d5cb989	0.053887878
203	0x3b51fea4	0.0032042647
204	0xbc031444	-0.008000437
205	0x3d7bfcf8	0.061520547
206	0x3d15eb9e	0.036601655
207	0xbd95a8a5	-0.07307557
208	0x3e7217a8	0.23641837
209	0x3dfcd4ca	0.12345274
210	0x3d842920	0.064531565
211	0x3e8155db	0.25260815
212	0x3dc6975d	0.09696839
213	0x3d8e19cf	0.06938516
214	0xbcaeb419	-0.021326112
215	0x3e23c34d	0.1599247
216	0xbcaa3a9a	-0.020779897
217	0x3dcc76a1	0.09983564
218	0x3cf2aaad	0.0296224
219	0x3c1878ac	0.009306114
220	0xbd2eaab0	-0.04264325
221	0x3cfa8232	0.03057966
222	0x3db7b1b7	0.08969443
223	0x3c63b7a4	0.013898764
224	0x3da70e60	0.08157039
225	0x3dcb95fd	0.09940717
226	0x3e970308	0.294945
227	0xbd81e844	-0.06343129
228	0x3dae236d	0.08502851
229	0x3e1a834c	0.15089148
230	0x3e80db96	0.2516753
231	0x3e1141f3	0.14185314
232	0x3ea33548	0.31876588
233	0x3ea67614	0.3251196
234	0xbd0c0702	-0.03418637
235	0x3dfbf254	0.1230208
236	0x3dce2dd9	0.100673385
237	0x392b625d	0.00016344474
238	0x3b63254a	0.0034659677
239	0x3d7c00da	0.06152425
240	0x3e1fa510	0.1559031
241	0x3e527015	0.20550568
242	0xbd39513b	-0.045243483
243	0xbd828ef1	-0.0637492
244	0xbd920197	-0.071292095
245	0x3e49c669	0.19704594
246	0x3de991fb	0.11404797
247	0x3e0e9a51	0.13926055
248	0xbcc003bd	-0.023439283
249	0x3d4b2d63	0.04960383
250	0x3de1d056	0.11026065
251	0x3e4a294b	0.19742315
252	0xbe3e45c0	-0.18581295
253	0x3d4f9d94	0.050687388
254	0x3da16781	0.0788107
255	0x3e495bf3	0.19663982
